model_v2.pth (torch, 804486 bytes, 10 tensors)

0.weight f4 [256, 6]
00000000: 6645 5ebe 148c bebd bebd 833c 84f2 ba3e
00000010: 9001 aebd 4b7b 82bc 16eb 5a3e 5260 7a3d
00000020: bc5f 103e bf3b 1c3e 4085 4dbe bbcf c8bd
00000030: ba80 59be 5177 debd 5efc a03e 622c c53d
00000040: f225 c6be 84f9 1d3e 8416 623e 512d 4abe
00000050: 8cb2 c4bd 83fe 933e 5ae9 babe 554c 863e
00000060: 22f6 d4be cba0 7b3e a1d3 263e 0716 91be
00000070: c74a c03e cb28 8f3e a500 033f 66be 9a3e
00000080: 97d6 08be 0250 6c3d e1d0 c73e 4458 fcbd
00000090: 3f7e f73d 1bd9 a9be 25b1 82bd 9e4e ae3d
000000a0: 39ac a43e 1738 acbe 3507 40be 776e 50bc
000000b0: 2822 d23a c448 873e a894 ce3d b8c8 7cbe
000000c0: 3f92 79be b31e b1bb d531 80bc 8071 62be
000000d0: 6876 b1be 3c8c d73d c20c 483e cb3f babe
000000e0: e459 eb3e cde1 ed3d d2f3 073e aef4 bb3e
000000f0: 6fb3 10be 9ca7 71be 9001 69be 4eda 91be
00000100: cda5 513e b005 5abd 0f7c b73d abcb e2bc
00000110: 319b b03e edda ca3d bee5 ca3e 5e75 8bbe
00000120: ee01 a0bd fb91 c0bd 089e 81bd 658f d73d
00000130: edc8 ad3d 5377 71bd 597a 9c3e f7c5 e2be
00000140: 5db7 0bbe 2116 3f3e b3bf 88bd 9a2d d23d
00000150: 25df 10be 7a6f a1be 5a24 2b3e aa03 923d
00000160: 7e42 193e 950e f0bd 8649 33bb e201 8cbe
00000170: 59e3 5f3d f8e3 af3e 00d5 2f3d 400f 6cbe
00000180: 209b 67be fbab e2be 4f6a a63e 7eca df3e
00000190: cc62 aa3e 353f 99bd 0273 abbe 468e a6be
000001a0: 3494 20be 55b6 1a3d e02b c0bd 8f52 ac3e
000001b0: fbbd a73e e3c7 ffbe dbff 87be 7f07 cbbe
000001c0: c601 9d3d afd3 9b3e bc28 92be ca39 6f3e
000001d0: 4643 95be d8d3 1dbe 1846 0c3e 5ec7 a2be
000001e0: 187a dbbd 6ff1 ab3c 7be9 093e 001e bfbc
000001f0: a8a9 d1bd 9ccc 263e efa2 2dbd 4bc1 45be
00000200: 4baf ac3e f6b7 ba3e a237 093f c0a6 79bc
00000210: bd4b 033e 6308 b33e 2cc8 a5be 4925 6dbe
00000220: 3a1f 5cbe d39a 26be 1bcc 683c 5728 e13e
00000230: 356f 3ebe 68f8 7e3d fc58 4c3e 4f35 30be
00000240: 5ea5 d83e cd54 1a3e 2758 cbbe 2007 1abd
00000250: 36d0 b3bd 61fb 17be 708a 8a3d 817e 2dbe
00000260: bfba d3bc 02eb acbe 0037 2f3e d7e8 823e
00000270: e98e f43e 57fc 6d3e 9a13 1dbd 4711 ea3d
00000280: dd2c b13e 0e7f cebe be8b 823e 8df6 b33e
00000290: fe43 8e3d 7cf9 b23e 8975 6c3e fe4d 77be
000002a0: 5fa9 943e 8368 a03e 6053 423e 691f 6b3e
000002b0: 0821 57be 2d8e 353e 0302 b33d 3cef e3bd
000002c0: 3e42 ad3e 36d5 0b39 1ee6 d03d 28ee ca3e
000002d0: e74e b6be 1b1c c3bc 8790 653e b520 873e
000002e0: 87bf 9f3e c1f1 86be 9a92 703e 9020 50be
000002f0: 55f7 9e3e 9191 dd3d b479 983e 1d55 8dbe
00000300: 7508 6c3e 1783 873e d199 b23e 4f88 e0be
00000310: c7ef e4be e576 bd3e 005b 123e adf9 4dbe
00000320: 1d9a adbe b9a0 98be 0da4 c9be cfc7 b5bd
00000330: 37e6 38be 4355 35be 8359 e23e f0be a23e
00000340: e370 a3be bcb1 943e 213a 17be 9270 943e
00000350: ed04 b2be 6f6b 153e 007f cabe dff3 f2bb
00000360: 2de5 ebbe b6ef 383e 11fa 013e b29f ff3d
00000370: 3e5a f03d 647d 25be 2ffd cf3e bea9 873d
00000380: 0a1e 32bc 912b 5e3e c91c 883e f5b5 c1bd
00000390: cb19 6fbe 73d1 a9be 9ee5 a63e 917a aa3d
000003a0: fb52 1b3e 44ba 583e b822 7cbe fc32 31be
000003b0: df6b fd3e 170c 303e d1d0 d4be 5acc 893e
000003c0: 0b92 afbd 3c3b 92be fb2d f23e 6d3c a73c
000003d0: d891 45be 62de 813e 535b 763d a70c af3d
000003e0: 22f2 4b3e a712 fe3d 2f84 a6be 5e76 80bc
000003f0: 90a9 a4be fb6f 0d3e 5f3b a43e 2930 d5be
-0.21706161 -0.093040615 0.016081687 0.3651315 -0.08496392 -0.015927931 0.2137874 0.061127014
0.1409902 0.15257166 -0.20070362 -0.098052464 -0.21240512 -0.108626015 0.3144254 0.09627606
-0.38700825 0.15427214 0.22078902 -0.1974385 -0.096043676 0.28905115 -0.36506158 0.26230112
-0.41594034 0.24573056 0.16291668 -0.28337118 0.3755705 0.2796081 0.5117286 0.30223387
-0.1336311 0.05769349 0.3902655 -0.12321523 0.120846264 -0.3317345 -0.06381444 0.08511089
0.32162645 -0.33636543 -0.1875275 -0.012721649 0.0016031908 0.26422703 0.10086948 -0.24685943
-0.24372195 -0.005405271 -0.015648762 -0.2211361 -0.3466065 0.105247945 0.19536117 -0.36376795
0.4596702 0.11615334 0.13276604 0.36710113 -0.14130948 -0.23599094 -0.22754502 -0.28486866
0.20473404 -0.05322808 0.08959209 -0.027685007 0.34493402 0.09905038 0.39628404 -0.27237982
-0.07812868 -0.094028436 -0.0632897 0.10525397 0.08485589 -0.058951687 0.30562094 -0.4429166
-0.13644166 0.18660785 -0.06677189 0.10262604 -0.14147623 -0.31530362 0.16713086 0.07129605
0.14966771 -0.11721531 -0.0027357056 -0.27345186 0.054660175 0.34353614 0.042927742 -0.23052692
-0.22617769 -0.44271836 0.32502982 0.43709177 0.332785 -0.07482759 -0.33486181 -0.3253042
-0.15681535 0.03777154 -0.093833685 0.33656737 0.3276213 -0.4995719 -0.2656239 -0.39654157
0.07666354 0.3043494 -0.28546703 0.23361889 -0.29152888 -0.15412843 0.13698614 -0.3179273
-0.10716647 0.020989148 0.13467972 -0.023329735 -0.102374375 0.1628899 -0.042391714 -0.19312017
0.33727488 0.36468476 0.53600514 -0.01523751 0.1282186 0.34967336 -0.32379282 -0.23158754
-0.21496287 -0.16269998 0.014208819 0.4397609 -0.1859711 0.062248617 0.1995582 -0.17207836
0.42313665 0.15071411 -0.39715692 -0.03760445 -0.087799475 -0.14841987 0.06764686 -0.16942789
-0.025845883 -0.33773047 0.17110825 0.25568268 0.47765282 0.23240791 -0.03834877 0.11429077
0.3460454 -0.4033131 0.2549724 0.3514904 0.06946562 0.34955966 0.23091711 -0.24150845
0.2903547 0.31329736 0.18977118 0.22961201 -0.21008694 0.17730017 0.08740618 -0.11129615
0.338396 0.000133355 0.10200141 0.39634824 -0.35607073 -0.023817113 0.22418414 0.2639214
0.3120081 -0.2635632 0.23493424 -0.20324922 0.31048074 0.1081878 0.29780352 -0.27604
0.23050101 0.264672 0.34882978 -0.43853995 -0.44714186 0.37004772 0.14292526 -0.20114775
-0.33906642 -0.29810122 -0.39382973 -0.08876001 -0.1805657 -0.17708306 0.44208917 0.317863
-0.31922063 0.2904185 -0.14768268 0.28992134 -0.34769383 0.14591764 -0.39550018 -0.0074143256
-0.46073285 0.18060192 0.12693049 0.12481631 0.11735962 -0.16161114 0.4062285 0.06624173
-0.01087142 0.21696307 0.2658446 -0.09458534 -0.23349683 -0.3316761 0.3259706 0.08324159
0.15168373 0.21164805 -0.24622619 -0.17304605 0.49496362 0.17192112 -0.41565564 0.2691372
-0.08572777 -0.28560817 0.47300705 0.020414555 -0.19293916 0.25364977 0.060145687 0.08547335
0.19916585 0.124059014 -0.32522723 -0.015681442 -0.32160616 0.13812248 0.32076547 -0.41638306

0.bias f4 [256]
00000000: aad8 a3be e78e a0be d830 adbd 872c 33be
00000010: 5c46 7bbd aa03 3abe 829e 063d 3615 64bc
00000020: ed0d 90be 4d28 d83d 3ae6 6cbe abec debc
00000030: c6a3 133d 5de8 39be c29a 2cbd ff79 de3d
00000040: 8afd 1cbe caaa 523e 7da6 4dbe b919 973e
00000050: f77d 8abe c478 8cbe 3eef 71be 4699 6d3e
00000060: 07dc 8b3e 2eb2 b03d dc07 84be a3a8 583e
00000070: 5c22 39be 00e9 863e 1f23 1d3e ea2f 8dbe
00000080: c1c7 743d 8035 e03d c94e 3bbd d759 0c3e
00000090: 1466 70be 4929 8bbc f8d4 d2be 79b7 24be
000000a0: 779c 51bc 6f8a 1ebe 0bf8 103e 9734 a0bd
000000b0: 1ab1 673e 6351 b23c bd9d 443e 0123 ce3d
000000c0: 88b1 503e f75f 8c3e 64d6 cabc 2fe0 5a3e
000000d0: a04e ca3e 6199 993e db91 f83d 93ad d5bd
000000e0: 9b79 213e 6cdd 2fbe c6dc 8a3e 41fc d23e
000000f0: bf99 30be 4c00 323e 8a6d 433e bec2 173e
00000100: 5f46 2f3d adbc 963e 3bbc 853e ec8a 3b3e
00000110: 58dd f73d a024 77be f7b2 65be dddc b5be
00000120: 8298 cebe 4d13 51bd 8a66 a8be c303 9fbe
00000130: dea0 843e 0f64 c0be 2d08 2d3e b89b a23e
00000140: c829 693e 8dc3 fc3d dc50 25be 2930 f13c
00000150: 728f 1a3d 03a1 b43e 3a9b 003e 0642 3e3e
00000160: 1dde 9abe 9b9f 973d 00ac 743e 839b 233e
00000170: fa9e 963e 32f9 f83d 7efd bebe 7d97 b03d
00000180: d505 b2be 6322 c4be 84c5 a83e 9802 5e3d
00000190: e58a 283e d6a9 c5be 65b1 533d 98d7 86be
000001a0: f6f4 383d 86e8 8b3e c34b b9bd 574b cdbe
000001b0: 503f b73e 5acb 1ebd 447a 01bb 1a75 123d
000001c0: fd5f cdbe 056e 543d cce5 93be df28 43be
000001d0: f2f2 16be 126f 80be 4df2 8c3e aa20 81bd
000001e0: ed98 3abe 16eb 283e ee9f 9c3e 1fe3 a1be
000001f0: b189 963d 8f58 85bd 8f4d d83e 9cc0 b9be
00000200: 0883 43be d8f3 823e a145 94be ce91 303e
00000210: 370c a83e d785 a83e 23f8 273e 3a26 c93e
00000220: 5f26 25be 5349 58bd 376e 0bbe 595e e0be
00000230: aee4 003e df4e 75be 4e66 91be 532c 80be
00000240: ebf0 1fbe b1a9 79be 35c5 5e3e f32c b33e
00000250: 651d f7bd 0d02 86be b8cd 85be ed41 3dbc
00000260: 3f4b 953e cc06 1f3e ffce c43e fa4c 373e
00000270: 69e6 21be 1186 883e 9a57 2bbe f0ff afbe
00000280: 8cb7 1a3d 2f17 1cbe 5ee2 953e e499 343e
00000290: 4c05 d7be e7c1 bb3e dd65 3abe 5392 b9bd
000002a0: abb2 eebe d1c9 c7be 01d7 e23d 8baa dabe
000002b0: cfbf c6be c1c5 a13d 419f bd3d 620f a33d
000002c0: f25b c8bd 3af0 fe3d aacb 903e 5cf8 9c3d
000002d0: 0b86 543e 4701 a8be a985 3dbd fd46 79be
000002e0: 036b c6be ee3e 143e b7b7 52be c466 5cbd
000002f0: 94f5 bbbe c928 5bbe 4c50 87be f5bd 193e
00000300: d0dc cabd 577e 6a3e 9b3b 153e 22cf 813e
00000310: b74e c3be 0b9f 2a3e fe66 0dbc 8dfb 573d
00000320: e1f6 0dbd 85b2 40bc 766a 20be 6b1d 95be
00000330: 85ea 3d3e c3b0 433e a32b 2dbe 27e1 efbd
00000340: 63a4 ba3e b818 53be 7d79 65be 3fbe 433e
00000350: 34b8 843e 64d8 ce3e 041f b63e 7d9b 11bd
00000360: a242 b6bd 846f 793e 4069 2c3e 8a0c ab3e
00000370: cf3f 90be 8d42 3dbd 1579 b8be db7b 093d
00000380: 70c8 6f3e f18a bbbe 5c65 af3e 9b49 693d
00000390: 1703 51bd 2ee5 9f3e f0e7 1cbe 3452 67be
000003a0: 7dc6 1bbe ebdd a9be 8f33 83be cb87 1c3e
000003b0: e0e7 913e 4bc7 03be 5e64 87be b93e 503e
000003c0: f9bd 063c 892d edbb 8531 cbbc bf1a 1abd
000003d0: bc92 93be 1b0c 23be de00 cc3e 5850 353e
000003e0: d526 493e 2ae7 bb3c a7e6 f1be 2d4c 833e
000003f0: 8f3e 9e3e a501 5a3e 3753 22be 6ce0 2a3d
-0.3200124 -0.31359026 -0.08456582 -0.17497455 -0.061346397 -0.1816546 0.03286601 -0.013921073
-0.28135625 0.10554562 -0.231347 -0.027212461 0.03604486 -0.18155046 -0.042139776 0.10863113
-0.15331092 0.20572963 -0.20083041 0.29511812 -0.2704923 -0.27435887 -0.2362642 0.23203
0.27316305 0.08627735 -0.25787246 0.2115808 -0.18079513 0.2634964 0.15345429 -0.27575618
0.059760813 0.10947704 -0.045729432 0.13706146 -0.2347644 -0.01698746 -0.41178107 -0.16085614
-0.012793652 -0.15482496 0.14157121 -0.07822531 0.22626153 0.021767324 0.19200797 0.1006527
0.20380223 0.27416965 -0.024760433 0.21374582 0.3951311 0.2999983 0.12137195 -0.10433497
0.15769045 -0.1717431 0.27121562 0.4120808 -0.1724615 0.17382926 0.19084755 0.14820382
0.04279172 0.29440823 0.2612017 0.18314713 0.12102765 -0.24135065 -0.22431551 -0.35520068
-0.4035073 -0.051043797 -0.3289073 -0.31057557 0.25903982 -0.3757634 0.1689765 0.3175943
0.22769845 0.12341986 -0.16144127 0.02944191 0.037734456 0.35279092 0.12559214 0.18579873
-0.30247584 0.07403489 0.23893738 0.15977292 0.29418164 0.12156905 -0.37302774 0.08622644
-0.34770074 -0.38307485 0.32963192 0.054201692 0.16459234 -0.38606137 0.05168285 -0.2633636
0.045155488 0.2732584 -0.090476535 -0.40096542 0.3579049 -0.03876815 -0.0019756714 0.035756208
-0.40112296 0.051862735 -0.2888626 -0.1905856 -0.14741114 -0.2508474 0.2752861 -0.06305058
-0.18222399 0.16495928 0.30590767 -0.31618592 0.07350481 -0.06511032 0.42246673 -0.36279762
-0.19092953 0.25576663 -0.28959373 0.1724312 0.3282182 0.32914612 0.1640325 0.39286977
-0.16127919 -0.052804302 -0.13616262 -0.43821982 0.12587234 -0.23955868 -0.28398365 -0.25033817
-0.15619247 -0.24381138 0.21754916 0.3499523 -0.120661534 -0.2617344 -0.26133513 -0.011551362
0.2915897 0.15529937 0.38439175 0.17900458 -0.15810551 0.26664785 -0.16732636 -0.34374952
0.0377727 -0.15243219 0.29274267 0.1763683 -0.4199623 0.36671373 -0.1820292 -0.09061112
-0.46620688 -0.3902116 0.11076165 -0.4270824 -0.38818213 0.07899047 0.09258891 0.079619184
-0.09783162 0.12448163 0.28280383 0.07664558 0.20754258 -0.32813475 -0.046270046 -0.24343486
-0.38753518 0.14477131 -0.20577894 -0.053808942 -0.367108 -0.21402277 -0.2642845 0.15013869
-0.09905398 0.22899757 0.14573519 0.25353342 -0.38145992 0.16662233 -0.008630512 0.052730132
-0.03465927 -0.011761312 -0.15665612 -0.29124007 0.18546493 0.19110398 -0.16911177 -0.11712866
0.36453542 -0.20614898 -0.22409625 0.19115542 0.25921786 0.40399468 0.35570538 -0.035548676
-0.08899428 0.24358946 0.16837025 0.33408004 -0.28173682 -0.046206046 -0.36029878 0.033565383
0.23416305 -0.3662944 0.3425702 0.05695496 -0.051028337 0.31229538 -0.15322852 -0.22589952
-0.15212436 -0.33177122 -0.25625274 0.15286176 0.2849722 -0.12868993 -0.26443762 0.20336427
0.008224004 -0.007238094 -0.024803886 -0.037623163 -0.28822887 -0.15922587 0.39844412 0.1770643
0.1964372 0.022937376 -0.47246286 0.25644055 0.30907103 0.2128969 -0.15852056 0.04171793

2.weight f4 [256, 256]
00000000: 13f7 973c 70e8 173c 50b3 643c 70d0 37bd
00000010: e20e 4fbd 60f2 51bb 1899 9ebc 4ed6 683c
00000020: 8c77 853c e2ef 27bd 9c00 383d 503d fd3c
00000030: 6b9b e2ba dfd2 c5bc 3515 ad3c a54c 433d
00000040: 4fc5 12bd 97c3 923c 60f8 adbc fabd 203d
00000050: 0811 2b3d 404a f93a f030 0dbc 82f6 87bd
00000060: 7cc1 80bd 6096 2abb f408 31bd 750c 203d
00000070: 40f3 ac3a a09f e3bc a0b3 493c d049 e7bc
00000080: b8e4 71bc ec05 82bd 6a17 88bd 6a60 2cbd
00000090: a776 86bd 80a8 88bb 5024 b1bb e688 3b3d
000000a0: 0a33 333d 2016 dfbb 50e0 913b bef0 04bd
000000b0: 088a d53c 18ef 313c c096 a6ba cc86 f23c
000000c0: c30a 523c 25bf 65bd f8a7 20bc 2484 d03b
000000d0: bd41 1f3c 9488 34bd 9897 5fbd ece9 153d
000000e0: 9e5c 37bd 25c4 99bb 8418 123d f8a3 7ebd
000000f0: 00f8 0dbd 90ec 8bbd 1e27 b3bb 9811 1f3c
00000100: 182e 96bc 765c 003d ec44 89bc 20a6 a9bb
00000110: c6d0 113d 8cf1 1e3d c8ba 7f3d 743b af3c
00000120: 8297 2c3d de19 95bd 98fd 66bc 2861 efbc
00000130: b769 3dbd 9c1b b13c 80d1 dcba a5c8 c9bc
00000140: fcf6 a4bc 515a edbb a88f f8bc 9e71 d7bb
00000150: c47a f93c d7a4 28bd 988a 173d c0a5 15bd
00000160: 2088 4bbb e0f4 603d 62e0 07bc b116 683a
00000170: 3ccb 30bd 0631 91bd e43c af3c f0b2 a63c
00000180: ee49 453d f092 3b3c a439 413d 1b13 283d
00000190: 3688 07bc 0c77 3ebd 8063 043d bcb8 8abc
000001a0: bab0 0bbd 247a bd3b 6222 643d 2c04 dbbc
000001b0: f93f f83b b74e 35bc 382c 843c a48f 44bc
000001c0: 39c3 96bd e032 47bc 5e29 7ebd dc87 123d
000001d0: 79b3 873b f05d 72bd 984c f5bc d9b1 2cbb
000001e0: b81f ab3c 2895 4f3c c331 80bd 57e7 60bc
000001f0: f190 88bd f04c 383c 3f36 983b f878 c8bc
00000200: 6cdf 2abd e476 56bd 6054 9e3c d8fc c83c
00000210: 5d44 95bd da88 3fbd 7f29 50bd 5ac6 f83c
00000220: fe4a 0dbd 8823 ba3c ab0a 32bd 60fc 04bd
00000230: 74da cbbc 6c48 5b3d 94bf 51bd c0e2 48bb
00000240: 1c7c f7bc a846 52bd 419a 15bd c0e3 6ebd
00000250: e142 b6bc 0048 e539 ad5e 44bc 20d0 a93c
00000260: c075 2cbd 1301 84bd 2034 583c dca0 cdbb
00000270: c8e7 34bd 8676 49bd a12b 393d 08fd 273d
00000280: 62a4 113d 5272 35bd 488c bcbc ec3c d93c
00000290: f887 c53c e058 93bd 27cd cf3b 74a9 39bd
000002a0: 78fc 7fbd 5ce1 703d 3e6e 083d 601d cebc
000002b0: 3a7a 3ebd 7cb3 713c daf5 6bbd c9fd e73c
000002c0: fdaa 72bc 25be 583c 2643 d239 15b0 4abc
000002d0: 7efd 533d de53 2d3d 60aa 1dbd acef be3c
000002e0: 9455 87bd 005d e2bb 2036 7abc 0c32 7e3d
000002f0: 5e68 51bd 243f dabc a0e5 1bbb b488 48bd
00000300: 72fd 50bd cb70 9e3b 1835 2dbd d038 46bd
00000310: ec12 943c 84ee 2d3c d383 323d a2e9 42bd
00000320: c405 4d3d 28f3 e43c 2c4d 213d 1a4d 25bd
00000330: 403a 52bc a463 96bd 94b4 3dbd 0b6c 293c
00000340: 9be9 f9bb 0a68 023d b0ea be3b d4d4 5cbd
00000350: 4333 4e3d 9279 f1bc e87e 67bc 749e 5f3d
00000360: db2f 61bd e809 fe3c a4b0 bfbc d20c 273d
00000370: 758c 12bd 78d9 7cbd 7bed 28bc 4a40 563d
00000380: a482 cd3c 5438 b23c 2051 63bd 9040 113d
00000390: 55ee 74bb 1f36 9e3c 2abe 063d e500 83bd
000003a0: e857 593c 702b 833b 4484 debc 58b0 013c
000003b0: 7e74 97bd a09c 52bc 7a70 313d 11cf 89bd
000003c0: 0402 25bd d011 4d3d 726c 51bd ba87 58bd
000003d0: a051 dc3b 1c26 c63c f918 fb3b ee7a 51bd
000003e0: 902e 59bc 63e8 61bd a89a 6dbd ad43 8bbd
000003f0: f8a5 5eba ec7b 5fbd f5ac 3ebc dcdf 8bbd
0.018550431 0.009271726 0.013958767 -0.044876516 -0.050551303 -0.0032035336 -0.01936011 0.0142112505
0.016292356 -0.041000254 0.044922456 0.030913025 -0.001728875 -0.024148403 0.021128276 0.047680516
-0.0358327 0.01791553 -0.021236598 0.039243676 0.04176429 0.0019019321 -0.008617625 -0.066388145
-0.06286904 -0.0026029572 -0.04322143 0.03907438 0.0013195053 -0.027786076 0.012310892 -0.028233439
-0.014764003 -0.06348786 -0.06645091 -0.042084135 -0.065656 -0.0041704774 -0.00540594 0.045784853
0.043749847 -0.0068080574 0.004451789 -0.032456152 0.026066795 0.010860227 -0.0012709722 0.029605292
0.012819949 -0.056090493 -0.009805672 0.0063634086 0.009720263 -0.044075564 -0.05458793 0.03660004
-0.04476606 -0.0046925717 0.03566791 -0.06216809 -0.03466034 -0.0683223 -0.0054673096 0.0097087845
-0.018332526 0.031338178 -0.016756497 -0.0051772743 0.035599492 0.038804576 0.062433988 0.021390654
0.042136677 -0.072803244 -0.014098547 -0.029221132 -0.046243396 0.02161961 -0.0016847104 -0.024631808
-0.020137303 -0.0072434326 -0.030341938 -0.0065748235 0.030454047 -0.04117283 0.036997408 -0.036535025
-0.0031056479 0.05492103 -0.008293243 0.0008853479 -0.04316257 -0.070894286 0.02139134 0.020348996
0.048166208 0.011448607 0.04717411 0.041033845 -0.008272221 -0.04650025 0.032321453 -0.016933791
-0.034104086 0.0057823826 0.055696853 -0.026735388 0.0075759855 -0.01106613 0.016134366 -0.011997137
-0.073614545 -0.012158126 -0.06205117 0.035774097 0.004141268 -0.059171617 -0.02994375 -0.0026351123
0.020889148 0.012669839 -0.06259491 -0.013727031 -0.066682704 0.011248812 0.0046451385 -0.024471745
-0.041716978 -0.052359477 0.019327343 0.024534628 -0.0728843 -0.04676137 -0.050820824 0.030368019
-0.034495346 0.02272202 -0.043467205 -0.032467246 -0.02488444 0.053535864 -0.051208094 -0.0030652732
-0.030210547 -0.051336914 -0.03652406 -0.058322668 -0.022248687 0.00043731928 -0.011985463 0.020729125
-0.042104483 -0.064455174 0.013196021 -0.0062752794 -0.044166356 -0.0491853 0.045207623 0.041012794
0.03555716 -0.044298477 -0.02301611 0.026518308 0.024112687 -0.07194686 0.0063415947 -0.04532762
-0.062496632 0.05880867 0.03330826 -0.025160491 -0.046503283 0.014752265 -0.05760751 0.028319256
-0.014811275 0.013228928 0.0004010435 -0.012371083 0.05175542 0.04231631 -0.03849256 0.023307644
-0.066081196 -0.006908059 -0.0152716935 0.062059447 -0.051124923 -0.026641436 -0.002378799 -0.048958495
-0.051022954 0.0048352233 -0.042286962 -0.048394024 0.018075429 0.010615949 0.04358275 -0.04758609
0.050054327 0.027947977 0.039380237 -0.040356733 -0.012831271 -0.07343224 -0.04631479 0.010340701
-0.007626725 0.0318375 0.005826317 -0.053913906 0.050341856 -0.029476915 -0.014129378 0.054594472
-0.05497728 0.031010583 -0.023399659 0.04078371 -0.03577848 -0.06173083 -0.010310526 0.052307405
0.025086708 0.021755375 -0.05549729 0.035461962 -0.0037373502 0.019312916 0.0328962 -0.06396655
0.013265587 0.004002981 -0.027162679 0.007915579 -0.07395266 -0.012854725 0.043320157 -0.06728948
-0.040285125 0.050065815 -0.051128812 -0.052863814 0.0067235976 0.024188094 0.007662889 -0.051142626
-0.01325573 -0.055153262 -0.05800882 -0.068000175 -0.0008493359 -0.05456154 -0.011637916 -0.06829807

2.bias f4 [256]
00000000: 8164 4b3d f3ab cbbc 648c e43b 4398 653c
00000010: 3fc1 9e3d 1a5b 1ebd cc1e 7b3d ad07 aa3c
00000020: d9ee 92bc a585 963c a60f 7c3d 5c0c 563d
00000030: 25ff a9bc 8383 943c cd98 26bd 4de9 d73a
00000040: a6ee d53b d361 a63d 6964 a4bc 1cf6 563d
00000050: 2bbe 48bd 6989 af3d 5915 393d d141 e23b
00000060: c634 98bd 6ab8 813d a503 e9bc 5f7a 1bbd
00000070: e341 63bd c570 04bd b3af b13c 270c b93b
00000080: 46f8 8fbd 4a90 853c 6f25 89bb 145b 033d
00000090: 97cf d8bb b039 1c3d 6c39 d63d 52a8 e4ba
000000a0: bc9d 513c aec8 16bd 718b c63c 64ac 703d
000000b0: d741 4fbd a601 5d3c 193a 89bd 50a6 2a3c
000000c0: f82c 2db9 ecc1 8a3c 69fb 72bd 851a 033d
000000d0: 321c 733c 9214 66bd e83c 8f3d 5c75 eebc
000000e0: a52f 81bd 1c53 c7bc 6586 35bd c7f5 233d
000000f0: 7e87 53bc 49b8 053d b14c 493d 1bd2 af3d
00000100: 1223 55bd 4641 433c febf 62bd f4b3 dcbc
00000110: 0dc0 ce3c 6f31 d23c aae9 f1bc 96fd bf3c
00000120: 6a1f 84bd 5e49 f0bb 2e34 7fbc c0a1 e1bc
00000130: d63a f33d c51c 6e3c 1a99 1d3d 9044 aabc
00000140: 81fa 043c 194b 393d 83de 8fbd ca2b da3c
00000150: 0cca c23d bae9 3c3c 057a bf3c 777e c73c
00000160: 3e36 8f3d f523 14bd c06d 023d 658f 46ba
00000170: 3b4d 183d 002a 92bc 2c28 6cbd d8ae 26bd
00000180: 95e7 28bd 240e ab3c fbc9 0c3d f695 11bd
00000190: 36e7 a83d 86f6 96bd d62d 15bd 86fb 6bbc
000001a0: 72bd 083d a9f8 92bc bb21 55bd 3556 cebc
000001b0: 80a8 803c 9ef5 3c3d 2a27 80bd 6328 613d
000001c0: 0d9e e43c 2fa4 18bd 8bc2 08bd 99c2 80bd
000001d0: 3862 9dbd 69bc 1f3d 8d09 8f3c 09bc 85bd
000001e0: 15ad e93a 5df8 96bb 0ed6 91bd 6ed2 45bc
000001f0: f99b 2f3c da64 11bd 7459 5d3d 27e5 833d
00000200: e0fb 78bd 045e 093d 7a78 0fbd 9ee8 883c
00000210: e459 e9bc e097 82bd 820c 26bd 4660 b1bc
00000220: 7717 66bd 5e8e 7bbc d890 2bbc a579 50bd
00000230: b9b9 363d cd9b 9dbb b71e 87bd 6287 d33a
00000240: 5acd 173c c089 843c 51d3 88bc 3b83 37bb
00000250: b2ec 88bd e1ea 5dbd 0c7d d1bc eea3 a3bc
00000260: 1309 823d c21b 30bc c518 fb3b 7200 fcbb
00000270: d3b0 423d 418b 53bd 3da5 f9bb cf90 8bbd
00000280: ae41 cfb8 957f 743c ac75 1abd a0ba 253d
00000290: da95 1bbc aa27 38bd cecd e13c a826 d4ba
000002a0: ffef 52bd 1b4e b13c e18f 4ebd fd92 0abc
000002b0: 3767 19bd fd80 54bd a9ff 57bd f7b7 8d3b
000002c0: 4fe7 283d f2c5 243c 95c4 9fbb 8c0a d03c
000002d0: a33d 19bd fd23 8dbc 2894 cabc c1de 07bd
000002e0: b134 693d ef4e e8bc 5010 a6bc f225 d5bc
000002f0: 0cdd ffbc 7e30 9ebc 5752 0e3d c8bf 49bc
00000300: 015b cfbc 6d9a 44bd c60c dbbc 5ebb 51bd
00000310: f697 843d 425e 5a3d da66 2a3d e1fe 1bbd
00000320: 962b 82bc 8059 c6bb f402 2fbd 5c34 283d
00000330: ee1a 50bc 938a 72bb bca8 3f3d 4176 1fbd
00000340: 99fa c3bc 8ff1 6ebd fe9c 09be 52de 3abd
00000350: 3622 c8bc 9841 17bd 1834 bf3c e2ed 98bc
00000360: fb8d 58bd 768b 6dbc 46a2 10bd 2a3d 503c
00000370: 6dc6 973d 8db0 17bb dadc 473d f1bb 013d
00000380: e7de dabc 036a a3bd d1d1 13bd f563 b6bd
00000390: d1b4 56bd e510 bd3b d461 c9bc 3926 a73d
000003a0: 71b8 8d3c 1cb4 e23c be3e 22bd 5c2c 323c
000003b0: 82bb 163d da25 0abd 83a5 67bc 66df 60bd
000003c0: 7ffa ccbc 10ae b3bc 6e83 da3c ea1b 463c
000003d0: 886c 18bd e7af 323c ebd4 61bd 8fa0 f73c
000003e0: e181 5abb e494 aebd 71ba c0bb 75ab 57bd
000003f0: 6045 37bc 90aa 0fbd 6ce8 bfbc 38aa 3bbb
0.049656395 -0.024862265 0.0069747437 0.014013353 0.077517025 -0.0386611 0.061308667 0.020755613
-0.017936157 0.018374274 0.06153836 0.05225788 -0.020751545 0.018129116 -0.040673066 0.0016472727
0.0065286933 0.08124127 -0.02006741 0.052480802 -0.049009483 0.08571131 0.045186374 0.0069048186
-0.07431941 0.06334002 -0.02844412 -0.0379585 -0.055482756 -0.032334108 0.021690225 0.0056472006
-0.07029776 0.016304154 -0.0041853706 0.03206928 -0.0066165435 0.038140953 0.10460171 -0.0017445183
0.012793954 -0.036812477 0.024236413 0.058758155 -0.0505999 0.013489163 -0.067005344 0.010415629
-0.00016515318 0.016938172 -0.059321795 0.032007713 0.014838265 -0.05617196 0.06994039 -0.029108696
-0.063079156 -0.024331622 -0.04431762 0.040029313 -0.012910722 0.03264645 0.049145404 0.08584996
-0.0520354 0.011917418 -0.05535888 -0.026941277 0.025238061 0.025658337 -0.029530365 0.023436349
-0.06451304 -0.007332965 -0.015576405 -0.027542949 0.118764564 0.014533226 0.038476087 -0.020784646
0.008116365 0.045237634 -0.070248626 0.026632208 0.09511194 0.011530334 0.023373613 0.024352295
0.06992768 -0.036167104 0.031842947 -0.0007574468 0.037183028 -0.017842293 -0.0576555 -0.040694088
-0.04123648 0.020880766 0.03437231 -0.035543405 0.08247225 -0.07371239 -0.036420666 -0.01440323
0.033383794 -0.017940836 -0.05203412 -0.025187591 0.015705347 0.046132676 -0.0625747 0.054970156
0.027907396 -0.037265953 -0.033388656 -0.062871166 -0.07684749 0.03899804 0.017460609 -0.065300055
0.0017828072 -0.004607244 -0.07120906 -0.012074096 0.010718339 -0.03549657 0.054040387 0.06440192
-0.06078708 0.033536926 -0.035027005 0.016712483 -0.028485246 -0.06376624 -0.040539272 -0.021652352
-0.05617472 -0.015353767 -0.010471545 -0.05089726 0.044610713 -0.0048098327 -0.06597655 0.001613837
0.009265268 0.016178966 -0.016702326 -0.0028001803 -0.06685771 -0.054179076 -0.025572322 -0.019975629
0.06349387 -0.0107488055 0.007662865 -0.007690483 0.047531914 -0.051646475 -0.007618575 -0.068147294
-9.882763e-05 0.014922996 -0.037709877 0.040461183 -0.009496177 -0.0449597 0.027563956 -0.0016185837
-0.05149841 0.021643689 -0.050430182 -0.008457896 -0.03745195 -0.051880825 -0.05273405 0.004324909
0.041236218 0.010056959 -0.0048757293 0.025395654 -0.037412297 -0.017229075 -0.02472885 -0.03317142
0.056935016 -0.028357951 -0.02027145 -0.02601907 -0.031233333 -0.019310232 0.034746494 -0.012313791
-0.025311949 -0.047998834 -0.02673949 -0.051204078 0.06474297 0.053312548 0.041601993 -0.03808487
-0.015889924 -0.0060531497 -0.042727426 0.04106556 -0.012701733 -0.0037008866 0.046791777 -0.038931135
-0.023923205 -0.058335837 -0.13438794 -0.045622177 -0.024430376 -0.03692779 0.02334027 -0.018668119
-0.052869778 -0.014498582 -0.035311006 0.012709895 0.074108936 -0.0023146004 0.048794605 0.031673376
-0.026717616 -0.079792045 -0.03608877 -0.08905784 -0.052418534 0.0057698363 -0.02458278 0.08161587
0.017299863 0.027673773 -0.039610617 0.010874834 0.036799915 -0.033727504 -0.014138582 -0.05490055
-0.02502179 -0.021933585 0.026673999 0.012091616 -0.03721288 0.010906196 -0.055134695 0.030227927
-0.0033341574 -0.085244924 -0.0058816005 -0.05265375 -0.011185974 -0.03507477 -0.023426257 -0.0028635394

4.weight f4 [256, 256]
00000000: 9c11 203d c2f0 04bd 9f99 cb3c c75f 05bd
00000010: e2ac 173d 78f1 c3bc 5036 293d 46e2 dd3b
00000020: 0f83 873b c602 3dbd f38d ef3c 090c 22bd
00000030: 9b63 afbc 8cb8 4b3d 9045 ac3b a769 22b9
00000040: 673f e9bc 360b 9abd 38ff 663c 2fce f8bc
00000050: 6bc4 393c 9e2b 98bd bc51 a43b da57 85bd
00000060: 42fc 83bc aa1c b4bc 45b8 fa3c d9f6 f93c
00000070: 55c2 d23c 1257 06bc 9805 ad3a e499 db3c
00000080: ccd0 5f3c 611c f8ba 10a9 debb 9e6f 32bd
00000090: 93b2 703b 612d 04bc f609 8ebc 9626 3a3d
000000a0: 54d7 ccbc 9608 4a3d 1187 63bd ea2d 243c
000000b0: 4d01 4f3d 54cc 9abd a6aa e93a e5ad 413d
000000c0: ffbc 55bd b090 843d cd3c 993b 3a4a 2fbd
000000d0: d7f6 45bd a8f5 babc 6686 67bd bb40 db3c
000000e0: 6d98 3cbd eaee 073d bac4 79bc de00 a43c
000000f0: ee2e 32bd e5b2 023d 64a4 9bbc a5a8 26bd
00000100: b21c 7f3c 5ee0 983c 8ead 1abd 8ff2 103d
00000110: 2326 26bd e382 ea3c 3959 cc3c 60a8 08bc
00000120: 9918 ecbc 758b 50bc a7fa cd3c 402f f8ba
00000130: 61a1 2a3d c3de 64bd 8aa3 e63c 0b25 0fbd
00000140: 580e 74bd 2415 dc3c f200 66bd 2db8 1b3d
00000150: 426d 453d 32bc a5b9 0036 0b3c 13df bcbb
00000160: 6f99 d8bc e7b6 8dbb 1508 37bd fe7f f53c
00000170: d085 243d e90a 84bc 6e05 543d 577c 053d
00000180: aba7 35bd f405 573d 4ca0 bb3b 1db3 3bbd
00000190: e971 493c c2cc 1ebd 3c1e 1a3d be73 83bc
000001a0: eac1 94bc 0a89 0d3d d7d0 253d 6643 d53c
000001b0: 5234 0bbd ec1b a53b a4fb 4abc 2b35 0fbd
000001c0: 6ff1 213d c9b1 ef3c 575c e1bc ee38 663d
000001d0: f5b5 1dbd e0e2 4fbd f981 34bc cfbd 78ba
000001e0: 810d c7ba cc46 86bd 65e5 8d3b 182e 133d
000001f0: a28d c93c 6638 79bc aaf9 f23c 001b 143d
00000200: 5c50 8bbc 7422 d5bc 56d3 02bd 76e0 603c
00000210: 8bef 8b3d 13d0 7fbd cde0 023d d28c 62bd
00000220: bb07 a0bb 6bdb 4ebd f237 25bd 8b2b 0fbd
00000230: 5846 50bc a174 173d 84a3 e6bb 5056 633d
00000240: 5d8b 52bd a552 afbd 09ee c93c fdae 203d
00000250: ab93 993a 113e 1ebc 0e2e 083b 1b30 3cbd
00000260: ce4b 05bd 857d 1d3b 7bf0 24bc b1cb 433d
00000270: 8c1d 873b ee4b ca3c c636 3c3d a437 913c
00000280: 615c b3bc 209e e23c 828b 4d3d fa5e d3bc
00000290: f8a5 8ebd ec3c 66bd a0e7 1b3d 1cb1 58bd
000002a0: 2cf3 3e3d 9326 bcbc 2cb6 06bd d413 d83c
000002b0: 8d86 31bd e161 8bbd b487 013d 813e 473d
000002c0: aa8a 02bd 0ae0 df3c f561 d83c 47bd 243d
000002d0: 6657 153d ed5e 92bd f2fb 51bd 8f96 86bd
000002e0: 78f8 c33c 27e1 44bd 9136 333d a314 14bd
000002f0: 1ba4 4cbd 6589 4fbd 472a 8dbd 694a 25ba
00000300: a862 54bd 538e 2f3d 978f d53c 7f4b 5fbd
00000310: 5998 89bc fd16 61bc 0160 8fbd b468 6a3d
00000320: 3c8a a5bb edcd d4bb 584f babc c1fb 13bd
00000330: 6c31 8ebd c200 a5bb 6e55 42bd b0e4 3e3d
00000340: 207f 093d 65b5 283d d55e 96bd a651 d5bc
00000350: 5423 20bd d6c0 82bd f688 50bc 62ed b8bc
00000360: 8886 2f3d 12d2 2fbd 4eb1 813d 70fe a3bc
00000370: fa04 cabb 65eb 603c 69e2 0f3d 3d84 73bd
00000380: c92a cd3c af6d 39bd 07c3 063d f981 9b3c
00000390: 5755 dabc b621 37bc 8555 2cbc accb 58bd
000003a0: c77c 86bd 1ca5 2dbc b3ce 073c 9adf 283d
000003b0: af0d e03c c5a6 61bd c75e 3d3b 2d00 39bd
000003c0: b5d9 23bd 98c9 7f3c 9a7e 8fbd 9a75 debb
000003d0: 79c1 0e3d 0bb4 44bd 10b5 103c d917 133d
000003e0: 6b94 f83b aa78 9dbc 957f 9fbc 33b7 cd3c
000003f0: 9b15 2cbd 00ba 6e3c d057 d33c 93c2 41bd
0.039079294 -0.032456167 0.024853526 -0.032562044 0.03703011 -0.023918852 0.041311562 0.0067713587
0.0041354964 -0.046145223 0.029242491 -0.03956226 -0.0214098 0.049736544 0.005257316 -0.00015488882
-0.028472615 -0.075216696 0.014098935 -0.030371753 0.011338334 -0.07430194 0.0050146263 -0.06510897
-0.016111497 -0.021986324 0.030605445 0.030513214 0.02572743 -0.00819947 0.001320052 0.02680678
0.013660621 -0.0018929356 -0.006795056 -0.043563478 0.0036727532 -0.00806746 -0.017338734 0.045446955
-0.02500502 0.049324594 -0.05554873 0.010020712 0.05053835 -0.07558504 0.0017827346 0.04728498
-0.052182194 0.064729095 0.0046764375 -0.042795397 -0.048331108 -0.022822216 -0.056524657 0.026764264
-0.046043802 0.03318683 -0.015244657 0.020019945 -0.043501787 0.03190889 -0.018999286 -0.040688176
0.015570806 0.018661674 -0.03776317 0.035387572 -0.040563714 0.028626865 0.024944888 -0.008340925
-0.028820323 -0.012728562 0.025143934 -0.001893498 0.04165781 -0.055876505 0.028154153 -0.034947436
-0.05958399 0.02686555 -0.056153245 0.03801744 0.0481999 -0.0003161147 0.008496761 -0.005763897
-0.02644035 -0.004324782 -0.044685442 0.029968258 0.040166676 -0.016118484 0.05176299 0.032589283
-0.044349354 0.05249591 0.005725896 -0.045825113 0.012295225 -0.03876949 0.03762649 -0.016046401
-0.018158872 0.03455452 0.04048237 0.026033115 -0.033985443 0.005038729 -0.012389097 -0.034962814
0.03953689 0.02925958 -0.027509851 0.056206636 -0.038503606 -0.050753474 -0.011017316 -0.0009488733
-0.001518652 -0.06556472 0.0043303245 0.03593263 0.024603669 -0.0152112 0.029660065 0.03615856
-0.017006092 -0.026017405 -0.031939827 0.013725391 0.068327986 -0.062454294 0.031952668 -0.055310078
-0.004883734 -0.050502222 -0.040336557 -0.034953635 -0.012712084 0.03697646 -0.0070385356 0.055502236
-0.05140244 -0.08560685 0.024649637 0.03922938 0.0011716982 -0.0096583525 0.0020779404 -0.045944314
-0.032542996 0.0024031114 -0.010067101 0.047801677 0.0041233953 0.02469441 0.045950674 0.017726727
-0.021894636 0.02766329 0.050181873 -0.025802124 -0.0696525 -0.056210443 0.03806269 -0.05290328
0.046618626 -0.022967612 -0.032888576 0.026376642 -0.04334121 -0.06805778 0.031623557 0.048643593
-0.03187052 0.02732851 0.026413897 0.04021957 0.036460303 -0.07147012 -0.051265664 -0.065716855
0.02392219 -0.048066285 0.04375321 -0.036152493 -0.04996119 -0.05066814 -0.068928294 -0.00063053385
-0.0518519 0.04286034 0.026069446 -0.054515358 -0.016796278 -0.013738391 -0.07000733 0.05722876
-0.005051879 -0.006494275 -0.022742912 -0.036128763 -0.0694302 -0.0050354907 -0.047444753 0.046604812
0.0335685 0.041188616 -0.073423065 -0.02603991 -0.03909619 -0.06384437 -0.0127279665 -0.02257413
0.04285291 -0.042924948 0.06332646 -0.020018786 -0.006165144 0.013727997 0.03512803 -0.059452284
0.025044816 -0.045270618 0.032900836 0.018982874 -0.026652021 -0.011177471 -0.010518436 -0.05292861
-0.06566768 -0.010598447 0.008289027 0.041228868 0.027350275 -0.055090684 0.0028895603 -0.045166183
-0.040002543 0.015612029 -0.07006569 -0.0067889215 0.03485248 -0.048023265 0.008832231 0.035911415
0.007586052 -0.019222576 -0.019470016 0.02511177 -0.042012792 0.014570713 0.025798708 -0.0473047

4.bias f4 [256]
00000000: 63bd 4abd b436 c7bd 6226 32bc a4df 0abd
00000010: d2ca 89bc c8eb 41bd e025 43bd 3642 803e
00000020: 0b3b 86bc 413a 8e3d a8cf 0abd 29fd 85bc
00000030: 7916 483d 1545 2cbd 3144 7ebd 6b33 45bd
00000040: 5a1b 643c bdd0 ae3c b688 c83c 0b93 13bd
00000050: 8aa2 f7bc 95ac 4dbd 1680 15bd f69d 36bc
00000060: 6794 56bc 47a7 cbbc 720d 4cbc 1e77 213c
00000070: 42cc a63c f629 a53d 72a9 cd3d d9cc f23a
00000080: 591e 383c 8289 d73b fe23 e83c 53a3 5d3d
00000090: 3e9e 5f3c 908a 6bbd 0729 8d3d c3b3 f7ba
000000a0: 3edd 773d b153 b93c 6259 1fbd abb0 893c
000000b0: 6753 013d cc3c 84bd a19c e43b b2b4 d23a
000000c0: 7341 3fbc 3814 433c 9535 14bd f218 583e
000000d0: 0c68 90bd ed73 edbc 1d9b 2fbd 6eef eb3c
000000e0: 730d 25bd fe51 1cbd be29 5d3d 3bb6 f2ba
000000f0: 2815 b2bc 0638 4dbd 31e9 a2bc bfad 203c
00000100: c7ab fc3c af95 763d e414 babb 97b6 8f3d
00000110: 4b3d a6bd 0ebf 9abd 692b 793d 86c7 613c
00000120: 6c9a 633d 5981 f83c 31a3 c93c 9a3a 75bc
00000130: 8880 8dbb 115c 28bd 5e25 7fbd 6527 d3bd
00000140: a82b 0abd d925 9fbc be87 543d d877 3f3d
00000150: 4d5e e63c 1e85 27bd 5eee 753d 319b 103c
00000160: bbc8 4b3c 7f68 cbbc 4304 d2bc dcd4 25bc
00000170: 393a 8bbc 5344 aebb 91e0 813d bc03 613d
00000180: e395 883c cb28 86bd d8df 21bd 44d5 ce3c
00000190: 4edf 85bd 6d05 6cbd 6d2b 8fbd 8122 0abd
000001a0: a218 d2bd 8323 193d ca47 37bc ef0f 633d
000001b0: 5112 743d b81c 6dbd 0041 1abb 327a 18bd
000001c0: 6735 8cbd 7056 a53d 7cbc 52bd 457d e7bb
000001d0: 2597 d93c 649f 603d 47f2 63bd 1412 81bc
000001e0: e692 d4bc bedc 8cbd cd25 b23c dccd 6c3c
000001f0: d93d 94bd 11e5 0f3d c2bb 853d 3e67 e9bb
00000200: ce44 17bc abf7 79bb d17b ad3b 3fcd 58bd
00000210: a901 1b3c 2c7e 39bd c6c6 ad3d 0a4b 8ebd
00000220: 3026 04bb 325b 33bd 224b 353b 3ca2 fd3c
00000230: 37b6 3a3c 40f7 143e d78b 0cbd 6658 83bd
00000240: 685a 6e3c 1aef 5f3d d977 80bc 230f d33d
00000250: 52cf 40bc cdb6 1abd 6dd7 1abd aca6 af3c
00000260: bc60 e23d 8dca 233d b1e4 6cbd e565 3fbd
00000270: d9b3 00bd 5c35 81bd adaa f4bc 50c7 8dbb
00000280: 72ae de3d cad8 8cbc 4122 7dbd a93a d6bd
00000290: 2629 fd3d 669f 95ba f7e4 ec3c 7901 32bc
000002a0: f4ae b93c eafd c63d e2d0 33bb d61b 723e
000002b0: 7039 e7bc 6968 9dbb f7ef 46bd fab5 c83b
000002c0: 2877 46bd 883b b23d ac4e 94bd 5fb7 a7bd
000002d0: dbc3 463d 4b81 98bb df7f 593c 5cc7 21bd
000002e0: 05b2 2dbd 975d 1abd 3e72 7bbb 7cb8 83bd
000002f0: c093 66bd 1bc7 11bd 6dba 38bd 7a6d bcbd
00000300: f0ed 8b3d b3ec 3bbd ea1b a73d adbe 67bd
00000310: 4a38 6abd b6d6 8e3d 7c27 ac3d 8f51 ffbc
00000320: a651 123d fd53 2dbc bd15 f7bb 4c70 69bd
00000330: 9a06 63bc 2c69 f43c 6606 d9bc b197 723d
00000340: 6fe8 efbc 785e 54bc 86b5 943d a86d ef3c
00000350: 123f 3639 96b4 be3c 8de3 bdbc 3c9e e23c
00000360: 86cc 29bd b504 a83d 8490 6fbd af3c c4bc
00000370: dda1 843d 4320 9fbc 82fb 78bd 42a4 9e3c
00000380: 0929 cc3d 82d7 e13c 14f7 253d 8000 acbd
00000390: d59c 413c 590f 4c3d 93ed 56bd b259 173d
000003a0: 1708 763d b58f 56bd d455 dd3c 2a07 3fbb
000003b0: 114e 133b 66ad 99bc 256b efba 130f 3a3d
000003c0: 594c b53d 5fd3 debb 4141 adb9 dea2 87bd
000003d0: b15b 0d3d 4fbf bbbd 0edd 0f3d 64d3 963d
000003e0: dada cb3b 0d39 993c bfc4 dbbc 7b57 89bd
000003f0: 851d 27bd c518 4ebd 4386 913d 3efc 9b3c
-0.04949702 -0.09727231 -0.010873409 -0.033904687 -0.016820345 -0.047344 -0.047643542 0.25050515
-0.016385576 0.06944705 -0.033889443 -0.016356068 0.048849557 -0.04205807 -0.06207675 -0.04814474
0.013922537 0.021339769 0.024479251 -0.036028903 -0.030228872 -0.050213415 -0.036499105 -0.011146059
-0.013096905 -0.024860037 -0.0124543775 0.00985506 0.02036107 0.08064644 0.10042085 0.0018524184
0.011237704 0.0065776715 0.028337475 0.054110836 0.013648568 -0.05750519 0.06892591 -0.0018898178
0.060513727 0.022622915 -0.0389036 0.016807875 0.03157368 -0.064569086 0.0069766794 0.001607558
-0.011673319 0.011906676 -0.036183912 0.21103266 -0.07051095 -0.028985942 -0.042872537 0.028800692
-0.04029603 -0.03816413 0.053994887 -0.0018517444 -0.021738604 -0.050102256 -0.019886585 0.009807049
0.030843629 0.060201343 -0.00567876 0.07017248 -0.081171595 -0.07555972 0.060832415 0.01378048
0.05556719 0.030335115 0.024613949 -0.014967585 -0.0043183006 -0.041103426 -0.062291496 -0.10310248
-0.03373304 -0.019427227 0.051887266 0.04674515 0.028121138 -0.040898435 0.060041778 0.008826063
0.012437995 -0.024830101 -0.025636798 -0.01012155 -0.016995536 -0.0053182035 0.06341661 0.054935202
0.016673034 -0.065507494 -0.039520115 0.025248177 -0.065367326 -0.057622362 -0.06990705 -0.03372431
-0.102586046 0.037387382 -0.011186549 0.055435117 0.05958778 -0.057888716 -0.0023537278 -0.03722591
-0.06846123 0.08073127 -0.051449284 -0.007064494 0.02656133 0.054839507 -0.055650976 -0.01575569
-0.025948953 -0.06878041 0.02174654 0.014453378 -0.07238359 0.035130564 0.065299526 -0.007122903
-0.009232713 -0.0038142006 0.005294301 -0.052930113 0.009460845 -0.045286343 0.08485179 -0.06947906
-0.0020164363 -0.043788143 0.002766319 0.030961148 0.0113959825 0.14547443 -0.03431305 -0.06413345
0.014547922 0.054671384 -0.015682148 0.103056215 -0.011768179 -0.03777199 -0.037803102 0.02144178
0.11053607 0.03998809 -0.057835285 -0.046728034 -0.031421516 -0.063090056 -0.02986654 -0.0043267384
0.108731166 -0.017193217 -0.061800245 -0.10460407 0.12361364 -0.0011415302 0.028917773 -0.010864609
0.022666432 0.09716399 -0.0027437736 0.23643431 -0.02822563 -0.0048037064 -0.048568692 0.006125209
-0.04845348 0.08702761 -0.07241568 -0.08189272 0.048526626 -0.004654085 0.013275116 -0.039496765
-0.0424061 -0.03768691 -0.0038367654 -0.06431672 -0.05629325 -0.035590272 -0.045099664 -0.092005685
0.06832492 -0.04588003 0.08159621 -0.056578327 -0.057182588 0.069745466 0.084059685 -0.03116682
0.035722397 -0.010579106 -0.007540433 -0.05699186 -0.013856554 0.029835306 -0.026492309 0.059226695
-0.029285638 -0.012961976 0.07261185 0.029227093 0.00017380368 0.02327947 -0.023179794 0.027663343
-0.041454814 0.08204023 -0.05848743 -0.023954717 0.064761855 -0.019424563 -0.06078673 0.019365434
0.09968764 0.027568582 0.040518835 -0.08398533 0.011817177 0.049819324 -0.052472662 0.036950774
0.06006631 -0.052383143 0.027018465 -0.0029148557 0.002247695 -0.01875944 -0.0018266184 0.045424532
0.08852453 -0.0068000997 -0.0003304575 -0.06622861 0.034511272 -0.091673486 0.035122924 0.07364538
0.0062211575 0.018703962 -0.026827214 -0.06706139 -0.040799636 -0.05031659 0.071056865 0.019041177

6.weight f4 [256, 256]
00000000: 0179 733d 5084 a1bc 7af4 00bd adae 743c
00000010: 3df3 a53c 6f8d 2ebd 1095 223b 89ff 193d
00000020: 96d4 8a3c 5dd8 793c d219 72bd e706 873c
00000030: 9c68 193d 47ce fbbb 7a14 d33c 1932 c2bc
00000040: 7e13 403d 1a64 133d 8ba5 ee3c 2694 e6bc
00000050: f36c 80bd 83c3 b3bc a675 37bc 8d02 bcbc
00000060: c927 dcbc 437d 683d 2db6 17bb 59bd 6cbd
00000070: cba6 26bd 8140 283d 7928 093d e1c0 923c
00000080: b697 a0bc 127e 35bc 980e 80bd 0c97 0d3d
00000090: f01d 61bd 124d b1bc f551 69ba 9d62 1b3d
000000a0: d1be 1c3d 5d8b 81bd 3ef2 3fbc ee47 8abd
000000b0: b821 24bd bb84 09bd 48e5 8eb9 5092 953c
000000c0: c319 26bd e932 37bc d2b3 39bd aca6 523c
000000d0: 3b44 7bbc 872c dd3c f9b4 aa3b 3909 25bd
000000e0: de02 8bbd b6f9 37bd 57cc 1d3d 63cc 74bd
000000f0: 5349 be3c eea7 fbbc 164f 03bd 2410 283d
00000100: 59b2 8bbd e9e0 2b3a bcca 22bc 56c1 5fbd
00000110: 2d1f f43c 4c29 b8bc 3560 823c 1ab9 363d
00000120: 75eb 4fbd 3348 ea3b 17a5 683c 427d 9dbb
00000130: 8612 e43c 1a5f 2e3c d914 cabd 4fc9 cfbc
00000140: 5ab3 453c 48e2 afbc e6fb debc d243 37bc
00000150: e3cf 113d 9f0e 1b3c 58f0 a93c 157a 1a3d
00000160: a89f 793c 9b77 333d 9aed 62bc 1b12 63bd
00000170: 5e03 f43c 9866 70bc b445 81bb 3fec 30bd
00000180: d1b4 a7bc 4e51 59bc 6c8f 90bd c240 363d
00000190: 9563 7e3d 5b96 50bc 5e59 b0bc f81e 653d
000001a0: f558 c93b 0d84 6b3d 0091 57bd 5e49 7c3d
000001b0: 53dd d43c 089e cdbc 4970 ae3c ab14 6fbd
000001c0: 1e27 13bd f1dc 79bd 8e3d b33c f6dd 583d
000001d0: f8ae 8cbd 9ff6 923c d904 0bbd 269a 403c
000001e0: 6cc9 c3bc f4b5 6ebd f142 153d ec03 3cbd
000001f0: 8e07 023c 3731 a93b 2188 df3c 6e78 2f3d
00000200: 0b8f 023a 5eaf f3bc ef7e 1c3c eae3 b23c
00000210: b253 013d 3f32 d0bb fa47 d23c 58cb 96bd
00000220: 024f 233d f77c d2bc c660 9e3c 8d4d 453b
00000230: 1a5d 4f3d 6b0f 35bd 5d4c 25bc 128f 00bd
00000240: e2b2 b4bc 57b9 96bd 9960 2bbd 7084 09bd
00000250: e645 29bc b825 b73c 7b53 97bc 650f 53bd
00000260: d583 a1bc ee72 45bd 6c4f 85bc e28c 5cbd
00000270: 5ee5 743c 8de8 84bd 3c55 f9bb fb5f 613d
00000280: bd81 a8bc a24b 813c e2a5 11bc dca1 abbc
00000290: 2fdd 1abd 3c9a 313d 0972 4e3d 684c 5abd
000002a0: e197 c4bb 62e5 193d 2731 17bb ed99 13bd
000002b0: bdea 40bc d5ff 103d 2247 893c 72ba eb3c
000002c0: 52d6 2c3c bc0b b23a ab28 febc 3c9d 863b
000002d0: 90a2 6ebc 4192 88bd 1e14 7fbd 17eb 2abd
000002e0: 4234 19bd 768d 2cbd 7aa8 2e3d 5110 753d
000002f0: 349c a73c 52c6 29bc 0670 003b 7b4f b8bc
00000300: 29e0 8c3c cad6 6dbd 4c12 ab3b dad7 53bd
00000310: 5fbf 06bc 8b09 4f3d aa3d a83c 3a35 6d3a
00000320: bc78 a23c 1864 843c cc5d efbc 7fac 62ba
00000330: a0d3 583d 60dc 23bc 7aac 123d c0a9 673c
00000340: 229d 77bd 40bc 013d f2e3 163c da6b f43c
00000350: 45c6 3dbd 4e90 f03c 991a 1e3d 7b40 0abd
00000360: 9c20 9abc 18d0 43bd 1e21 0c3d 0d0a 02bd
00000370: e3ea 85bd 4f1a 4dbd 7f2a 7ebd 99f3 91bc
00000380: 3b77 1dbd 5447 73bc 18e9 86bd 0141 c7bc
00000390: a877 9d3c 6a6c 043c 49f1 bb3c d19e 9f3b
000003a0: 38a6 3e3b 8802 673d 6730 fd3c 6905 06bc
000003b0: 3917 9c3c 679b 26bc 7488 fa3b 3bf8 5abb
000003c0: 8bc3 8a3c 61cd 1fbd c595 3abd 1d70 0a3d
000003d0: 83e8 dcbc f72f 2f3c 599d 303d 080a 163d
000003e0: 0f81 0dbd ca3d cb3c 9138 233b 9f5a fd3c
000003f0: 9306 57bd 87eb a1bc 43d3 3f3d 6c11 12bd
0.05944157 -0.019716412 -0.03148315 0.014934224 0.020257587 -0.04261535 0.0024808086 0.037597213
0.016947072 0.015249339 -0.059106655 0.016482783 0.03745328 -0.0076845023 0.0257666 -0.023705529
0.04689359 0.035984136 0.029131671 -0.028146815 -0.062707804 -0.021943813 -0.011197483 -0.022950435
-0.02687444 0.056760084 -0.0023149357 -0.057797763 -0.04068641 0.04107714 0.033485863 0.017914237
-0.019603591 -0.011077421 -0.062527835 0.034567878 -0.05496019 -0.021643195 -0.0008900457 0.03793584
0.038267914 -0.063254096 -0.01171547 -0.06752001 -0.04007122 -0.033573847 -0.00027255178 0.018258244
-0.040551912 -0.0111815715 -0.045337506 0.0128571205 -0.015336092 0.026998771 0.005209562 -0.040292
-0.06787656 -0.044915877 0.03852495 -0.05976523 0.023228323 -0.030719724 -0.032057844 0.041031018
-0.068211265 0.00065566465 -0.009936031 -0.05462774 0.029800022 -0.02248063 0.015915016 0.04461012
-0.05076166 0.00714972 0.014199517 -0.0048061917 0.027840864 0.010642791 -0.098672576 -0.025364546
0.0120666865 -0.021470204 -0.027219724 -0.011185603 0.035598647 0.009463935 0.020744488 0.037714083
0.015235819 0.043815237 -0.013850594 -0.05543719 0.029786762 -0.014672898 -0.003945077 -0.04319405
-0.020471962 -0.013264013 -0.070586056 0.04449535 0.062106688 -0.01273116 -0.021526989 0.055937737
0.0061446377 0.05749898 -0.052628517 0.061593406 0.025984442 -0.02509977 0.021293776 -0.05836932
-0.035925977 -0.06100172 0.021879937 0.052946053 -0.0686931 0.017939864 -0.03394017 0.011755502
-0.023899756 -0.058278993 0.036440793 -0.045902178 0.0079363715 0.0051633376 0.027286591 0.04283946
0.00049804215 -0.029746708 0.009551748 0.021837194 0.03157396 -0.006353646 0.025669087 -0.073630035
0.03987027 -0.025694354 0.019333255 0.0030106038 0.050625898 -0.044204157 -0.010089007 -0.031386442
-0.022057954 -0.073595695 -0.04184017 -0.033573568 -0.0103316065 0.022356853 -0.018472424 -0.051528353
-0.019716183 -0.04820531 -0.016273223 -0.053845294 0.0149472635 -0.06489668 -0.0076090377 0.055023175
-0.020569677 0.015783135 -0.008889647 -0.020951204 -0.037808593 0.04335998 0.05040172 -0.053295523
-0.0059995507 0.037572272 -0.0023070069 -0.036035467 -0.011774716 0.03540023 0.016757552 0.028775427
0.010549145 0.0013583819 -0.031025251 0.0041080993 -0.014565125 -0.06668521 -0.062275045 -0.041728105
-0.037403353 -0.042127095 0.04264114 0.059830014 0.020460226 -0.010362225 0.0019598021 -0.022498837
0.017196732 -0.058066167 0.005220687 -0.051719524 -0.008224337 0.05054621 0.020537216 0.0009048764
0.019832961 0.01616101 -0.02921953 -0.000864692 0.052936196 -0.010001272 0.035809018 0.014139593
-0.060452588 0.03167367 0.00920962 0.029836584 -0.046331663 0.029365685 0.038599584 -0.0337529
-0.018814377 -0.047805876 0.03421127 -0.031747866 -0.06538942 -0.050073918 -0.062052246 -0.017816352
-0.038443785 -0.014848549 -0.06587428 -0.024322988 0.019222096 0.008082489 0.022942202 0.0048712273
0.0029090773 0.0563989 0.03090687 -0.008180001 0.019054042 -0.010168887 0.007645661 -0.0033412117
0.016938945 -0.039014224 -0.045552988 0.033798326 -0.026966339 0.010692588 0.04311881 0.03663066
-0.034546908 0.024809737 0.0024905542 0.030927 -0.052496504 -0.019765629 0.046832334 -0.035661146
