model_v1.pth (torch, 5748 bytes, 6 tensors)

0.weight f4 [24, 6]
000000 71 cc a1 be 41 b4 9a bc d9 be cd 3e b4 63 0d 3f
       -0.3160129 -0.01888478 0.40184668 0.5523026
000010 bb c1 39 3e 2a bd 01 3f d7 cc e4 be 2c 9d 7f 3e
       0.18140309 0.50679266 -0.4468753 0.249623
000020 fa 70 5d bd 95 e9 e4 bd 1d a9 e5 be 69 c2 1e be
       -0.05406282 -0.11177365 -0.44855586 -0.15503849
000030 32 21 e3 3e 8d a2 85 3e ee d6 00 3f 90 4e a6 be
       0.44361264 0.2610058 0.50327957 -0.32481813
000040 92 fb 80 3e 06 b8 03 bf fe 0f b8 3e a9 67 f7 bd
       0.25191933 -0.5145267 0.359497 -0.120803185
000050 af 2d dd 3e 17 f5 5f be 7c 36 0b 3e fd 8c ee 3e
       0.43198916 -0.21870838 0.13595003 0.4659194
000060 53 da 84 be 10 7e e4 3d 4f 87 7e 3e a3 96 9a 3e
       -0.25947818 0.11156857 0.24856304 0.30193052
000070 96 ab 80 3e 8c 4a 2e 3c 47 67 07 3f 89 36 ac be
       0.2513091 0.010637891 0.52891964 -0.33635357
000080 60 d6 f0 3e a4 07 b4 bd 63 2c 1e bf b5 a9 94 be
       0.47038555 -0.0879052 -0.6178648 -0.29035726
000090 98 f6 a0 be 70 45 ad 3e 54 5c f1 bd 50 b6 dc bd
       -0.31438136 0.3384204 -0.11785188 -0.10776961
0000a0 46 37 e2 be af 9d 04 3e ad 15 37 3e 87 62 00 3e
       -0.44182795 0.12950777 0.17879362 0.12537585
0000b0 04 49 9a 3e 85 5b d9 3e ee f3 38 be f4 35 d1 3e
       0.30133832 0.42452636 -0.18061802 0.40861475
0000c0 ca 92 86 be 6d 54 50 be 28 df 45 be f0 50 06 bd
       -0.26283866 -0.20344706 -0.19323409 -0.03279203
0000d0 bd 25 bf be 63 87 12 3f d8 27 16 3e 62 a4 5c be
       -0.3733348 0.57237834 0.14663637 -0.21547082
0000e0 45 fa 05 bf bd 5f d0 3e 71 c1 9f 3e 06 7c ac be
       -0.52335006 0.40698043 0.31202272 -0.33688372
0000f0 a6 1e 19 be fb 01 aa be ce 76 0a 3e a6 f5 3d 39
       -0.14953098 -0.33204636 0.13521883 0.00018115956
000100 30 91 a8 bd 37 3d 49 3e f6 41 e5 3e 95 53 46 3e
       -0.08230817 0.19652258 0.44776887 0.19367822
000110 5b ec 96 bc b6 34 04 be 50 07 d6 bd 38 ac b9 be
       -0.01842325 -0.12910733 -0.104506135 -0.36264205
000120 d1 65 af bd e1 d7 e7 be 4c 8c 9a 3e 25 2e f2 3e
       -0.08564342 -0.4528189 0.30185163 0.4730083
000130 0f 54 c7 be f6 1a a0 3e c0 15 b6 3e 3b 6c 70 3e
       -0.3893132 0.3127057 0.3556347 0.23478787
000140 a9 70 97 be 9b d6 0b 3f 3d 56 38 3e d7 91 83 bd
       -0.2957814 0.54624337 0.18001647 -0.06424301
000150 d6 e3 89 3d 7a 8f c3 be fb 06 13 3f b2 df 82 3e
       0.067329094 -0.381954 0.57432526 0.2556129
000160 49 ea b8 bd 8e 91 b6 be 40 b1 16 bf 63 5f 8e 3e
       -0.09029061 -0.35657924 -0.5886421 0.2780715
000170 82 41 7b 3e 9d 10 12 3e 5d e8 a1 be 0f e8 dc be
       0.24536708 0.1426415 -0.31622592 -0.43145797
000180 dc 5d 98 be 84 3e 26 bf 96 34 9a 3e 33 ae d4 bd
       -0.2975911 -0.6493914 0.30118245 -0.10384788
000190 0d f3 17 bf 0a 90 8e be a2 2c c3 bd 4d c6 83 bd
       -0.5935524 -0.27844268 -0.095299974 -0.06434307
0001a0 54 18 47 3c 8a b5 a4 be 2a af e8 3e 9e 33 ab be
       0.012151796 -0.32169753 0.4544614 -0.33437818
0001b0 fc e8 d4 3e 50 e9 0f 3e 43 4f c4 3e 7e f5 a0 3e
       0.41584003 0.14053845 0.38341722 0.31437296
0001c0 6d 8a 3d 3e c3 da f1 3e 9c f2 1d 3f 6f f0 80 3e
       0.18509836 0.47237214 0.6169832 0.25183436
0001d0 ab 2a 75 3e 7a 77 9d be d3 20 3c 3e 9a 56 a4 be
       0.23942058 -0.30755216 0.18371896 -0.32097322
0001e0 7d 1b 13 3d dc ab 3d bf 4f dd ee 3d 93 be 2b be
       0.035914887 -0.7409036 0.11663305 -0.16771917
0001f0 a4 2d 32 bf 09 7e d6 3e 58 e6 cf 3e 58 74 5b 3e
       -0.6960089 0.41893032 0.40605426 0.214311
000200 cb a1 bb 3e a5 ab 95 be bf 91 4b 3e b5 74 e7 be
       0.36646876 -0.29232517 0.19879816 -0.45206228
000210 26 15 b2 be 89 3d a8 3e a6 a1 69 3e 05 50 17 3f
       -0.3478176 0.32859448 0.2281557 0.59106475
000220 5a 29 1f 3e 0a 02 ee be 66 6d 59 3d 0b 8c 00 bf
       0.15543118 -0.4648593 0.053082846 -0.5021369
000230 92 10 a0 bd 76 e4 bd 3e dc 85 ec 3d 72 52 7e 3e
       -0.078156605 0.37088364 0.11548969 0.24836138

0.bias f4 [24]
000000 e5 22 16 3f 2a ee b1 be c2 74 41 bd 95 66 a1 3e
       0.58646995 -0.34752017 -0.04723049 0.31523576
000010 ff d9 ac 3a 9e df cc bd 84 bf 47 be 49 eb e6 3d
       0.0013187526 -0.10003589 -0.19506651 0.11275346
000020 3d 41 06 3f 01 38 d4 3e eb 14 55 be 6f de b9 3d
       0.52443296 0.41448978 -0.20808761 0.09075629
000030 6b 88 25 3e 37 43 b5 3e 58 e8 ae 3e f4 55 0b 3f
       0.1616532 0.35402843 0.3416164 0.5442803
000040 50 78 ff 3d db 8e a9 3e 3d a3 19 3d ee a8 e8 3d
       0.1247412 0.33116803 0.03750919 0.11360346
000050 ff e9 18 3e 35 be cd bd 05 0e 35 bd 3c e8 fb 3e
       0.14933012 -0.10046045 -0.044202823 0.49200618

2.weight f4 [24, 24]
000000 27 81 9c bd 6c fb 6c 3e 2c 11 be bc e4 88 ff bd
       -0.07641821 0.23142785 -0.023201548 -0.12477282
000010 f9 c1 7d 3e 49 93 66 be 7c a2 e7 bd 76 03 a5 bd
       0.24781026 -0.22517122 -0.11310288 -0.08057301
000020 d4 2b 4f be 44 07 26 bd 3f f1 61 be b0 d4 44 3e
       -0.20231563 -0.040534273 -0.22064684 0.19221759
000030 37 cc 2c be c3 e1 04 3e 07 b0 c0 bd a8 55 4a 3e
       -0.16874777 0.12976746 -0.094085746 0.19759238
000040 af 6f 86 bb c5 a4 9a bd 56 66 0d 3e 0a 82 fd 3d
       -0.004102669 -0.075509585 0.1380857 0.123783186
000050 26 15 28 bd c1 01 32 3d fc db fc 3d f6 74 53 be
       -0.041035794 0.043458704 0.12346646 -0.20650086
000060 12 1d 93 be c1 96 63 be 91 87 43 3e d1 22 bb 3c
       -0.28733116 -0.22225477 0.19094683 0.02284375
000070 c2 7b 0f 3e 5e bf 87 3e ad 7e c6 bc 5f 31 b6 bd
       0.14012054 0.2651319 -0.024230326 -0.088961355
000080 de 2f ad be d1 5c 7e 3e 42 15 22 3e 46 48 bd 3e
       -0.33825582 0.24840094 0.15828422 0.36969203
000090 ae 22 29 be 1a 8b 8b 3e ae 44 08 3e 87 eb f9 bd
       -0.16517136 0.27254564 0.13307449 -0.122031264
0000a0 b2 ff 3e 3e 16 59 9f 3d 8b 32 a0 3d 5b f2 82 3d
       0.18652228 0.07780664 0.0782214 0.06393882
0000b0 ff 0b f8 bc eb f3 8f 3d d7 8c 50 bd 2f de c2 bc
       -0.030279158 0.070289455 -0.050915565 -0.023787586
0000c0 9d 43 2d 3d 59 08 a7 3d 92 c9 59 3d 9c a9 d3 bd
       0.04230081 0.08155889 0.053170748 -0.10335085
0000d0 7d 36 cf ba cd 73 fd bd 66 c6 68 bd 40 66 3a be
       -0.0015809085 -0.12375603 -0.056829832 -0.18203068
0000e0 23 50 2b be 08 39 30 3e 3e b7 2d 3e e3 2e 12 3e
       -0.16729788 0.17209256 0.16964433 0.14275698
0000f0 0e f7 6a bd c5 f5 29 3e 14 b1 78 be 01 8e ef bd
       -0.057364516 0.1659766 -0.242863 -0.11697007
000100 0b ed 17 be 7c e4 9f bd 23 6f 0f bd fb e1 85 3d
       -0.14836518 -0.07807252 -0.035018098 0.06537243
000110 ab a1 25 be 18 ef 63 3e 28 3b 11 bd f5 4d 59 3d
       -0.16174953 0.22259176 -0.035456806 0.05305286
000120 e8 5f 22 be 85 50 04 bd ff fa 3e ba e6 da 15 be
       -0.15856898 -0.032303352 -0.0007285326 -0.14634284
000130 0b 62 a1 bc bc d3 a2 bd 22 09 36 3e 1d e9 8f bd
       -0.01970007 -0.079505414 0.17776921 -0.07026885
000140 19 7b 62 bd 03 c3 67 3e 5a 7f b5 3d a7 95 8b 3d
       -0.055293176 0.22632985 0.08862181 0.06815653
000150 fc 31 f7 bb 9e 01 c6 3d 4a 1f c9 3c c1 cd 74 be
       -0.0075438004 0.09668277 0.024551053 -0.23906614
000160 36 47 23 be f1 c4 00 3e 7a 2a 0f 3e d9 10 fd 39
       -0.15945134 0.12575127 0.13981047 0.00048268473
000170 23 95 20 be bb 0d b9 3d 61 57 2a be 10 76 8e 3d
       -0.15681891 0.09035822 -0.16634895 0.069561124
000180 38 05 92 be e3 ff f9 3c 19 73 23 3d 11 11 d5 bc
       -0.28519607 0.030517524 0.039904688 -0.026009114
000190 dd 6d c0 bd 73 be 06 be 38 3c 48 be df aa ef bc
       -0.09395955 -0.13158588 -0.19554222 -0.029256282
0001a0 37 dd 58 be 06 b3 43 3e a9 c9 c3 3d ad df 5b bd
       -0.21178137 0.19111261 0.09559948 -0.05368011
0001b0 ef f9 96 be b5 2c 2f 3e 6e 25 3b be 91 0b 0e bd
       -0.2948756 0.17106898 -0.18275997 -0.034679
0001c0 84 21 8a bc 49 25 a5 3d 34 ee ef 3d 59 07 14 3e
       -0.016861685 0.08063752 0.117153555 0.14455928
0001d0 6f 73 dc 3d 0b f0 41 3e 16 02 d0 bd 4c cf 3e 3d
       0.10764205 0.18939225 -0.10156648 0.046584412
0001e0 c2 8c d3 3d 81 46 1e 3e 38 09 cf 3c 2e 68 73 be
       0.10329582 0.15456583 0.02527295 -0.2377021
0001f0 24 f6 32 be 37 92 dd 3d 28 e1 25 be b6 67 fd 3b
       -0.17476708 0.10818904 -0.16199172 0.0077333106
000200 f8 ac 2e be db 88 67 bd 70 49 03 3e 76 96 ba 3d
       -0.1705817 -0.056527 0.12820983 0.091107294
000210 04 b2 f0 3d 16 e5 64 3d 41 15 17 bd 17 95 55 3d
       0.11752704 0.055882536 -0.036885504 0.052144136
000220 62 cb 8a bc 99 47 24 3c 4e 4f 6a bd eb da f3 3c
       -0.016942684 0.010026836 -0.057204537 0.029767474
000230 16 20 8a 3d 32 13 35 be 90 f5 55 bc 9a 01 54 be
       0.06744401 -0.17683104 -0.013059035 -0.20703736
000240 8e 8d f6 3e 01 c1 af 3d db 13 0c 3e 01 50 b7 3e
       0.48154873 0.085817344 0.1367945 0.35803226
000250 90 39 09 3d bb 3a 41 3e 9f cc ce 3d a2 30 c4 3e
       0.03350216 0.1887006 0.10097622 0.38318354
000260 e8 3f ad 3e 57 ce 9c 3d 2e 26 20 be d4 a1 14 bd
       0.3383782 0.07656544 -0.15639564 -0.036287144
000270 39 22 e9 3e a5 55 f3 3d 8b 16 43 3d 05 34 48 3e
       0.45533922 0.1188157 0.04762892 0.19551094
000280 ef 81 6b 3e 2b 29 1b 3e dc e0 30 3d be b7 f2 3d
       0.22998784 0.15152423 0.043183193 0.11851452
000290 41 cb 18 3e b5 dd 9f bc b8 7f a2 3e 4d c4 60 3d
       0.14921285 -0.019514898 0.31738067 0.054874707
0002a0 75 42 cf 3e f7 96 4c 3b d3 85 bd be b1 1b 38 3e
       0.4048039 0.0031217912 -0.37016162 0.17979313
0002b0 e6 be a9 bc 93 2a 3c 3e a2 37 09 be 96 bb ba 3e
       -0.02072091 0.18375616 -0.13400128 0.36471242
0002c0 d0 df d0 3d 69 99 3e 3e 08 d8 a0 3c da 6c 88 be
       0.10198939 0.18613209 0.019634262 -0.26645547
0002d0 38 e5 f4 3e 66 f8 8a bb ba 5a 79 bd c6 84 8e 3e
       0.4783113 -0.004241037 -0.06087754 0.27835673
0002e0 17 72 fb 3d 65 29 76 3e b1 b2 9f 3e ae d8 93 be
       0.1227762 0.24039228 0.31191018 -0.2887625
0002f0 50 f1 b8 3e e5 ae a4 bd c1 a1 8a 3e 19 3e 3a bd
       0.36121607 -0.08041171 0.27076533 -0.045469377
000300 6a 7d ae 3e 2b 7d 0a 3e 3c 71 14 be 3a 7c 70 3e
       0.34080058 0.1352431 -0.1449632 0.23484889
000310 34 7c 0d 3c 57 42 29 be 56 2a c6 bd f4 88 0e 3e
       0.008635569 -0.16529213 -0.09676044 0.13919431
000320 82 bd b3 3e 0c 9d bd 3d 16 52 62 bd 17 48 95 bd
       0.3510552 0.0925847 -0.055254065 -0.07289141
000330 b3 ef 2d 3e e3 23 bf 3d 34 7e 34 3e f4 10 ad 3e
       0.16985969 0.09333017 0.17626268 0.33801997
000340 77 84 6e 3d ce 07 4d 3d 7f 8c b8 bc 9e 26 c6 be
       0.058231797 0.05005627 -0.022527931 -0.38701338
000350 3b 07 b8 3e d7 64 2a be 97 bb 5a 3e 8c 99 58 3e
       0.35943016 -0.1664003 0.21360622 0.21152323
000360 83 53 46 be 7d eb 89 be b6 17 67 3e cc d4 bd 3d
       -0.19367795 -0.26937476 0.22567639 0.092691034
000370 60 df 35 be bf 11 9b 3e 43 a9 9f be 17 2f 08 be
       -0.17760992 0.30286977 -0.31183824 -0.13299213
000380 b4 20 93 be 49 06 14 be ed 5e 3e bd f2 c5 44 3e
       -0.28735888 -0.14455523 -0.046477247 0.19216135
000390 e2 8d c8 be 0d 3b bc 3d 65 f1 3c 3e e6 21 9d 3d
       -0.39170748 0.091909505 0.1845146 0.07672481
0003a0 3d 52 e1 3d 33 e1 6b 3e c7 03 0b bd 4d ef dc 3d
       0.11002014 0.23035125 -0.03393915 0.107878305
0003b0 94 aa 5c 3e 96 1b e7 3e 40 12 14 be ca 55 67 3d
       0.21549445 0.45138234 -0.14460087 0.0564783
0003c0 f3 9a 3d be df 79 13 3e ba c1 d0 bd 0b 75 c8 3d
       -0.1851614 0.14401959 -0.101932004 0.09787949
0003d0 9d 69 b4 3c f7 d1 99 be ef af 56 3e 28 9a 35 be
       0.022023017 -0.30043003 0.20965551 -0.17734587
0003e0 e0 65 33 be be 05 b0 3c ce 0a b1 bd 80 06 a7 bc
       -0.17519331 0.021487113 -0.08644639 -0.020388842
0003f0 5d fc 9e be bf 14 2a 3e 76 1e 54 3c 05 e6 28 3e
       -0.31051913 0.16609477 0.012946716 0.16493995

2.bias f4 [24]
000000 1c c0 cf 37 d3 c7 e5 3d e1 68 96 3d 88 91 d7 3c
       2.476578e-05 0.11219754 0.07344223 0.026314512
000010 86 2d 11 3d ae f0 11 bd 9d 1c 83 3d 4c 13 97 3d
       0.035443805 -0.03562992 0.06401942 0.073767275
000020 ab 14 60 3e 56 ce d9 3d 69 97 2d 3e 26 c8 2e 3e
       0.21882884 0.106350586 0.1695229 0.17068538
000030 31 22 74 3c 13 2b cd bb 82 e5 80 3e ee a3 10 3d
       0.01490073 -0.0062612384 0.251751 0.035312586
000040 73 8b 03 bd 02 62 ee 3d ee 64 84 3d 37 58 9c 3d
       -0.03211541 0.11639787 0.06464563 0.07634013
000050 5c 7f 80 3e 7b 70 a9 3e cf 47 a8 bc d0 90 a9 bd
       0.25097167 0.33093628 -0.020542054 -0.08279574

4.weight f4 [4, 24]
000000 01 4f 35 be dc 99 b3 bd ff ed 0e 3e 46 3e 9e bd
       -0.17705919 -0.08769581 0.13957976 -0.077267215
000010 e3 b1 5f bc b8 13 05 3e 61 3d d4 be 22 01 9d be
       -0.013653251 0.12995803 -0.41453078 -0.30664927
000020 a8 93 20 be 08 27 95 be 58 dd 44 bd de ad 94 bd
       -0.15681326 -0.2913134 -0.048062652 -0.07259725
000030 7e 24 07 be 40 eb 81 be 20 8f 5d be 15 06 4b 3d
       -0.13197514 -0.25374794 -0.21636629 0.049566347
000040 13 ad 32 3e d2 6c 8d be 95 9c 79 be d5 76 8b bd
       0.17448835 -0.27622086 -0.24376138 -0.06809775
000050 3a f4 9b be 28 63 1d be 95 5d 23 3d ee 73 c1 bb
       -0.30459768 -0.15369856 0.03988417 -0.0059037125
000060 96 5f 9b 3d 12 88 23 3e 3a 23 26 3e 33 29 39 3e
       0.07586591 0.15969875 0.16224375 0.18082123
000070 4b 1f e0 3d 96 ae e0 3d 4e cd cc be e9 43 ae be
       0.10943469 0.109707996 -0.40000385 -0.34036186
000080 af b9 0b be c0 84 5b bd a1 41 61 3e 79 45 dc bd
       -0.13645051 -0.053593397 0.21997692 -0.10755438
000090 ce a3 5a be 3c f6 82 be 2b 3a 20 be cd 1d 8e bc
       -0.21351549 -0.25578487 -0.1564719 -0.017348194
0000a0 d7 f1 16 bd c8 bf 57 bd e1 a8 4e be a7 37 ad be
       -0.03685173 -0.05267313 -0.2018161 -0.33831522
0000b0 48 74 3b bd 03 c0 df be 33 2e 88 3d f8 0f a4 bd
       -0.04576519 -0.4370118 0.06649437 -0.08010858
0000c0 65 9a 32 3e 34 a3 cd 3e 7b e8 7a 3e b5 e0 a8 3e
       0.1744171 0.40163577 0.24502747 0.32983938
0000d0 4d ef 92 bd b9 f8 32 3c 4e d7 4c bc ae e3 ad be
       -0.07174549 0.010923558 -0.0125025045 -0.33962768
0000e0 c3 20 56 be ff 5d a9 3e 4c 8b 1d be 90 da 6e 3e
       -0.20910935 0.33079526 -0.15385169 0.23325562
0000f0 77 8b 75 3d a3 33 96 3c bd 16 9e be 26 ab 76 bd
       0.059947457 0.01833517 -0.30876723 -0.060221814
000100 f6 f8 ae 3d d4 a6 04 be a4 da ec 3d 4b b0 e8 3e
       0.08543579 -0.12954265 0.1156514 0.45447
000110 6a 88 a7 3e d6 46 b9 3e 9f 04 db bc fd e3 c5 be
       0.32721263 0.36186856 -0.026735602 -0.38650504
000120 d6 81 1c 3d 2a ec c2 bd b7 58 3d 3d d6 97 37 be
       0.03820976 -0.09517701 0.046227183 -0.17929015
000130 81 7b 5e be 01 c3 02 3e a9 ee 7e 3e 51 4f f5 3e
       -0.217268 0.127697 0.24895729 0.47912076
000140 d0 2d b3 3e 1b 92 dd bd fa b4 db bd 69 d9 b1 be
       0.3499589 -0.10818883 -0.10727878 -0.34736183
000150 51 aa d3 be 5a 02 95 3e 68 a0 dd 3e 47 e1 99 be
       -0.4134088 0.29103357 0.43286443 -0.30054685
000160 63 60 27 be 99 0f ac 3e 6c 40 d0 3e a8 a1 c0 be
       -0.16345362 0.3360565 0.4067415 -0.37623334
000170 6a 72 c7 be ff 14 26 be eb 06 2c be 33 83 2d 3e
       -0.38954479 -0.16218947 -0.16799514 0.1694458

4.bias f4 [4]
000000 b7 bd 18 3d 46 59 01 be 40 fd 67 3e 8c ee 57 3e
       0.0372903 -0.12631711 0.22655201 0.21087092
