model.pth (torch, 5812 bytes, 6 tensors)

0.weight f4 [24, 6]
00000000: 8a7d 2c3f c9fe 39bf f3e4 1ec0 6209 2240
00000010: 9650 7abe 41db 4a41 c43f 1a3f 7aaa 5abf
00000020: 7ed4 17c0 a950 3140 d3a2 1dbf 82e6 5141
00000030: e541 883e f228 9ac0 c0c8 36c0 ac95 04c0
00000040: 3e04 a2c0 f619 2841 8065 3d3f 0ef0 cebe
00000050: c4f5 13c0 8819 1340 add7 9dbe 8a6f 5141
00000060: c4da 93bd f0c4 cf3c 59de 92be 3fd9 ad3e
00000070: 5b94 abbc 6c0c cc3e 76b7 023f f07e 32bf
00000080: 7e89 07c0 005c f13f d423 6bbe 59fb 4e41
00000090: 32b4 013f c790 80c0 0bf0 3cc0 39c1 57bf
000000a0: a656 69c0 5353 3641 cc71 3b3f 9f15 2dbd
000000b0: b9eb fabf 3553 6540 a439 90bd de75 5e41
000000c0: 6e59 213f 4cc5 42c0 0b0a 42c0 f0c6 d4bd
000000d0: 0ee8 35c0 d4ba 3241 8068 d43f d980 1b40
000000e0: 6a88 0740 5633 55bf d9a8 2c40 41e9 57c1
000000f0: 1085 a4bd ff2d 193e bd13 563e 3d31 783e
00000100: 62a4 94be ab15 3ebd 3fac f9bd c9d5 273d
00000110: e3d6 afbe 3790 563e cf0f 83be f124 53be
00000120: cc65 c13e 1080 c3be 0f99 03c0 101c 0e40
00000130: 2ab7 e0be a590 5141 6b82 a3be b1b4 47be
00000140: 9157 6a3e 0cce 4a3e f55a 783a 288a 8c3e
00000150: febd df3e d268 09c0 c121 20c0 d0bd 083f
00000160: 5bc0 14c0 e600 4841 86a2 5ebc a703 ae3e
00000170: b2ef ce3e 59e9 9abe e080 6abe 4a66 b8bd
00000180: 7e76 123f 966a bfbe 38f3 30c0 9517 0c40
00000190: 8e82 8cbe 1aea 4941 2cd2 353f 11c0 7fbe
000001a0: 9d25 19c0 c332 2140 1244 b4be 2ad1 5041
000001b0: e72b dc3e d2cd 3bbf 7e3d 07c0 4905 1b40
000001c0: 6b5d acbe 7277 5141 aa18 1f3f a419 bebf
000001d0: 5c53 2cc0 fb2f b33f 8b14 44bf 713c 4441
000001e0: 6794 033f e7bf b6be 95e6 f8bf 1cbf 1640
000001f0: 8337 78be 84c7 4f41 0c3c f23e b240 95c0
00000200: 2e2b 50c0 423f 5fc0 c424 8dc0 73b6 1141
00000210: 5b5b f9bc dac9 1b40 1764 1e41 e751 0541
00000220: 623e ed3f d8f1 4241 42d8 a0be 29cf 3c3e
00000230: 52e2 463e 8042 bfbe 4bc8 08bd 33fe adbd
0.6737906 -0.72654396 -2.482724 2.5318227 -0.24444804 12.678529 0.6025355 -0.85416377
-2.3723445 2.770548 -0.61576575 13.118776 0.26612774 -4.817498 -2.8560028 -2.0716352
-5.063018 10.506338 0.73983 -0.40417522 -2.3118753 2.2984333 -0.3082861 13.089731
-0.072194606 0.025362462 -0.28685263 0.33954808 -0.020944765 0.39853227 0.5106119 -0.6972494
-2.1177669 1.8856201 -0.22962886 12.936364 0.5066558 -4.017673 -2.952151 -0.8427921
-3.6459136 11.395343 0.73220515 -0.042256948 -1.9603187 3.5832036 -0.07042244 13.903776
0.63027084 -3.043292 -3.031863 -0.10389507 -2.8422885 11.170612 1.6594391 2.4297392
2.117701 -0.8328146 2.6978056 -13.494447 -0.08033192 0.14958952 0.20905967 0.24237533
-0.29031664 -0.046407383 -0.121910565 0.040975366 -0.34343633 0.20953451 -0.25597998 -0.20619561
0.37772977 -0.3818364 -2.056217 2.2204628 -0.43889743 13.097814 -0.3193544 -0.19502522
0.22884966 0.19805163 0.0009474003 0.27449155 0.4369964 -2.1470227 -2.5020602 0.5341463
-2.3242404 12.500219 -0.013588553 0.33987162 0.40417248 -0.30256155 -0.22900724 -0.09003885
0.57212055 -0.37386006 -2.764845 2.1889393 -0.27443355 12.619654 0.7102382 -0.24975611
-2.3929207 2.5187232 -0.35208184 13.051065 0.43002245 -0.7336093 -2.1131282 2.4221976
-0.33665022 13.091661 0.6214701 -1.4851575 -2.6925879 1.3999017 -0.76593846 12.264756
0.5139832 -0.35693285 -1.9445368 2.3554144 -0.24239926 12.98621 0.47311437 -4.6641474
-3.2526355 -3.488236 -4.410738 9.107043 -0.03043907 2.434195 9.899436 8.332496
1.8534663 12.184044 -0.31414992 0.184384 0.19422272 -0.37355423 -0.03339414 -0.0849575

0.bias f4 [24]
00000000: c3f0 2141 de73 2241 50e6 d540 6fb4 2641
00000010: bac6 b4be 6775 2441 f8b3 0041 6795 2641
00000020: 934d 0441 df8b 23c1 d6cd bdbe 24a1 2ebe
00000030: 0260 2241 4efe 5e3e ced2 0c41 746d 893e
00000040: c166 1941 2d2e 2141 c93a 1d41 644b 1a41
00000050: 7963 2541 9301 6b40 aa7f 2741 f4ec 473e
10.12128 10.153288 6.6843643 10.419051 -0.35307866 10.278663 8.043938 10.411475
8.268939 -10.221648 -0.37071103 -0.17053658 10.148439 0.21776697 8.801466 0.2684132
9.587586 10.073773 9.826852 9.643406 10.336785 3.671971 10.468668 0.19523984

2.weight f4 [24, 24]
00000000: b0ab 573e 6d87 393e e9c6 1f3f 206d 8c3e
00000010: 1323 433e 1c0a 933e 448e dd3e 13e5 7d3e
00000020: 6250 3b3e 5809 00c0 979d 12be c9e0 943d
00000030: aba0 0b3f 1c97 063d dfee cf3e d914 fbbd
00000040: c538 d63e f271 f33e 06f0 bf3e 5492 9b3e
00000050: 14b5 e93e d590 743e c7d9 b73f 6ef6 ca3d
00000060: 8dc4 ce3c 6b3b 0c3e 3747 b03d 9216 883d
00000070: 9837 243e 2cde 48be 2c45 063d e161 333e
00000080: 0803 143c 505e 4bbd 0716 1f3e 68f4 e73d
00000090: e586 1e3e 480f 013e 14f1 343c 48d1 08bd
000000a0: b506 8f3c 32c6 2bbe 39fc f3bc 3fa5 39be
000000b0: 5b4d 50be 2a47 52be 4871 fcbd 7317 213e
000000c0: e75f cb3e 2dd5 183f 0b5b 3b3f ac03 103f
000000d0: 662d 6b3d be8b 9a3e eb0b 8b3e b1b1 113f
000000e0: d243 2b3e 3467 c9bf 15dc bcbc 803a 9ebc
000000f0: 3c4c f33e 28fd ba3c e8dd f93e d689 9fbd
00000100: 2e62 7a3e b71e 033f c38a cd3e d545 143f
00000110: 14ab 083f 5178 533e 36a7 1240 1db3 563e
00000120: b827 bb3e 99b1 103f 619c e33e aff9 cb3e
00000130: 45f2 dfbd c9e8 513e 6e57 0d3f 6a46 c83e
00000140: 3954 5b3e 34b1 f0bf 654f ccbd 31d5 0abe
00000150: fe3f 2d3f 23d8 3b3e 210e af3e 3e97 603b
00000160: dc2b c73e bbb6 023f e7fb 023f 8b2e 093f
00000170: d9ae f93e 98df 1d3f 98da 2b40 5add 46be
00000180: eb7d 543e 7d9a 5e3e 4488 853b e3f1 873b
00000190: 9cf2 f8bd c094 493d 96e9 3fbe c651 81bb
000001a0: 17ae 90bc f862 01bf 2d63 2ebd 9dfd 463e
000001b0: e0fd 7f3e 1a5e 44be 3db5 b2bb a1d5 1dbe
000001c0: e174 4c3e dc1e 6c3e 9ceb 0d3e 4e20 533d
000001d0: c47d 413e 222f 9ebc 31b2 c53e c0f0 01bd
000001e0: 0736 b73d 8917 273e d7bc c4bd ef8f 31be
000001f0: 10be 483e 2589 9b3d 3edf 313e 0cc9 183d
00000200: f703 25be d7dc 913a 86e8 edbb 8157 893d
00000210: 2f15 7ebd a68b 83bd ce3f 18be ee82 1a3e
00000220: a5ec 80bd c7f1 67bd e361 4cbe 6529 fc3c
00000230: 8526 be3d bc43 f13d 4e63 c0bd ee65 b83d
00000240: 396e c13e ac5f f33e dbe4 543f d810 a83e
00000250: 1889 9cbc 8b12 ed3e f70d 183f 88c6 dc3e
00000260: 3091 c33e e565 dabf 06db 8abd 4fb4 833d
00000270: 9cb6 143f 7637 953d 8cdb f33e ee6a 1dbd
00000280: 277b f93e 165f 153f 6d95 b73e c6e6 1a3f
00000290: 7f28 6e3e 6760 1f3f b312 1f40 df8c f8bd
000002a0: 40dd 4fbc 7a95 043e 5c94 143e a703 8a3c
000002b0: d0c3 873b 7c6d 28bd ccbf e2bc 6de0 40be
000002c0: ddbd 33be 3006 8dbd 7ff2 d7bd d661 21be
000002d0: 6027 e83b 16a8 843c 76a6 ea3d 01e9 0f3e
000002e0: d7d1 d13d 02aa d1bd 9661 44be f1a4 0e3e
000002f0: 45ed 623c d032 a53d d8b6 b7bd d715 133e
00000300: 81a5 eabd 239e 903d 9da0 26be 787d 4fbd
00000310: aec0 1d3e 9c93 08be 82cb 45be 2717 c13d
00000320: eea2 bb3d 6807 613c 24e6 15bd f355 3bbd
00000330: c17f d7bd 340b ff3c 7f2a 9f3d d625 e5bd
00000340: 385e 553d 82c6 2fbe 7015 75bd 872d 223d
00000350: 0656 fbbd 0759 d03c 78a3 2ebe 24b9 1b3e
00000360: 133e 823d d4f3 453e fdd7 07c0 d01c 9c3d
00000370: 261f e6bd 4de7 1dbd 558f 9ebf 94de af3e
00000380: 534b 3abf ca84 873f 5cbd 11be e78d 33be
00000390: dd06 cd3c 4a8a 38bc eb22 2fbf dd4f 1e3e
000003a0: 1711 0c3e 6286 853e 3df5 0fbe ea01 00bf
000003b0: 7a3d 183e 3d93 d1bf 6d16 cb3e 2e5a 47be
000003c0: 0d79 ec3e 25c4 1e3f 570d 353f d4e4 093f
000003d0: 1526 49be be6b af3e 558b 093f 7fda ec3e
000003e0: b2ca fe3e d375 e6bf 0a93 04be 73a7 273d
000003f0: 09cb b43e af22 1dbe ac52 ae3e ba18 083c
0.21061587 0.18118067 0.6241289 0.27427006 0.19056349 0.2871865 0.43272603 0.24794416
0.18292382 -2.0005703 -0.14317928 0.07269437 0.54542035 0.032858953 0.40611932 -0.12259836
0.41840187 0.4754787 0.3748781 0.30385077 0.45645964 0.23883374 1.4363335 0.09910284
0.025240207 0.13694541 0.08607333 0.0664493 0.16036832 -0.19616002 0.03278081 0.17517807
0.009033926 -0.04965049 0.15535747 0.11325914 0.15481146 0.12603486 0.011043806 -0.03340271
0.017459253 -0.16774824 -0.029783355 -0.18129443 -0.20342009 -0.2053496 -0.12326294 0.15731601
0.39721605 0.5970028 0.73185796 0.562556 0.057416342 0.3018474 0.2715753 0.5691176
0.1672509 -1.573462 -0.023054162 -0.019315004 0.475191 0.022825792 0.48802114 -0.07789962
0.24451515 0.5121874 0.4014493 0.57919055 0.53386045 0.20651366 2.2914557 0.20966764
0.3655374 0.5652099 0.44455245 0.3983893 -0.10934881 0.20498957 0.5521153 0.39116222
0.21418847 -1.8804078 -0.09976081 -0.13557889 0.6767577 0.18344168 0.34190467 0.0034269835
0.3890065 0.51060075 0.5116562 0.53586644 0.4876621 0.616693 2.685217 -0.19420376
0.20751159 0.2173862 0.004075082 0.004148708 -0.12155649 0.049214125 -0.1874145 -0.0039465157
-0.017661138 -0.5054164 -0.04257505 0.19432683 0.2499919 -0.19176522 -0.005453734 -0.15413524
0.19966461 0.23058647 0.13859409 0.05154448 0.18895632 -0.019309584 0.38612512 -0.031723738
0.08945852 0.16317572 -0.09606331 -0.17340063 0.19603753 0.075945176 0.17370316 0.03730111
-0.16114794 0.0011128437 -0.007260385 0.06706143 -0.06203192 -0.0642312 -0.1486809 0.15089008
-0.06295136 -0.05662706 -0.19959216 0.030781457 0.09284691 0.117804974 -0.09393941 0.090038165
0.37779406 0.4753393 0.83161706 0.3282535 -0.01910834 0.4630321 0.5939631 0.43120217
0.38196707 -1.7062346 -0.06780057 0.064308755 0.5809114 0.07285969 0.47628438 -0.038432054
0.4872677 0.58348215 0.3585619 0.6050838 0.23257636 0.62256473 2.4855163 -0.12136244
-0.012687027 0.12947646 0.1450972 0.016847445 0.0041432157 -0.041120037 -0.027679347 -0.18835612
-0.17552896 -0.06885946 -0.10544299 -0.15759978 0.007084772 0.01619343 0.11457531 0.14053728
0.10245102 -0.102375045 -0.19177851 0.13930108 0.013850515 0.08066332 -0.089704216 0.143638
-0.114573486 0.07061412 -0.16272207 -0.050656766 0.15405533 -0.13337559 -0.19315913 0.09428244
0.09161936 0.013734676 -0.036596432 -0.045736264 -0.10522414 0.031133272 0.07771777 -0.11188857
0.052091807 -0.17165568 -0.059834898 0.0395942 -0.12272267 0.025433077 -0.17054546 0.15207344
0.06359496 0.19331294 -2.1225579 0.07622683 -0.1123641 -0.038550664 -1.2387491 0.343495
-0.72771186 1.0587399 -0.14232391 -0.175346 0.025027687 -0.011263439 -0.68412656 0.15460153
0.13678394 0.26079088 -0.14058395 -0.5000292 0.14867201 -1.6373059 0.39665547 -0.19467995
0.46186104 0.6201804 0.7072348 0.5386479 -0.19643433 0.34261888 0.5372823 0.4626045
0.4976402 -1.8004707 -0.12946716 0.040931176 0.35311154 -0.15345262 0.3404745 0.0083066765

2.bias f4 [24]
00000000: 0915 db3f f16a 31be a1ef 3241 d535 2d41
00000010: 5dcd c43f 8968 073e 9254 2e41 7661 1b3c
00000020: 1737 11bb e403 2c41 1fb5 2f41 b19f 8fc0
00000030: 1ff5 3141 a969 2f41 baf9 7bbe e8e1 2a41
00000040: 56c3 0c41 47a6 003e c44a 86c0 26f4 f03f
00000050: 7a37 1740 c348 45c1 dba0 32be fe63 213e
1.7115794 -0.17325951 11.183503 10.825643 1.5375172 0.13223471 10.895647 0.009483686
-0.002215808 10.75095 10.981719 -4.4882436 11.122344 10.963296 -0.24606982 10.680153
8.797689 0.1256343 -4.1966267 1.8824508 2.362761 -12.330264 -0.17444174 0.157608

4.weight f4 [4, 24]
00000000: 3ff2 2a3f afaa 0a3d 33da aa3e f10b 213f
00000010: e06d 6d3d dae0 16be eafb 1a3f adab 01be
00000020: 8d37 d0bc 1944 863f 9eab ce3e 8759 a0be
00000030: 566a da3e e641 133f 1ead 0c3e 07c2 bc3e
00000040: 819b fa3d 23d9 7fbd 0a87 ddbe 95cd 123f
00000050: 0360 f63e 35dd bdbe 0e76 083e 9046 a0bd
00000060: 9800 163f 50cf 39be 368b 333f 639c 303f
00000070: 6cbd d23e 73c0 44be 3de7 0f3f fb10 19be
00000080: 5d72 9a3d c0ff ce3f 4f54 333f 5ab3 4ebf
00000090: 8b68 473f 1492 053f be6e 85bd 73a1 3a3f
000000a0: 73b6 213f c531 2d3e e4d1 ebbe 5da3 123f
000000b0: 5448 d13e f4ac 0dbf 74b5 ecbd 8c0c 46be
000000c0: 12e5 233f 16a5 c43d 1f0d 493f 94f8 473f
000000d0: 0934 103f 3e5c a7bd 6b05 f23e 4b40 333e
000000e0: e679 b73d 9abe c33f 3e36 413f 7414 2bbf
000000f0: 7fe2 303f 9d60 3b3f f3e0 2bbe 101f 483f
00000100: 6997 963f 84a6 b63d e85b 00bf ef94 f23e
00000110: d802 293f 8bb2 fbbe f454 30be f27a dbbd
00000120: b76e ff3e afb8 30be 5d00 473f e800 713f
00000130: 523e 0f3f f434 a1bd 0f98 523f 8096 bdbd
00000140: 1946 b83d da07 ec3f eeec 5e3f daa6 38bf
00000150: c89b 423f 594b 463f 3098 0b3e 570c 623f
00000160: f499 1440 3f59 67bd 58bf 2abf c286 183f
00000170: 45a6 353f 1192 1abf f669 d2bd 7a6a 223e
0.6677589 0.033854183 0.33369598 0.62908846 0.057966113 -0.14734212 0.6054064 -0.12663145
-0.025417114 1.0489532 0.4036531 -0.31318304 0.42659253 0.5752243 0.13737914 0.3686678
0.12236691 -0.062462937 -0.4326709 0.57344943 0.48120126 -0.3708283 0.13326284 -0.07825959
0.58594656 -0.1814549 0.70134294 0.6898863 0.41160142 -0.19214039 0.56212217 -0.14947884
0.07541344 1.6171799 0.7005052 -0.8074242 0.77893895 0.5217602 -0.06515263 0.729026
0.6316902 0.16913517 -0.4605857 0.5728052 0.40875494 -0.5534203 -0.11558047 -0.19340724
0.6402141 0.096018 0.78535646 0.78113675 0.563294 -0.08171891 0.4726976 0.17504995
0.08958797 1.5292542 0.7547339 -0.66828084 0.69095606 0.73194295 -0.1678503 0.781724
1.1764957 0.08918479 -0.5014024 0.47379252 0.66019964 -0.49159655 -0.17219907 -0.10716809
0.49889156 -0.17257951 0.7773493 0.9414201 0.5595447 -0.07871428 0.82263273 -0.09257221
0.08997745 1.8439896 0.87080276 -0.72129595 0.76018953 0.7745872 0.13632274 0.8830008
2.3218966 -0.056481596 -0.6669822 0.59580624 0.7095683 -0.6037913 -0.10274117 0.1586093

4.bias f4 [4]
00000000: 0ed7 b540 6621 a740 073e ca40 b7ce 1141
5.682502 5.222827 6.3200717 9.1129675
