my_model.pth (torch, 340670 bytes, 14 tensors)

0.weight f4 [128, 6]
-0.32075113 0.3210316 -0.37613836 0.14380653 -0.3861008 -0.01804241 -0.2846312 0.10831997
-0.1903569 -0.09366912 -0.038129907 0.32525215 -0.2585806 0.011711441 -1.8360881 -2.0382588
-0.13692178 3.6364107 -0.18446293 0.029820748 0.30909765 0.22980845 -0.24351005 0.40161923
0.038035117 -4.2274256 2.7564206 -7.264093 -4.8904986 -1.6777735 -0.37814456 0.058782425
-0.12378488 0.091300786 -0.18521833 -0.22671153 0.037108622 -0.28545243 -26.485798 -11.511626
0.31834158 -2.1799595 -0.09795424 0.28856653 -0.12335447 0.04339037 -0.32261646 0.2601077
-0.33493766 0.039188948 0.13150716 -0.2348518 -0.17654102 0.14870355 -0.14393112 -1.2817901
-0.24440904 3.8637214 -0.4270134 6.8028893 -0.036025893 0.3116547 -6.266332 -1.326849
0.015805956 7.058654 -0.1848293 0.027865356 -0.22100006 0.014794278 -0.1460527 0.3479717
-0.021664074 0.010899224 -6.972744 -10.111997 0.16434711 5.0024023 -0.10736654 -1.1248884
-1.9525318 6.085476 -0.5116821 6.500814 -0.008357994 1.2316107 -10.683831 -2.152948
-0.1647586 4.315364 -0.40319732 -0.3645254 -1.6216363 -0.18634579 0.2317338 5.104248
-0.25029787 -0.02998057 0.16179457 0.07305947 0.017671324 0.36837947 -0.041949756 -0.75225985
-0.93049276 1.1145723 -0.30190495 5.0153537 -0.07194214 0.21370818 -2.9811878 2.356334
-0.07771874 6.1681576 -0.08029584 0.13366789 -3.0915017 8.322978 0.041954868 6.411965
-0.16971011 0.20222823 0.11631187 -0.20567507 -0.056831267 0.08744008 0.025204027 0.41460618
1.4569266 -7.986514 -0.0015838844 -9.221514 -0.047751784 0.37306708 -8.1647835 -9.3768015
0.011759858 2.167452 -0.0350645 0.25992575 -4.49846 -0.27982718 0.0735907 6.486368
-0.37207806 -0.17827363 0.3517977 -0.35726506 0.06931104 2.0547562 -0.08487827 -0.574162
-2.7987058 10.826618 0.20030883 6.713067 -0.2179779 0.0042391866 -0.3220466 -0.11719172
-0.07232217 -0.07591666 -0.033410877 -0.82340837 0.65730244 1.299897 -0.44933566 6.5440598
-0.2971959 -0.62001413 -1.2613857 -3.1176877 -0.06320787 3.6968842 0.1162434 -0.39030707
-1.0360044 12.357469 0.17181459 6.0952644 -0.083431266 0.58927834 15.586098 7.1022263
-0.04370538 7.8882794 -0.092366666 -0.08921916 -5.32297 2.497178 -0.015839888 6.049061
-0.033557933 -0.075146556 0.15544908 -0.2588538 -0.3037746 0.012309293 0.023335213 -1.7880808
1.7613277 -5.2518606 -1.653036 -6.9666967 0.02082419 0.49862984 10.4532175 9.378735
-0.0062390477 7.693078 -0.22715653 -0.07285234 0.1622358 0.40441063 -0.24387398 0.077773064
-0.25773755 0.18870318 -5.828046 -1.6454061 0.040715765 -9.844912 -0.19445214 -0.21726216
-0.49813008 0.20973043 0.025385749 -0.1035669 -0.1905027 0.13602686 -0.08382139 0.06413886
-0.39690346 -0.38282594 -0.08433554 -0.11870572 -3.005261 7.693115 0.08230823 6.8253894
-0.071217835 -0.008634821 -1.8952562 2.5466037 -0.04420274 5.7820215 -0.04549022 0.5893579
-0.13919467 -2.9472737 -0.06555643 1.2063824 0.0002076277 -0.53003013 -1.5652491 8.671601
00000000: 7e39 a4be 415e a43e 3595 c0be 0542 133e
00000010: 01af c5be adcd 93bc 2ebb 91be dcd6 dd3d
00000020: ebec 42be 98d5 bfbd 1b2e 1cbd 7387 a63e
00000030: ad64 84be 58e1 3f3c ef04 ebbf d572 02c0
00000040: 3935 0cbe f4ba 6840 dae3 3cbe a44a f43c
00000050: 0c42 9e3e e852 6b3e b35a 79be 09a1 cd3e
00000060: b6ca 1b3d 1247 87c0 3269 3040 7373 e8c0
00000070: f77e 9cc0 48c1 d6bf 2a9c c1be d7c5 703d
00000080: ed82 fdbd e8fb ba3d e0a9 3dbe 1127 68be
00000090: 36ff 173d d226 92be eae2 d3c1 9f2f 38c1
000000a0: abfd a23e 7584 0bc0 3c9c c8bd febe 933e
000000b0: 45a1 fcbd 1aba 313d fc2d a5be d62c 853e
000000c0: f37c abbe 9784 203d d0a9 063e fe7c 70be
000000d0: 2bc7 34be be45 183e ae62 13be b311 a4bf
000000e0: 5d46 7abe 3647 7740 80a1 dabe 45b1 d940
000000f0: e38f 13bd 3491 9f3e cb85 c8c0 30d6 a9bf
00000100: 7e7b 813c 7ee0 e140 e443 3dbe e345 e43c
00000110: d74d 62be b363 723c d78e 15be 5929 b23e
00000120: db78 b1bc a992 323c b820 dfc0 bdca 21c1
00000130: 9c4a 283e ae13 a040 fde2 dbbd 58fc 8fbf
00000140: 90ec f9bf 38bc c240 99fd 02bf ab06 d040
00000150: f8ef 08bc 6ba5 9d3f f9f0 2ac1 e6c9 09c0
00000160: 7ab6 28be 7617 8a40 e16f cebe 13a3 babe
00000170: c791 cfbf 6ed1 3ebe a04b 6d3e 0056 a340
00000180: 0b27 80be d099 f5bc 7aad 253e 34a0 953d
00000190: 74c3 903c 3c9c bc3e 82d3 2bbd 1a94 40bf
000001a0: c634 6ebf 4eaa 8e3f 4993 9abe c77d a040
000001b0: 6756 93bd 51d6 5a3e c8cb 3ec0 2dce 1640
000001c0: 012b 9fbd 8c61 c540 2572 a4bd 3ce0 083e
000001d0: 2adb 45c0 eb2a 0541 ded8 2b3d d12e cd40
000001e0: 7dc8 2dbe eb14 4f3e eb34 ee3d 7c9c 52be
000001f0: e7c7 68bd c913 b33d ad78 ce3c 4347 d43e
00000200: 927c ba3f 8691 ffc0 579a cfba 528b 13c1
00000210: 6097 43bd a602 bf3e f4a2 02c1 6107 16c1
00000220: 6bac 403c 89b7 0a40 cb9f 0fbd fd14 853e
00000230: 62f3 8fc0 8245 8fbe b9b6 963d 5490 cf40
00000240: 0481 bebe 5d8d 36be d41e b43e 72eb b6be
00000250: f2f2 8d3d 2081 0340 a9d4 adbd 48fc 12bf
00000260: ff1d 33c0 d439 2d41 c21d 4d3e 72d1 d640
00000270: 9935 5fbe e0e8 8a3b 4be3 a4be 3602 f0bd
00000280: a51d 94bd 327a 9bbd d8d9 08bd e4ca 52bf
00000290: f944 283f 0663 a63f 530f e6be f068 d140
000002a0: 102a 98be 3fb9 1ebf 1675 a1bf 3288 47c0
000002b0: 2173 81bd c099 6c40 0511 ee3d 54d6 c7be
000002c0: cb9b 84bf 31b8 4541 2af0 2f3e 680c c340
000002d0: 03de aabd f2da 163f a860 7941 7045 e340
000002e0: 6a04 33bd c96c fc40 bc2a bdbd 89b8 b6bd
000002f0: c555 aac0 c4d1 1f40 a7c2 81bc e891 c140
00000300: 0b74 09bd 70e6 99bd 0b2e 1f3e 7c88 84be
00000310: 5888 9bbe ebac 493c 7d29 bf3c d5df e4bf
00000320: 3073 e13f 3e0f a8c0 af96 d3bf 2eef dec0
00000330: 7e97 aa3c 694c ff3e 6140 2741 4c0f 1641
00000340: ed70 ccbb b22d f640 b99b 68be 9c33 95bd
00000350: 2421 263e e90e cf3e 1aba 79be 7c47 9f3d
00000360: 2df6 83be 683b 413e 5a7f bac0 ab9c d2bf
00000370: 93c5 263d c284 1dc1 761e 47be f979 5ebe
00000380: e80a ffbe 93c3 563e c6f5 cf3c e21a d4bd
00000390: 2413 43be a04a 0b3e 8daa abbd 3c5b 833d
000003a0: ee36 cbbe c301 c4be 1db8 acbd fc1b f3bd
000003b0: 3256 40c0 002e f640 3891 a83d 9769 da40
000003c0: a8da 91bd 1079 0dbc c197 f2bf 8efb 2240
000003d0: ef0d 35bd 5206 b940 f453 3abd 29e0 163f
000003e0: 0c89 0ebe 22a0 3cc0 7342 86bd bd6a 9a3f
000003f0: a3b6 5939 0eb0 07bf 155a c8bf e1be 0a41

0.bias f4 [128]
-0.2963465 -0.022925219 0.88630986 -0.2875532 1.09409 0.3458597 -26.508183 -0.0818005
0.2807764 21.879768 -0.40366873 0.16181637 -14.970934 16.415071 -15.385313 -0.061249018
0.24051918 1.5200775 9.868085 10.041017 0.028967712 -17.571045 -17.57143 4.342321
-0.24779494 14.291608 0.3859682 19.501238 -0.18248141 25.213875 10.394784 -1.8693256
-0.18286353 -9.35503 32.048325 0.054526594 -1.5777432 -0.09192268 -0.18543203 9.948636
7.5906305 12.418352 16.133997 11.057234 0.015419163 15.900974 0.31912312 20.521568
-3.060446 0.2896206 -2.087257 9.366174 0.07008165 -0.37606966 13.6854315 -0.43940434
-0.0187474 27.920506 10.940102 15.7975855 5.089629 1.1400223 -3.1835868 0.082149245
16.149103 15.256201 24.660679 4.3208714 21.467186 0.1458773 -16.119402 -17.403927
0.14421557 -13.164301 12.676412 10.43812 -0.25432953 0.10497071 9.152904 20.55937
22.971989 1.3545597 0.2509381 5.4192185 13.015523 -0.34191322 5.365308 0.021622501
0.12778871 25.57693 29.82547 0.17190622 -8.051615 -17.284542 13.111081 1.503536
14.914337 13.431532 26.81796 14.955895 -0.32111815 29.500221 7.7803116 32.269947
12.19784 0.3154785 8.604663 -23.76261 -0.31897017 4.496147 -31.126604 8.364542
-0.2534023 5.843342 0.0630182 -9.834883 14.460653 -12.241832 0.8127355 -12.691437
0.2818675 0.21536879 0.39101163 0.081297085 -0.2973808 -23.242638 -25.872583 -14.43824
00000000: baba 97be abcd bbbc 34e5 623f 2c3a 93be
00000010: 240b 8c3f 8614 b13e c210 d4c1 0587 a7bd
00000020: edc1 8f3e c409 af41 abad cebe 31b3 253e
00000030: f288 6fc1 1152 8341 3e2a 76c1 40e0 7abd
00000040: a94a 763e e691 c23f ade3 1d41 01a8 2041
00000050: b24d ed3c 8091 8cc1 4a92 8cc1 4bf4 8a40
00000060: f5bd 7dbe 6daa 6441 a09d c53e 8902 9c41
00000070: 68dc 3abe 04b6 c941 0951 2641 1046 efbf
00000080: 9440 3bbe 34ae 15c1 7c31 0042 4757 5f3d
00000090: 7df3 c9bf f541 bcbd e5e1 3dbe 9d2d 1f41
000000a0: 72e6 f240 92b1 4641 6d12 8141 6eea 3041
000000b0: a8a0 7c3c 646a 7e41 1b64 a33e 2c2c a441
000000c0: 59de 43c0 2749 943e 9e95 05c0 d9db 1541
000000d0: f886 8f3d 348c c0be 87f7 5a41 9bf9 e0be
000000e0: 2694 99bc 325d df41 a80a 2f41 e9c2 7c41
000000f0: 3ede a240 40ec 913f e3bf 4bc0 dd3d a83d
00000100: 5d31 8141 6619 7441 1249 c541 9444 8a40
00000110: ccbc ab41 dc60 153e 89f4 80c1 3e3b 8bc1
00000120: 3fad 133e faa0 52c1 95d2 4a41 8a02 2741
00000130: 7b37 82be e2fa d63d 4b72 1241 9779 a441
00000140: a2c6 b741 3662 ad3f f57a 803e 3d6a ad40
00000150: 953f 5041 400f afbe 9ab0 ab40 ac21 b13c
00000160: 0bdb 023e 8d9d cc41 909a ee41 2f08 303e
00000170: 6ad3 00c1 be46 8ac1 fdc6 5141 de73 c03f
00000180: 20a1 6e41 8ee7 5641 2f8b d641 594b 6f41
00000190: 9969 a4be 7400 ec41 50f8 f840 6d14 0142
000001a0: 5a2a 4341 6686 a13e b3ac 0941 d319 bec1
000001b0: 0f50 a3be 70e0 8f40 4903 f9c1 2ad5 0541
000001c0: f2bd 81be a8fc ba40 b00f 813d ae5b 1dc1
000001d0: d65e 6741 8bde 43c1 6f0f 503f 2010 4bc1
000001e0: f050 903e a389 5c3e ad32 c83e 167f a63d
000001f0: 4c42 98be ecf0 b9c1 0dfb cec1 0803 67c1

2.weight f4 [128, 128]
-0.023696559 0.06682683 0.71349937 0.03373338 -0.88850147 0.008961474 0.4040325 0.035204735
0.016995443 0.12745385 0.047646616 -0.02214428 -0.032203257 0.079526424 0.010939563 1.0752125
0.069568135 0.08440652 0.11258855 -0.06899043 -0.0637038 -0.9610685 -0.079302944 0.12473768
-0.1551212 0.016882202 -0.060416274 0.25156638 0.72788596 -0.0865238 0.29655516 0.25936452
0.025101304 -1.1708369 0.81316185 -0.047307275 0.28889906 0.04501964 0.08390331 0.11656383
0.15951096 0.32461345 0.05281176 -0.05326323 -0.06936099 0.095486194 0.05623261 -1.9194372
0.22609575 0.009183482 0.57114416 0.28514552 0.29069567 0.048547637 0.21290803 0.042536713
0.08496179 0.28753763 0.15580742 0.3705196 0.17240725 0.024992378 0.52059036 0.51032704
0.020796774 0.34089717 0.15807386 0.019534705 0.0076106894 -0.032961734 -0.65711945 -0.64182854
0.3851502 0.29196492 0.02790792 0.18016283 -0.055236895 -0.07145608 0.16262557 0.42662612
0.044549465 0.1195221 0.017200055 0.7605217 -0.09109746 0.082987666 0.1189551 0.050920367
0.05367852 -0.03565492 0.42592043 0.8619904 -0.17688781 -0.069060504 0.26365003 0.07342047
0.18209103 0.15663618 -0.063030906 0.29751858 -0.019005235 -0.026435897 0.18845734 0.08319072
0.09205009 0.045357615 0.14166749 -0.44237956 0.03195335 -0.0008754385 -0.5337892 0.2382903
0.063071996 0.20934372 0.035055924 -0.1928191 0.26174054 -1.0900159 0.08417861 -0.56485456
0.38135985 -0.055781763 -0.021194238 -0.06305431 -0.0419779 -0.20446153 -0.407903 -0.06978703
0.029917687 0.07702623 -0.8547752 0.036084235 0.36790234 -0.021490246 -0.12693137 -0.085801676
-0.02635531 0.035760045 -0.028403174 0.0005252867 -0.030039946 -0.07802846 -0.12708636 -0.5713637
0.05196085 -0.18412103 -0.24911164 -0.15413646 -0.009534955 0.06352243 0.02801391 -0.10851989
-0.42027053 -0.057598837 0.08336011 -0.17862958 -0.7484169 0.12811422 -0.11018741 -0.25917646
-0.048766263 0.12244582 0.7638957 0.03758404 0.05664775 0.028535886 -0.042942137 -0.04400892
-0.14045 -0.13976242 0.07522366 0.1570914 0.06494163 0.16009595 -0.028533837 0.32447588
-0.38316026 0.005022408 -0.71976084 -0.3296131 0.36771584 -0.09861957 -0.535147 0.019927694
0.057387464 0.24928913 -0.53405124 0.34745082 -0.35297787 0.06095917 0.15392129 -0.059668873
-0.08293212 -0.4411651 -0.11962005 0.050051328 0.13603008 0.049372356 0.052576404 -0.060965355
0.45660242 -0.41302356 0.19845547 0.1701957 0.013963775 0.022982739 -0.14450112 0.29210418
0.19891237 -0.005179151 -0.055238534 -0.6496519 0.77322364 -0.10464977 -0.16592953 0.0247186
-0.10107271 -0.02916648 0.34737453 0.15891537 0.05417295 -0.027806139 0.11583641 0.10099447
-0.34977612 -0.054511946 0.16008866 0.5496589 -0.008040238 0.15285039 0.11569934 0.14620371
-0.039594103 0.07057033 -0.20013642 -0.033740837 -0.07198997 -0.037425797 0.13539806 -0.5575526
0.043810185 -0.18005398 0.009532774 0.11947525 0.09384364 0.051766932 0.02447948 0.04136417
0.5435704 -0.12195282 0.06690296 -0.004048826 0.012098695 0.04728313 -0.22636738 0.24705379
00000000: 491f c2bc 81dc 883d e5a7 363f 032c 0a3d
00000010: d574 63bf 25d3 123c 59dd ce3e d732 103d
00000020: 073a 8b3c 4383 023e 1929 433d ec67 b5bc
00000030: 90e7 03bd c0de a23d da3b 333c 90a0 893f
00000040: bd79 8e3d 53dd ac3d d394 e63d db4a 8dbd
00000050: 2377 82bd 9608 76bf 9569 a2bd 7876 ff3d
00000060: 18d8 1ebe 8b4c 8a3c 0e77 77bd 4fcd 803e
00000070: bc56 3a3f 6433 b1bd 14d6 973e 6dcb 843e
00000080: 40a1 cd3c fcdd 95bf 602b 503f 46c5 41bd
00000090: 94ea 933e 8466 383d 80d5 ab3d 04b9 ee3d
000000a0: d756 233e bc33 a63e 2551 583d 8b2a 5abd
000000b0: 220d 8ebd 448e c33d 2a54 663d 1eb0 f5bf
000000c0: a585 673e 5176 163c 8136 123f 98fe 913e
000000d0: 10d6 943e e3d9 463d 9004 5a3e fa3a 2e3d
000000e0: 7200 ae3d 2238 933e fb8b 1f3e bfb4 bd3e
000000f0: 878b 303e d1bc cc3c 6945 053f cba4 023f
00000100: ff5d aa3c 138a ae3e 1dde 213e 3f07 a03c
00000110: 1763 f93b e202 07bd fb38 28bf e04e 24bf
00000120: 6832 c53e 6d7c 953e 269f e43c 9b7c 383e
00000130: 1540 62bd 9157 92bd 5187 263e bd6e da3e
00000140: 8079 363d 01c8 f43d 21e7 8c3c 8db1 423f
00000150: 4e91 babd 70f5 a93d bb9e f33d e091 503d
00000160: 02de 5b3d e50a 12bd 3e12 da3e 67ab 5c3f
00000170: 1422 35be 986f 8dbd 23fd 863e 795d 963d
00000180: 1276 3a3e 3c65 203e 5916 81bd 5b54 983e
00000190: deb0 9bbc 1890 d8bc f6fa 403e e55f aa3d
000001a0: c284 bc3d e8c8 393d 4811 113e 937f e2be
000001b0: 84e1 023d af7d 65ba 69a6 08bf 5f02 743e
000001c0: e42b 813d 335e 563e cd96 0f3d 5f72 45be
000001d0: db02 863e a485 8bbf d665 ac3d 4f9a 10bf
000001e0: 9941 c33e 6b7b 64bd 8a9f adbc 9e22 81bd
000001f0: 05f1 2bbd 5d5e 51be a9d8 d0be 81ec 8ebd
00000200: f015 f53c eebf 9d3d 8cd2 5abf 10cd 133d
00000210: b25d bc3e 500c b0bc 4cfa 01be cab8 afbd
00000220: 17e7 d7bc 2079 123d c6ad e8bc 65b3 093a
00000230: 5516 f6bc 63cd 9fbd ed22 02be e444 12bf
00000240: e6d4 543d 398a 3cbe 1f17 7fbe f3d5 1dbe
00000250: 8038 1cbc 0c18 823d 6d7d e53c ad3f debd
00000260: b32d d7be c2ec 6bbd b5b8 aa3d acea 36be
00000270: 4098 3fbf 6030 033e f0a9 e1bd c7b2 84be
00000280: 22bf 47bd e0c4 fa3d ab8e 433f b9f1 193d
00000290: 7907 683d 17c4 e93c 18e4 2fbd b342 34bd
000002a0: 20d2 0fbe e11d 0fbe dd0e 9a3d 91dc 203e
000002b0: 1e00 853d 31f0 233e cbbf e9bc b421 a63e
000002c0: 952d c4be 0393 a43b 3f42 38bf 0cc3 a8be
000002d0: 4045 bc3e 0ff9 c9bd 65ff 08bf 673f a33c
000002e0: 1e0f 6b3d a645 7f3e 95b7 08bf 13e5 b13e
000002f0: 84b9 b4be 53b0 793d 8b9d 1d3e 5967 74bd
00000300: 51d8 a9bd 64e0 e1be 5bfb f4bd 9f02 4d3d
00000310: 784b 0b3e ab3a 4a3d 5b5a 573d cfb6 79bd
00000320: cbc7 e93e d377 d3be e937 4b3e c847 2e3e
00000330: 51c8 643c 4c46 bc3c 1af8 13be ae8e 953e
00000340: afaf 4b3e deb5 a9bb cd41 62bd 964f 26bf
00000350: fcf1 453f 9e52 d6bd 6ee9 29be a97e ca3c
00000360: 35ff cebd 8bee eebc 13db b13e b6ba 223e
00000370: 75e4 5d3d b3c9 e3bc a43b ed3d 30d6 ce3d
00000380: db15 b3be eb47 5fbd 48ee 233e 72b6 0c3f
00000390: 34bb 03bc d084 1c3e c7f3 ec3d 6db6 153e
000003a0: 6d2d 22bd 2d87 903d 90f0 4cbe d533 0abd
000003b0: 7a6f 93bd cb4b 19bd caa5 0a3e c4bb 0ebf
000003c0: 4f72 333d 1260 38be 5a2f 1c3c 71af f43d
000003d0: 1831 c03d 9009 543d 3189 c83c 7a6d 293d
000003e0: 6e27 0b3f 66c2 f9bd 6b04 893d 04ac 84bb
000003f0: 9b39 463c f5ab 413d dacc 67be abfb 7c3e

2.bias f4 [128]
13.448119 26.7503 -0.044560693 -0.1266696 0.07062311 28.575378 5.545564 -0.042899586
35.84996 -0.08369791 -0.017339906 0.051188 -0.0445489 -0.065006524 -0.088530086 1.6341966
-0.024854846 0.026913881 27.023699 0.041251518 -0.014057483 -0.13025719 -0.110505685 -0.951455
-0.058549594 -0.095861666 3.2017255 0.003006627 -0.059398785 -0.079904586 -0.011000183 0.043237876
-0.094899856 -0.08140397 -0.055186283 -0.04588413 -0.1151722 -0.079890296 1.3091786 20.83271
5.032546 3.7736182 7.7716365 -0.07512176 1.8977039 0.06194301 0.73417157 3.3044887
1.2902272 2.0737886 -0.07171804 6.536872 -0.033361655 0.384979 27.791443 -0.119770475
-0.046944246 -23.713337 23.150513 12.846791 -0.1017937 1.5253145 -0.0675955 0.0268887
-0.019100636 0.002453094 21.433327 0.91005176 0.0069146557 -0.09454874 33.19046 0.044364896
-0.1332432 -0.116645 -0.020065824 13.662869 0.079063244 9.93787 22.51894 -13.783228
-0.033429045 2.691657 -0.011611488 17.825996 10.563813 -0.06605001 -0.010516446 -0.05592099
-0.07138036 -8.849489 25.648815 1.2694006 -0.04074261 -0.06842385 16.889494 -0.094473444
0.06904043 0.049180567 -0.0065246015 0.0040316195 0.036463045 9.299959 14.611467 -0.016302
0.23768945 17.834911 0.06854886 -0.033226427 19.24976 -6.863889 21.725494 22.154478
-0.080238216 13.310349 0.15734227 -0.0064124786 -0.09787403 -0.03740738 -0.05552893 14.7146
21.929794 -0.053863928 0.06926141 -0.03155276 -0.06024607 -0.05157613 -0.043913465 1.2111164
00000000: 7f2b 5741 9d00 d641 4685 36bd adb5 01be
00000010: d9a2 903d 609a e441 4375 b140 7ab7 2fbd
00000020: 5c66 0f42 cf69 abbd 6b0c 8ebc 82aa 513d
00000030: e878 36bd 2422 85bd 434f b5bd 5b2d d13f
00000040: 649c cbbc 807a dc3c 8930 d841 5af7 283d
00000050: 5b51 66bc 2462 05be ce50 e2bd 8e92 73bf
00000060: b3d1 6fbd 1f53 c4bd 12e9 4c40 d50a 453b
00000070: 244c 73bd 04a5 a3bd 1d3a 34bc 331a 313d
00000080: db5a c2bd 20b7 a6bd 030b 62bd fff0 3bbd
00000090: 67df ebbd 869d a3bd 2a93 a73f 64a9 a641
000000a0: 9e0a a140 f682 7140 3fb1 f840 70d9 99bd
000000b0: f6e7 f23f f4b7 7d3d abf2 3b3f be7c 5340
000000c0: 2a26 a53f f4b8 0440 e8e0 92bd 0e2e d140
000000d0: 3ba6 08bd f81b c53e e054 de41 394a f5bd
000000e0: 9c48 40bd eab4 bdc1 4034 b941 758c 4d41
000000f0: 3779 d0bd 813d c33f 826f 8abd b145 dc3c
00000100: f078 9cbc 17c4 203b 7477 ab41 27f9 683f
00000110: 5694 e23b c5a2 c1bd 08c3 0442 f7b7 353d
00000120: e870 08be 93e3 eebd 1561 a4bc 1d9b 5a41
00000130: e9eb a13d 8401 1f41 ca26 b441 1a88 5cc1
00000140: e5ec 08bd 1c44 2c40 1c3e 3ebc a49b 8e41
00000150: 6105 2941 3a45 87bd 2c4d 2cbc 680d 65bd
00000160: de2f 92bd 8297 0dc1 c630 cd41 b87b a23f
00000170: b9e1 26bd ce21 8cbd af1d 8741 4b7b c1bd
00000180: 1265 8d3d 9071 493d 53cc d5bb ad1b 843b
00000190: 465a 153d a2cc 1441 92c8 6941 c68b 85bc
000001a0: dd64 733e e6ad 8e41 5863 8c3d 6f18 08bd
000001b0: 82ff 9941 fba4 dbc0 d0cd ad41 5f3c b141
000001c0: ef53 a4bd 31f7 5441 551e 213e c51f d2bb
000001d0: 2e72 c8bd 7b38 19bd 4e72 63bd 006f 6b41
000001e0: 3870 af41 6ca0 5cbd edd8 8d3d 783d 01bd
000001f0: 95c4 76bd 7e41 53bd 9bde 33bd dd05 9b3f

4.weight f4 [128, 128]
0.00890636 -0.056079593 -0.042402837 -0.06972052 -0.07515753 0.020824771 -0.023183823 -0.0063059833
-0.0038316501 0.0116570415 0.039072998 0.05429581 -0.07842033 -0.006531001 0.042617176 -0.0383
0.002279154 0.08708899 -0.09916597 0.04730954 0.03928297 -0.09650629 -0.040274605 0.03643069
0.02063242 -0.042878244 -0.07712915 0.01207386 -0.070741415 -0.066113554 -0.08379412 -0.0673964
-0.01702317 -0.041108508 0.052920677 -0.0055569354 0.05334064 0.07510461 0.0640866 0.0015321694
0.028563134 -0.12416701 -0.059605196 -0.03493523 0.016541172 -0.09606649 -0.053448364 -0.008456161
0.01502861 -0.030371109 -0.06713577 -0.063076064 0.021221155 -0.034435224 0.04438933 -0.022065412
-0.06733975 0.051718693 -0.06151339 -0.077829495 0.03127083 -0.09933632 -0.08192494 0.077095106
0.050468702 -0.036103476 -0.067658976 -0.031550948 -0.08968179 -0.011408983 0.00088888634 -0.0046131727
0.06328638 0.014103526 0.0022835056 -0.11595799 0.006418933 -0.008584481 0.0031602967 -0.0129275685
-0.070734344 -0.017216379 -0.044990044 -0.10090715 0.04985031 -0.03631446 -0.036725298 -0.036748987
-0.057519436 0.0019826358 -0.00642785 -0.08736914 -0.024996283 -0.0065692184 0.024955632 -0.07902678
0.0010132241 -0.08229554 0.04107436 0.031685125 -0.022887442 0.027969768 0.020243695 0.08178116
0.011735233 -0.064366214 0.056602575 -0.047582462 -0.045909043 -0.034081534 -0.0552901 -0.060817435
-0.004820329 -0.03132735 -0.031609904 -0.007176535 -0.06629377 -0.034176007 0.017353375 -0.05677153
-0.060832787 0.016314777 0.027978616 0.002928053 -0.06823562 -0.07105767 0.056929074 0.062341306
0.07823539 -0.023356117 0.07381819 0.07224697 -0.07720889 0.032098994 0.025828242 -0.0077927606
-0.11443591 0.033334132 0.018009009 0.040466137 -0.063528806 0.025147298 0.07144194 -0.10970115
-0.018289667 0.010750049 -0.056784436 0.020570623 -0.037648514 0.07390485 -0.016001508 0.013009934
0.08827291 0.07337226 -0.15367724 0.017025022 -0.038275324 -0.058447488 -0.05319224 -0.030050492
-0.057247832 0.0058185724 -0.006625579 -0.04961375 -0.056415517 0.059270654 -0.07567667 -0.011330888
-0.024361888 -0.06928507 -0.0060864156 0.009929492 -0.043572713 0.02190516 -0.0556732 0.035941835
-0.08556938 0.06498398 -0.049493797 0.06075822 -0.021997325 -0.015824068 -0.10157014 -0.07265814
0.016077653 -0.060791794 -0.023510452 -0.04335214 0.0058362214 0.028957857 0.07845326 0.080538325
0.045789495 -0.017332954 -0.092406064 -0.08077955 -0.0034084893 0.03595616 -0.08627385 0.08830829
0.069863714 -0.07733169 0.04995487 -0.003443298 -0.06334756 -0.06448306 -0.12097165 -0.041873846
-0.0010771515 0.054965694 -0.02564033 -0.04837914 -0.037024256 -0.0019804803 0.03215205 0.0003118656
0.08186235 -0.08893853 -0.04168876 0.016822342 0.031195238 0.022906022 -0.08603142 -0.07282355
0.0013726491 -0.0025257552 0.025021434 -0.04054941 -0.02455693 -0.094472 -0.017725928 0.01208583
0.07885184 0.0009202673 0.0015659451 -0.056352865 -0.030392898 -0.019721532 -0.06602261 0.07661108
0.08575342 -0.0017809868 0.06302012 0.006807159 0.050892312 -0.045678157 -0.033169676 0.012777275
-0.04563973 -0.020724889 -0.08331321 0.0650533 -0.014890207 -0.02098716 0.0011579214 0.06345792
00000000: fbeb 113c b7b3 65bd 99ae 2dbd a2c9 8ebd
00000010: 31ec 99bd b698 aa3c 00ec bdbc 6ca2 cebb
00000020: 6c1c 7bbb 2dfd 3e3c 020b 203d 4965 5e3d
00000030: d79a a0bd 0202 d6bb 598f 2e3d 76e0 1cbd
00000040: dc5d 153b b65b b23d 8717 cbbd a6c7 413d
00000050: 2ee7 203d 17a5 c5bd fcf6 24bd 5938 153d
00000060: 5205 a93c 19a1 2fbd e3f5 9dbd 70d1 453c
00000070: e0e0 90bd 8b66 87bd 409c abbd 2007 8abd
00000080: 2d74 8bbc 6561 28bd 5ac3 583d f416 b6bb
00000090: b77b 5a3d 72d0 993d d63f 833d 13d3 c83a
000000a0: 3cfd e93c 464b febd 9424 74bd 3e18 0fbd
000000b0: 5a81 873c 82be c4bd acec 5abd b68b 0abc
000000c0: 8f3a 763c d5cc f8bc 7b7e 89bd 062e 81bd
000000d0: fdd7 ad3c f30b 0dbd 96d1 353d 86c2 b4bc
000000e0: 6ce9 89bd fbd6 533d 77f5 7bbd 1265 9fbd
000000f0: d815 003d d770 cbbd 43c8 a7bd 0ae4 9d3d
00000100: 45b8 4e3d 3de1 13bd ca90 8abd 913b 01bd
00000110: 16ab b7bd beec 3abc 2704 693a 192a 97bb
00000120: 4a9c 813d 7a12 673c dea6 153b 627b edbd
00000130: ea55 d23b eca5 0cbc fb1c 4f3b 27ce 53bc
00000140: 2bdd 90bd 5d09 8dbc 7b47 38bd 68a8 cebd
00000150: d72f 4c3d 79be 14bd 446d 16bd 1b86 16bd
00000160: 8099 6bbd 1cef 013b b7a0 d2bb 97ee b2bd
00000170: 01c5 ccbc 9942 d7bb c16f cc3c cbd8 a1bd
00000180: 29ce 843a 908a a8bd 973d 283d 43c8 013d
00000190: 727e bbbc db20 e53c 1bd6 a53c e17c a73d
000001a0: 2245 403c 6fd2 83bd 1ad8 673d d4e5 42bd
000001b0: 1f0b 3cbd 1499 0bbd df77 62bd b41b 79bd
000001c0: daf3 9dbb 1b51 00bd 6379 01bd 2429 ebbb
000001d0: 07c5 87bd 24fc 0bbd aa28 8e3c 4489 68bd
000001e0: cd2b 79bd 91a6 853c 6933 e53c 94e4 3f3b
000001f0: 1ebf 8bbd af86 91bd 762e 693d 9959 7f3d
00000200: e039 a03d 5455 bfbc fe2d 973d 38f6 933d
00000210: b21f 9ebd 3c7a 033d c095 d33c 6a5a ffbb
00000220: 605d eabd 5f89 083d a187 933c d2bf 253d
00000230: 641b 82bd b501 ce3c 2750 923d ffaa e0bd
00000240: 36d4 95bc f920 303c cc96 68bd b983 a83c
00000250: 5435 1abd 6d5b 973d 9815 83bc 9e27 553c
00000260: 6dc8 b43d 3244 963d 915d 1dbe 0f78 8b3c
00000270: 96c6 1cbd a266 6fbd 1be0 59bd 732c f6bc
00000280: b47c 6abd b9a9 be3b 631b d9bb ca37 4bbd
00000290: f513 67bd c9c5 723d 5ffc 9abd 30a5 39bc
000002a0: 9592 c7bc 55e5 8dbd 8e70 c7bb 4faf 223c
000002b0: 4d79 32bd 7372 b33c 9509 64bd bf37 133d
000002c0: 003f afbd 5216 853d 02ba 4abd 9cdd 783d
000002d0: bc33 b4bc 7aa1 81bc 0104 d0bd cacd 94bd
000002e0: 48b5 833c d100 79bd fe98 c0bc 0392 31bd
000002f0: c63d bf3b 0739 ed3c 1aac a03d 47f1 a43d
00000300: c48d 3b3d d7fd 8dbc 643f bdbd c06f a5bd
00000310: f660 5fbb c446 133d 58b0 b0bd fada b43d
00000320: b514 8f3d 1460 9ebd 7a9d 4c3d f4a8 61bb
00000330: 5ebc 81bd b20f 84bd fcbf f7bd e983 2bbd
00000340: 352f 8dba b523 613d ab0b d2bc 3529 46bd
00000350: bfa6 17bd f2ca 01bb deb1 033d e481 a339
00000360: 73a7 a73d 6725 b6bd d5c1 2abd 02cf 893c
00000370: 288d ff3c 69a5 bb3c 3e31 b0bd 8324 95bd
00000380: 76ea b33a 2487 25bb c0f9 cc3c 2317 26bd
00000390: 9d2b c9bc 897a c1bd f735 91bc a503 463c
000003a0: 137d a13d 183e 713a 6640 cd3a 43d2 66bd
000003b0: 87fa f8bc 0d8f a1bc dd36 87bd 45e6 9c3d
000003c0: 7d9f af3d 0070 e9ba b110 813d 970e df3b
000003d0: 7574 503d 0519 3bbd eddc 07bd c757 513c
000003e0: baf0 3abd 3ec7 a9bc 1ea0 aabd aa3a 853d
000003f0: 0ef6 73bc 44ed abbc 65c5 973a 3af6 813d

4.bias f4 [128]
-0.11018078 -0.116554245 -0.0038251334 28.01495 -0.24266182 25.96312 -31.527258 -0.047136635
-9.475039 1.3753198 -22.872128 -0.11869803 0.0042878687 -0.041717198 0.010597884 -0.04433278
-0.17780077 -0.006753494 38.24434 -14.4598055 33.328037 -0.18024507 23.054115 8.880561
-0.031744342 -0.019900583 0.4972932 23.67947 -23.914051 29.471638 -0.054918863 38.83217
7.7628655 -0.041931838 0.47353506 -0.0738499 22.593376 -0.11178173 0.045314234 0.033617325
0.08001728 0.060709 -0.05377984 22.81795 -0.11543929 1.7222018 0.020863155 -0.02200223
-0.05020631 -0.052114457 -0.029005118 28.94688 26.421358 -0.037525106 0.69484097 -0.11427493
0.057549994 -0.01376325 27.773163 -0.10223419 28.47623 31.911148 22.06647 0.018843874
22.883081 -0.001027059 -0.16898586 29.451475 -0.17041901 -0.0766222 21.71846 -0.097294785
-0.040718116 -0.084018864 0.5323514 -0.12092305 -24.943174 21.654924 0.06734979 -0.026361726
27.559378 21.537048 27.325085 24.917364 -0.05974127 1.3960958 -0.13774075 27.07539
28.788502 -0.12411556 0.0042058523 -0.081519 0.045391157 -0.0027453024 -0.102293715 -0.14240918
-0.025593296 13.389752 0.036319878 27.21299 30.890276 20.895964 0.26516968 0.007365713
-0.12878135 -24.846405 26.871878 -0.067974985 15.273562 25.12111 29.48784 26.79921
-0.05571926 1.0175071 -0.11101944 -28.602678 -12.495719 -0.095272824 27.727247 -0.055031586
-0.01688979 -0.004765195 9.579446 0.31464893 -0.21470256 -0.1220186 -0.16741206 2.0866926
00000000: 76a6 e1bd feb3 eebd 17af 7abb 9e1e e041
00000010: 577c 78be 78b4 cf41 d337 fcc1 5812 41bd
00000020: c299 17c1 7b0a b03f 1efa b6c1 f417 f3bd
00000030: 4081 8c3b a7df 2abd bfa2 2d3c 4a96 35bd
00000040: 6811 36be 6a4c ddbb 34fa 1842 5d5b 67c1
00000050: e94f 0542 2a92 38be d46e b841 c716 0e41
00000060: 5b06 02bd 8c06 a3bc 379d fe3e 8e6f bd41
00000070: fa4f bfc1 eac5 eb41 9af2 60bd 2454 1b42
00000080: 6569 f840 b8c0 2bbd 3073 f23e 9e3e 97bd
00000090: 3cbf b441 d2ed e4bd 6b9b 393d 52b2 093d
000000a0: 1ae0 a33d 00aa 783d 4048 5cbd 298b b641
000000b0: 6f6b ecbd 1c71 dc3f 35e9 aa3c 053e b4bc
000000c0: 22a5 4dbd f875 55bd 249c edbc 3693 e741
000000d0: f15e d341 edb3 19bd 19e1 313f f908 eabd
000000e0: 8bb9 6b3d 417f 61bc 702f de41 2960 d1bd
000000f0: 52cf e341 084a ff41 2188 b041 785e 9a3c
00000100: 8d10 b741 629e 86ba a10a 2dbe 9f9c eb41
00000110: 5282 2ebe 1aec 9cbd 68bf ad41 7d42 c7bd
00000120: 0ac8 26bd 1512 acbd 2e48 083f 81a6 f7bd
00000130: 9f8b c7c1 493d ad41 b0ee 893d 8cf4 d7bc
00000140: 9b79 dc41 e04b ac41 c699 da41 c356 c741
00000150: 43b3 74bd 44b3 b23f e90b 0dbe 669a d841
00000160: da4e e641 4c30 febd 3fd1 893b 6ff3 a6bd
00000170: 14ec 393d 88ea 33bb 5e7f d1bd b6d3 11be
00000180: 08a9 d1bc 6d3c 5641 27c4 143d 34b4 d941
00000190: 491f f741 ef2a a741 52c4 873e 145c f13b
000001a0: 42df 03be 70c5 c6c1 9bf9 d641 7836 8bbd
000001b0: 8360 7441 09f8 c841 19e7 eb41 c864 d641
000001c0: e139 64bd ac3d 823f 295e e3bd 49d2 e4c1
000001d0: 77ee 47c1 661e c3bd 67d1 dd41 cd68 61bd
000001e0: 755c 8abc 5a25 9cbb 6945 1941 aa19 a13e
000001f0: fdda 5bbe e3e4 f9bd 116e 2bbe 5f8c 0540

6.weight f4 [128, 128]
0.12127274 -0.0020708907 -0.042972017 0.0073873773 -0.007116994 -0.040555954 -0.17110908 -0.060601603
-0.20230742 -0.09029864 -0.46756703 -0.058421854 0.033647597 -0.066757455 -0.06343159 -0.05749577
0.052320678 -0.068721265 -0.097164884 -0.17577031 0.27597186 0.09204626 0.014515382 -0.058972023
-0.047309853 -0.056564398 -0.012372498 -0.10455956 -0.6299846 0.03768564 0.037014764 -0.097666286
-0.1344665 0.08274829 0.0881088 0.008455924 -0.11800251 -0.04747306 -0.0020296748 0.07207908
-0.02299014 -0.068127215 -0.044765707 -0.05326673 -0.05010872 0.07270951 -0.020952616 0.00482209
0.050612923 -0.0733685 -0.004958977 -0.105853975 0.26688284 0.06462958 0.03979558 0.014270328
-0.0038631144 0.049331963 -0.036932264 -0.02687926 -0.14890072 -0.050177384 -0.1291705 -0.04362725
-0.023613337 0.03047298 0.11438132 -0.15977597 -0.025249578 0.012301285 -0.044989336 -0.009445833
0.11682314 -0.015231683 -0.039899494 0.07002175 -0.21209583 -0.036191575 0.077637374 -0.0516051
-0.037720013 -0.16949579 -0.06313488 -0.08097421 0.013856303 0.02972101 -0.03678591 -0.09903336
-0.123731814 -0.08616703 -0.0044165086 -0.039045177 -0.070799984 -0.018926159 -0.05805213 0.025379024
-0.041166384 0.0022558996 0.015585261 -0.007261166 -0.14726156 0.1493463 0.094720595 0.0086617125
-0.024440654 -0.09737372 -0.15776893 0.03440292 0.14060786 -0.15749669 -0.0041202647 -0.044229202
0.0061379913 -0.002120366 -0.1265934 -0.6935115 -0.18423653 0.07216522 -0.07200737 0.059053835
-0.069490455 -0.06897534 0.02280133 -0.04893796 -0.04484886 -0.008188349 0.0036926032 0.10032855
0.038772583 -0.057783317 -0.050419 -0.1158558 0.02906002 0.009164192 0.017791523 0.075313
-0.05771547 -0.04373824 -0.014917733 -0.083987534 -0.04024675 -0.057012767 -0.045252416 -0.041370682
-0.07760184 0.02095025 -0.031757757 0.034690186 -0.050052196 0.071407326 0.049510513 -0.086552754
0.08798111 -0.058780987 0.08357176 -0.108123094 -0.053901076 -0.030394368 0.056488525 -0.11225223
-0.08816452 -0.011728403 -0.08362552 -0.0775676 -0.05164661 -0.0054625897 -0.068674356 0.065832935
0.059322942 0.06615267 -0.048913557 -0.0007070348 0.061055947 -0.016097568 -0.0015512675 -0.07971843
0.041636724 0.0005388053 0.002831183 -0.116778515 -0.03936053 0.016415913 0.037106726 0.07861661
0.051146824 0.040184207 -0.106301986 -0.027612297 -0.06427204 0.049674686 -0.038790226 -0.08490514
0.008484466 0.048621815 0.030693905 -0.056375496 -0.03544318 0.04530946 -0.08101666 0.0040124957
0.060255494 -0.042201985 0.084898114 -0.033379134 -0.09256909 -0.030215971 0.075524844 0.047996104
0.026769526 0.025658801 -0.119310334 -0.034606066 0.06962946 -0.046957385 -0.02415181 -0.01166676
0.03501637 0.037035026 0.0469212 -0.06838932 0.06090072 0.08826681 -0.027948229 -0.028853806
-0.03852266 0.0069090733 0.06602303 0.005500254 -0.109308235 -0.02216646 -0.08358717 -0.0825025
0.011332792 0.031183688 -0.013080854 -0.05213973 0.016826253 -0.10167838 -0.089927286 -0.06385875
-0.0023570415 0.024356611 -0.07136173 0.07568503 -0.0012593028 -0.052767146 -0.0011447249 0.04055515
-0.082990676 -0.059102926 -0.04107914 -0.056496702 -0.06926254 -0.03116674 0.025863983 0.061580718
00000000: d85d f83d c8b7 07bb 6d03 30bd d011 f23b
00000010: ac35 e9bb 001e 26bd 3837 2fbe 6339 78bd
00000020: ad29 4fbe 7eee b8bd f264 efbe c14b 6fbd
00000030: 10d2 093d 22b8 88bd 6ce8 81bd af80 6bbd
00000040: 354e 563d bcbd 8cbd 62fe c6bd 22fd 33be
00000050: 2f4c 8d3e c082 bc3d edd1 6d3c a68c 71bd
00000060: fac7 41bd 12b0 67bd 05b6 4abc 5323 d6bd
00000070: ac46 21bf 425c 1a3d cb9c 173d 4305 c8bd
00000080: 96b1 09be ef77 a93d 6372 b43d b78a 0a3c
00000090: 4dab f1bd 1d73 42bd 4b04 05bb 329e 933d
000000a0: d155 bcbc 4886 8bbd 3f5c 37bd 372e 5abd
000000b0: cd3e 4dbd b9e8 943d d2a4 abbc 9f02 9e3b
000000c0: 7f4f 4f3d 3942 96bd ea7e a2bb f8c9 d8bd
000000d0: dea4 883e 835c 843d b100 233d 18ce 693c
000000e0: 4e2c 7dbb 5010 4a3d 4946 17bd e531 dcbc
000000f0: 6e79 18be cd86 4dbd 4645 04be 7db2 32bd
00000100: c270 c1bc 79a2 f93c c140 ea3d 509c 23be
00000110: 34d8 cebc 548b 493c bd46 38bd b2c2 1abc
00000120: f840 ef3d 4f8e 79bc a76d 23bd 9067 8f3d
00000130: a62f 59be 9e3d 14bd 5800 9f3d df5f 53bd
00000140: 4d80 1abd 4e90 2dbe dc4c 81bd ced5 a5bd
00000150: 8c05 633c 7a79 f33c d3ac 16bd 01d2 cabd
00000160: 1b67 fdbd 5778 b0bd 5cb8 90bb d6ed 1fbd
00000170: 95ff 90bd 080b 9bbc 12c8 6dbd ace7 cf3c
00000180: 159e 28bd b7d7 133b 5359 7f3c 13ef edbb
00000190: bccb 16be 3dee 183e dffc c13d dbe9 0d3c
000001a0: c437 c8bc df6b c7bd 2e8e 21be 14ea 0c3d
000001b0: 82fb 0f3e d046 21be 4903 87bb ae29 35bd
000001c0: 3421 c93b d7f5 0abb b3a1 01be f889 31bf
000001d0: 80a8 3cbe 5ccb 933d 9a78 93bd 6fe2 713d
000001e0: 0351 8ebd f142 8dbd dbc9 ba3c 2c73 48bd
000001f0: 70b3 37bd 6d28 06bc 9aff 713b 0e79 cd3d
00000200: 00d0 1e3d 33ae 6cbd 2784 4ebd ce45 edbd
00000210: 470f ee3c 6825 163c 87bf 913c b43d 9a3d
00000220: 0f67 6cbd de26 33bd 8269 74bc a801 acbd
00000230: c7d9 24bd 3886 69bd 995a 39bd 4e74 29bd
00000240: b7ed 9ebd dc9f ab3c 6c14 02bd 4c17 0e3d
00000250: 8803 4dbd 013e 923d 89cb 4a3d 9242 b1bd
00000260: 712f b43d 55c4 70bd ac27 ab3d a46f ddbd
00000270: 60c7 5cbd 9cfd f8bc 8360 673d 7fe4 e5bd
00000280: 9a8f b4bd 7d28 40bc db43 abbd c3db 9ebd
00000290: 658b 53bd 86ff b2bb 24a5 8cbd 6bd3 863d
000002a0: 9dfc 723d 0d7b 873d 9559 48bd 4d58 39ba
000002b0: cd15 7a3d 0cdf 83bc e653 cbba 6b43 a3bd
000002c0: 458b 2a3d 9d3e 0d3a 5e8b 393b 9329 efbd
000002d0: 8238 21bd aa7a 863c 39fd 173d bf01 a13d
000002e0: 557f 513d 3298 243d dbb4 d9bd 2f33 e2bc
000002f0: 0fa1 83bd af77 4b3d 80e2 1ebd bfe2 adbd
00000300: 6e02 0b3c ab27 473d c971 fb3c fee9 66bd
00000310: de2c 11bd 6a96 393d 10ec a5bd 417b 833b
00000320: 77ce 763d fddb 2cbd 10df ad3d 8fb8 08bd
00000330: dd94 bdbd 7c87 f7bc c5ac 9a3d 9097 443d
00000340: c44b db3c 6832 d23c fa58 f4bd 17bf 0dbd
00000350: e499 8e3d 6356 40bd 04da c5bc f025 3fbc
00000360: 536d 0f3d 0ab2 173d 7230 403d b30f 8cbd
00000370: 0973 793d 3bc5 b43d aff3 e4bc d15e ecbc
00000380: f0c9 1dbd 8265 e23b 1537 873d 7a3b b43b
00000390: ffdc dfbd 7096 b5bc c02f abbd 12f7 a8bd
000003a0: 2dad 393c ef74 ff3c 1451 56bc 7890 55bd
000003b0: 36d7 893c c13c d0bd cc2b b8bd 60c8 82bd
000003c0: 9878 1abb 8487 c73c 1926 92bd c100 9b3d
000003d0: 310f a5ba 5d22 58bd 980a 96ba 281d 263d
000003e0: 04f7 a9bd e915 72bd 9a42 28bd 1669 67bd
000003f0: 85d9 8dbd 6451 ffbc b4e0 d33c 103c 7c3d

6.bias f4 [128]
13.6861925 -0.0010777991 -7.9109526 -17.797884 6.2492695 0.94515693 27.442743 25.695175
-0.13470197 4.858853 -0.0920759 -0.087263815 -11.857873 28.254335 28.719433 0.06234693
0.034271646 28.520391 -0.038333733 -6.616453 -0.09410536 -0.06955208 0.024870466 -0.116948254
12.388117 -0.06139229 11.307558 -0.09093886 0.04518121 -0.021556912 0.019740812 28.16576
0.9736689 -0.13867643 0.9708207 28.700354 -8.367738 -0.105171554 0.00433615 -0.12173405
27.95268 0.00352732 0.034952566 0.0012297079 0.089359105 16.851532 28.147375 15.298983
26.918022 -0.06845938 -0.016717188 25.681215 22.478941 0.106692754 28.480318 -14.22825
-0.0567536 0.030503668 0.21050578 16.065916 0.17703372 -0.04115768 30.039782 0.02063871
0.10575626 -0.015119312 0.025445316 28.075071 28.110739 31.8035 0.4456419 23.73843
0.0608733 -0.10222175 27.37182 0.00803841 -0.023834853 0.0004004163 22.857687 0.80517095
0.005332396 -0.02794139 18.898457 0.030639902 28.486778 -0.05539465 -0.048234537 8.537079
-0.03220903 -0.11843971 -0.007841436 -0.14946519 0.07305546 0.047686167 0.034709033 -0.16706857
-21.236626 29.015709 36.515644 -3.3479092 27.464968 -0.05160795 27.698383 -21.003212
-20.96812 0.100666024 15.375158 -8.25187 30.840744 -0.11083307 0.025822984 -0.18385485
34.678886 0.4716003 0.08971763 0.02600651 0.027427135 -0.08822292 34.89916 26.44316
29.205027 -0.015242605 -0.0869887 0.005140008 1.102762 27.486746 0.03312019 -0.113246106
00000000: a5fa 5a41 f044 8dba 8626 fdc0 1162 8ec1
00000010: 04fa c740 cef5 713f bd8a db41 b88f cd41
00000020: 50ef 09be b97b 9b40 4a92 bcbd 5fb7 b2bd
00000030: d9b9 3dc1 e108 e241 66c1 e541 7f5f 7f3d
00000040: 6d60 0c3d c329 e441 d503 1dbd fcb9 d3c0
00000050: 50ba c0bd 5271 8ebd 26bd cb3c 9182 efbd
00000060: ba35 4641 7b76 7bbd c2eb 3441 273e babd
00000070: ef0f 393d 1f98 b0bc 7cb7 a13c 7a53 e141
00000080: 5d42 793f 3201 0ebe b587 783f 539a e541
00000090: 41e2 05c1 2f64 d7bd 4316 8e3b b44f f9bd
000000a0: 179f df41 9c2a 673b 6c2a 0f3d 262e a13a
000000b0: e801 b73d f0cf 8641 d32d e141 a2c8 7441
000000c0: 1c58 d741 6e34 8cbd 7cf2 88bc 2173 cd41
000000d0: dfd4 b341 bb81 da3d b1d7 e341 e9a6 63c1
000000e0: 7676 68bd d4e2 f93c d48e 573e ff86 8041
000000f0: 5448 353e f594 28bd 7951 f041 8312 a93c
00000100: bd96 d83d feb6 77bc b272 d03c bf99 e041
00000110: cbe2 e041 916d fe41 2d2b e43e 4ee8 bd41
00000120: 4856 793d a359 d1bd 7df9 da41 89b3 033c
00000130: 4f41 c3bc f7ee d139 8bdc b641 af1f 4e3f
00000140: 61bb ae3b 58e5 e4bc 0a30 9741 8800 fb3c
00000150: ece4 e341 80e5 62bd 9491 45bd e097 0841
00000160: 9eed 03bd 8590 f2bd 5e79 00bc 670d 19be
00000170: 1a9e 953d 9252 433d 0f2b 0e3d 0614 2bbe
00000180: 9ce4 a9c1 2c20 e841 0510 1242 2544 56c0
00000190: 41b8 db41 dc62 53bd 4a96 dd41 9406 a8c1
000001a0: b6be a7c1 fd29 ce3d a600 7641 a907 04c1
000001b0: d8b9 f641 73fc e2bd b98a d33c 7244 3cbe
000001c0: 2eb7 0a42 9875 f13e e0bd b73d 9b0b d53c
000001d0: dfae e03c 38ae b4bd bd98 0b42 978b d341
000001e0: e5a3 e941 1ebc 79bc 2227 b2bd 836d a83b
000001f0: 4e27 8d3f dbe4 db41 09a9 073d 93ed e7bd

8.weight f4 [128, 128]
-0.119214185 0.015551765 -0.0042292606 -0.030083217 -0.013124716 0.055162087 0.0016876018 0.0030020885
-0.057126448 -0.098693185 0.0010423638 0.0018872077 -0.09978685 -0.077423714 0.043638323 0.033499427
-0.011510845 -0.09700237 0.0032537894 0.027066302 0.021439396 -0.052796368 -0.022941299 0.03720373
-0.03082671 -0.0799956 -0.016085256 0.019152896 -0.079328224 0.056866266 -0.02975164 0.0020734544
0.022073917 -0.051765107 0.038260646 -0.0657782 -0.08117508 -0.020397231 0.072851025 -0.0028857104
-0.14912172 -0.0288959 0.059544645 -0.079664364 0.009676781 -0.10194328 0.011750974 0.003484411
-0.06872202 0.016995452 -0.07218587 0.025530176 -0.053879578 -0.08834332 0.032531023 0.08436984
-0.035268977 -0.025754245 -0.03994137 -0.17750499 -0.041828264 0.040065132 -0.030505672 -0.07521222
-0.090770684 -0.039241485 -0.04279885 -0.13541813 -0.042934284 -0.1134808 -0.091868535 -0.10656394
-0.016257918 0.053147923 -0.09249692 0.037549797 0.06800013 0.021683773 -0.10160177 0.052118637
-0.07559736 0.007944896 -0.049483437 0.08158778 0.007877723 0.012834705 -0.04176427 0.019289045
-0.035950612 0.014929581 -0.0833959 -0.045753658 -0.059843823 -0.054419387 -0.01957376 -0.029765733
0.039214127 -0.12102455 -0.038308516 -0.033954892 -0.03565286 -0.011997977 0.017435988 -0.06789004
0.0010832747 -0.06497489 -0.090892725 -0.09164159 -0.02642826 -0.0045431666 -0.046524387 -0.08554673
0.037013043 0.04052011 0.031617723 -0.066949695 0.050528202 -0.036828496 -0.08213894 -0.010582226
-0.06365719 0.07514373 0.06962575 -0.0827769 0.05232229 -0.055837903 0.0037221566 -0.08796159
0.015797703 -0.04254364 -0.039957512 -0.054661397 0.052135177 0.034556948 -0.07634884 -0.071361996
0.07189105 0.046381343 -0.0071151885 -0.072957225 0.03627674 0.05380441 -0.008212298 0.05277231
0.05534998 -0.063644886 0.018825447 -0.071688026 0.05126948 0.05364397 0.070719525 0.006214247
-0.061839838 -0.06331248 -0.02286674 0.029637579 0.03573664 -0.012615068 -0.048887424 -0.11231317
0.04623329 0.023867402 0.05307793 -0.097706616 -0.032707933 0.024601167 -0.05337974 -0.077902034
-0.1031494 -0.07281734 0.03905914 0.07874844 0.04752526 -0.0051726196 -0.06486594 -0.022785366
0.014308136 0.056184623 -0.035382226 -0.10033715 -0.009870006 0.023376076 -0.06888642 -0.052173972
-0.034532778 0.025395488 -0.051200464 -0.0059972857 0.03442705 -0.019253649 -0.091804005 -0.042076916
-0.07904833 -0.07149666 0.015697509 0.014777202 -0.10656621 -0.06611597 0.042812537 0.05890224
-0.06677506 0.07148096 0.045524172 -0.02918981 -0.002983586 0.07064681 -0.09680811 0.001583278
0.014236889 0.010870947 -0.05824818 -0.052877128 -0.0849431 0.08291103 0.017798698 -0.038438715
-0.050133813 0.039804388 0.06843691 -0.023964034 0.04473735 -0.058004346 0.018067153 0.07738999
0.03730778 -0.022126205 0.01682583 -0.0818755 -0.0524393 0.054894257 -0.050395682 -0.037027575
0.0077723395 -0.058601018 -0.0043530106 -0.028321564 -0.03801628 0.07964901 -0.083797626 0.08511089
-0.11451357 -0.050842058 0.06164024 -0.087878905 -0.048035983 0.07511176 -0.019083587 0.06704665
-0.011281046 0.08159839 0.0098908115 0.06912439 -0.048907056 0.036877796 -0.0016472884 -0.086834736
00000000: 9126 f4bd d5cc 7e3c 9c95 8abb 1471 f6bc
00000010: 0c09 57bc a4f1 613d 8532 dd3a b0be 443b
00000020: 6cfd 69bd a71f cabd ed9f 883a 2f5c f73a
00000030: 0c5d ccbd 5390 9ebd 19be 323d b236 093d
00000040: fc97 3cbc 2ea9 c6bd 873d 553b 26ba dd3c
00000050: aca1 af3c 0141 58bd 64ef bbbc f062 183d
00000060: 4c88 fcbc bcd4 a3bd 3ac5 83bc 89e6 9c3c
00000070: d676 a2bd 9aec 683d b6b9 f3bc cbe2 073b
00000080: 5cd4 b43c a607 54bd 32b7 1c3d b9b6 86bd
00000090: 1f3f a6bd 1818 a7bc eb32 953d 301e 3dbb
000000a0: 5db3 18be 18b7 ecbc 16e5 733d 1227 a3bd
000000b0: 5c8b 1e3c a3c7 d0bd 2887 403c b75a 643b
000000c0: 21be 8cbd 0c3a 8b3c 2fd6 93bd a924 d13c
000000d0: d5b0 5cbd 58ed b4bd 403f 053d 18ca ac3d
000000e0: 3476 10bd 91fa d2bc 9099 23bd dec3 35be
000000f0: 1d54 2bbd 561b 243d 08e7 f9bc dd08 9abd
00000100: fbe5 b9bd aebb 20bd d94d 2fbd 0dab 0abe
00000110: dcdb 2fbd 9f68 e8bd 9225 bcbd 323e dabd
00000120: 532f 85bc a3b1 593d 066f bdbd d1cd 193d
00000130: a743 8b3d 2ba2 b13c 9714 d0bd 5a7a 553d
00000140: cad2 9abd 4f2b 023c 25af 4abd 7e17 a73d
00000150: 9111 013c a848 523c 0311 2bbd 0f04 9e3c
00000160: f340 13bd 349b 743c 78cb aabd 3068 3bbd
00000170: cc1e 75bd dde6 5ebd 2659 a0bc 44d7 f3bc
00000180: fe9e 203d b8db f7bd 64e9 1cbd 4914 0bbd
00000190: bc08 12bd 2a93 44bc ebd5 8e3c ef09 8bbd
000001a0: abfc 8d3a 8e11 85bd f725 babd 96ae bbbd
000001b0: 1480 d8bc d8de 94bb 5b90 3ebd 2033 afbd
000001c0: fd9a 173d 6af8 253d 9681 013d ec1c 89bd
000001d0: a9f6 4e3d 7ad9 16bd 7638 a8bd 1361 2dbc
000001e0: b35e 82bd f5e4 993d f297 8e3d ef86 a9bd
000001f0: e64f 563d 49b6 64bd 6def 733b 3525 b4bd
00000200: 2f6a 813c 3d42 2ebd 7daa 23bd a1e4 5fbd
00000210: b28b 553d 968b 0d3d c85c 9cbd 3d26 92bd
00000220: 9d3b 933d 5dfa 3d3d 8726 e9bb 996a 95bd
00000230: eb96 143d 0362 5c3d e08c 06bc c727 583d
00000240: a9b6 623d 4058 82bd d337 9a3c 2cd1 92bd
00000250: f2ff 513d c8b9 5b3d 66d5 903d e2a0 cb3b
00000260: c54b 7dbd f9a9 81bd 0853 bbbc 82ca f23c
00000270: 9560 123d 6eaf 4ebc 2e3e 48bd 7304 e6bd
00000280: 1e5f 3d3d 9285 c33c 3e68 593d 681a c8bd
00000290: c1f8 05bd 6388 c93c b7a4 5abd 1a8b 9fbd
000002a0: fe3f d3bd 4221 95bd 7afc 1f3d dd46 a13d
000002b0: d9a9 423d 147f a9bb 6fd8 84bd 60a8 babc
000002c0: ac6c 6a3c d921 663d f4ec 10bd 907d cdbd
000002d0: ceb5 21bc 2f7f bf3c 5314 8dbd 60b4 55bd
000002e0: 3e72 0dbd 330a d03c 94b7 51bd e184 c4bb
000002f0: 6103 0d3d d4b9 9dbc bd03 bcbd d858 2cbd
00000300: 17e4 a1bd d76c 92bd 1098 803c 141c 723c
00000310: 633f dabd cf67 87bd 335c 2f3d 7a43 713d
00000320: 5dc1 88bd 9c64 923d 8e77 3a3d 781f efbc
00000330: 4488 43bb 46af 903d 5543 c6bd fe85 cf3a
00000340: d741 693c 0e1c 323c a595 6ebd b095 58bd
00000350: a6f6 adbd 42cd a93d 93ce 913c ea71 1dbd
00000360: 1d59 4dbd ed09 233d a728 8c3d 3950 c4bc
00000370: 833e 373d f795 6dbd 9101 943c a57e 9e3d
00000380: 0bd0 183d 0442 b5bc 53d6 893c 58ae a7bd
00000390: 97ca 56bd cdd8 603d b46b 4ebd 3aaa 17bd
000003a0: 1caf fe3b 9f07 70bd b3a3 8ebb a002 e8bc
000003b0: f5b6 1bbd 051f a33d 179e abbd 9e4e ae3d
000003c0: 1786 eabd c33f 50bd 7a7a 7c3d dbf9 b3bd
000003d0: 61c1 44bd 32d4 993d 2f55 9cbc c14f 893d
000003e0: 23d4 38bc 0f1d a73d 120d 223c 1791 8d3d
000003f0: c452 48bd 2c0d 173d d4e9 d7ba 69d6 b1bd

8.bias f4 [128]
0.027036384 0.017041506 0.06321162 0.18061301 26.381895 0.018094366 -0.10469192 26.911606
0.019131664 -0.04950971 27.797115 0.020983763 1.6222764 33.77844 7.6097703 -0.03655428
-0.06281099 -0.10366961 -0.035034858 26.929155 0.007972988 -0.07845196 25.818188 -0.13186769
29.60588 -0.20164129 0.024657758 30.63488 -0.09803435 28.225084 -0.17361245 27.584835
-0.088888526 0.039948337 5.8388762 0.06099577 27.37569 0.30543804 0.9150256 -0.09806686
28.166649 -0.51389605 -0.07201766 -0.06183283 27.43911 -0.080891505 0.021928355 -0.09663847
-0.05323242 -0.040289134 0.056306984 27.85373 0.0016401109 -0.0016163728 0.043523774 26.369057
-0.11068386 28.168177 26.054073 -0.036352247 2.1176383 -0.0262389 -0.08958664 27.534868
27.308762 25.58782 28.43267 -2.7493021 29.259665 0.04736716 0.46797657 -0.07823184
0.2972554 0.013338513 -0.13227189 0.055511482 -0.10383956 28.087711 28.206556 0.33726096
-0.07405335 -0.09002302 -0.036902137 30.610329 0.02314122 0.012914978 27.40271 27.610312
1.3347045 6.2372346 0.7110114 -0.052397855 0.42969164 28.587986 27.900686 0.057342295
28.830618 -0.08621048 -0.11395008 0.043235242 -0.0886756 0.0093116835 -0.03382046 -0.04912591
1.3956904 0.0064443154 27.254412 25.32925 0.009416783 -0.078353964 -0.013090369 -0.09429769
-0.010807162 -0.025768843 32.0382 25.43718 28.782959 0.014273701 0.027427375 -0.14400516
-0.001435948 25.030691 -0.06899191 6.651686 0.039574515 28.293985 26.057816 0.87555397
00000000: 687b dd3c a19a 8b3c 1875 813d 9ef2 383e
00000010: 1f0e d341 a33a 943c b868 d6bd f84a d741
00000020: 02ba 9c3c b2ca 4abd 7e60 de41 24e6 ab3c
00000030: c1a6 cf3f 1f1d 0742 3d83 f340 f1b9 15bd
00000040: 0ca3 80bd bc50 d4bd b680 0fbd e96e d741
00000050: 23a1 023c 6cab a0bd a68b ce41 5308 07be
00000060: d8d8 ec41 0e7b 4ebe 11ff c93c 3c14 f541
00000070: 3cc6 c8bd f9cc e141 76c7 31be bead dc41
00000080: 300b b6bd dea0 233d 13d8 ba40 b3d6 793d
00000090: 6a01 db41 6062 9c3e 1e3f 6a3f 47d7 c8bd
000000a0: 4c55 e141 b18e 03bf ff7d 93bd 6c44 7dbd
000000b0: 4c83 db41 72aa a5bd 18a3 b33c 64ea c5bd
000000c0: 3d0a 5abd 3806 25bd 27a2 663d 70d4 de41
000000d0: fdf8 d63a 79dc d3ba fc45 323d d4f3 d241
000000e0: 38ae e2bd 6d58 e141 be6e d041 18e6 14bd
000000f0: 6387 0740 f6f2 d6bc 3379 b7bd 6947 dc41
00000100: 5878 da41 dbb3 cc41 1c76 e341 91f4 2fc0
00000110: cb13 ea41 1104 423d a09a ef3e 0438 a0bd
00000120: dc31 983e c789 5a3c 4872 07be 0260 633d
00000130: d6a9 d4bd a2b3 e041 07a7 e141 78ad ac3e
00000140: 48a9 97bd fd5d b8bd b226 17bd f4e1 f441
00000150: a892 bd3c 5899 533c c038 db41 ebe1 dc41
00000160: 99d7 aa3f 6d97 c740 d804 363f 229f 56bd
00000170: 8b00 dc3e 32b4 e441 9b34 df41 c1df 6a3d
00000180: 1ba5 e641 1f8f b0bd a95e e9bd 7017 313d
00000190: 8e9b b5bd 0890 183c 5387 0abd 4038 49bd
000001a0: fca5 b23f d62a d33b 0909 da41 4ea2 ca41
000001b0: da48 1a3c 0b78 a0bd fd78 56bc 261f c1bd
000001c0: 8610 31bc 2e19 d3bc 1e27 0042 587f cb41
000001d0: 8043 e641 3edc 693c 60af e03c 1776 13be
000001e0: 6b36 bcba db3e c841 a14b 8dbd 9dda d440
000001f0: e318 223d 155a e241 6876 d041 4e24 603f
