my_model_n_128.pth (torch, 340670 bytes, 14 tensors)

0.weight f4 [128, 6]
0.0008853361 1.6792773 -1.2987367 -0.5298417 -0.3163508 6.2547884 -0.38140538 0.40881166
-4.5399704 -1.582712 0.35697153 -8.06431 0.07762834 -0.014331001 6.0637164 15.310424
0.5181277 5.596683 -0.1905866 0.104061805 -0.18809494 -0.047876444 -0.16581345 0.27082008
-0.32225904 -0.18820669 -0.11527901 -0.24546847 0.03853175 -0.40321833 -0.004440658 0.43161935
-3.826349 6.3513484 -0.11247588 -2.3136537 -0.0014045332 0.41510874 -2.685254 17.10437
0.45672438 6.628861 0.0015772447 0.11161277 -11.937415 5.704644 0.62731725 1.4297987
0.0026495568 -3.3207264 -3.7021208 -4.3067107 0.34439802 5.0260897 0.04219158 0.5524517
2.7914662 -7.6028075 0.100729674 -8.858594 0.049966883 -0.06780026 3.815701 -6.13807
0.099657916 -10.150785 -0.021155685 -0.33269265 -3.8638318 -1.4779649 0.06919744 -4.0628467
0.12167116 -0.3679629 8.207353 8.993997 -0.13735859 4.953996 0.052142456 0.60844654
1.6487348 -9.12273 -0.12389581 -8.135184 0.08695437 -0.44963616 5.165701 12.165201
-0.05177431 5.110398 0.0887195 0.44634533 0.69723827 -7.9101596 -1.2889258 -3.2790444
0.023188721 -2.3372712 4.578853 -15.031056 -3.5644114 4.4452276 -0.05388599 -0.29634172
0.009576155 -0.27886686 -0.3463565 -0.22480708 -0.16927968 -0.56324583 -3.760326 -17.639755
-0.4122061 6.344488 -0.2681268 -0.13588783 0.06383824 -0.35922638 -0.17590319 -0.24440543
-0.003111068 -0.15786664 -0.03176848 -0.28250018 -0.28615487 -0.24331269 -0.024981763 -0.69119924
-0.28544235 -0.9706731 0.2112328 -16.118553 -0.34570342 0.2825222 -0.112327404 -0.15649222
-0.33887488 -0.4058644 0.002233658 -0.31798872 9.019025 13.400488 0.45646712 5.490329
-0.32661167 0.27264202 2.5630865 14.932567 0.78679353 7.7040644 0.049416363 -0.06490522
6.0417776 -2.829921 0.19256072 -8.268217 0.010725591 -1.4435258 -15.003835 -0.89115834
0.61945635 -1.5278307 0.04781964 -0.89541477 2.1299095 11.128137 0.17017987 6.6682916
-0.001253682 -1.1386546 -0.48915032 12.508003 0.3792237 5.9463563 -0.10750038 -0.14758651
-11.375679 -2.9660285 0.26789007 -9.525799 -0.00070618495 -0.5366508 -4.033778 13.581578
0.289581 5.755412 -0.0021289599 -0.39002833 2.8497264 15.75437 0.15104248 5.412362
0.033464022 0.778843 -17.211142 -10.401501 -0.05150541 -1.6039473 0.008455613 0.008345309
2.374288 15.926489 0.60823184 6.495103 -0.051766917 -0.22312184 -0.28531653 -0.37805924
-0.10903109 0.10930038 -0.340525 -3.7346642 0.5403857 -12.8352585 -4.7764945 5.2614074
0.0260663 -0.67374504 2.3504531 11.437881 0.13321 5.844415 -0.06499911 -0.17158519
-5.918718 -2.4726448 0.10680596 -13.647553 -0.6484037 -3.2008064 1.2187886 -1.7524003
-2.367327 2.191131 0.04324815 0.61793256 7.741628 9.636112 -0.3754697 4.5986304
0.001045501 -0.89136714 4.121612 11.441642 0.190817 4.5554667 -0.26675585 0.13542038
-0.12132992 0.2520293 -0.13096963 -0.29947758 0.013074688 -0.15877399 -32.06916 -13.316853
00000000: e615 683a 8ff2 d63f 013d a6bf b5a3 07bf
00000010: bbf8 a1be 3a27 c840 9147 c3be c34f d13e
00000020: 7047 91c0 4f96 cabf f9c4 b63e 6a07 01c1
00000030: 9bfb 9e3d 93cc 6abc f709 c240 7ff7 7441
00000040: 04a4 043f 0718 b340 2229 43be 5b1e d53d
00000050: f69b 40be 171a 44bd 00cb 29be eea8 8a3e
00000060: 23ff a4be 41b9 40be 6717 ecbd 165c 7bbe
00000070: 78d3 1d3d a272 cebe f082 91bb 36fd dc3e
00000080: e7e2 74c0 3f3e cb40 c159 e6bd e712 14c0
00000090: 5018 b8ba 2289 d43e 34db 2bc0 c0d5 8841
000000a0: c7d7 e93e a11f d440 8dbb ce3a 3c95 e43d
000000b0: a7ff 3ec1 728c b640 dd97 203f a503 b73f
000000c0: 30a4 2d3b c886 54c0 8cef 6cc0 93d0 89c0
000000d0: f054 b03e bad5 a040 14d1 2c3d 7a6d 0d3f
000000e0: 62a7 3240 334a f3c0 5c4b ce3d cdbc 0dc1
000000f0: 13aa 4c3d ddda 8abd 7234 7440 126b c4c0
00000100: 7319 cc3d 9e69 22c1 b04e adbc b156 aabe
00000110: 0549 77c0 f42d bdbf 63b7 8d3d d702 82c0
00000120: bb2e f93d a265 bcbe 5151 0341 69e7 0f41
00000130: bba7 0cbe 2387 9e40 5493 553d 27c3 1b3f
00000140: be09 d33f b4f6 11c1 16bd fdbd b729 02c1
00000150: 2215 b23d b636 e6be 6c4d a540 aaa4 4241
00000160: 4d11 54bd 6188 a340 92b2 b53d 6087 e43e
00000170: 357e 323f 0720 fdc0 85fb a4bf dddb 51c0
00000180: 46f6 bd3c da95 15c0 f785 9240 357f 70c1
00000190: 511f 64c0 4e3f 8e40 8eb7 5cbd 1aba 97be
000001a0: 4ee5 1c3c a3c7 8ebe a455 b1be d433 66be
000001b0: a757 2dbe e130 10bf 2ea9 70c0 381e 8dc1
000001c0: ae0c d3be 0c06 cb40 ea47 89be 2e26 0bbe
000001d0: a0bd 823d 85ec b7be f71f 34be 6b45 7abe
000001e0: 0fe3 4bbb cba7 21be aa1f 02bd dda3 90be
000001f0: e482 92be f626 79be 8ea6 ccbc 6ff2 30bf
00000200: 8025 92be 087e 78bf 694d 583e ccf2 80c1
00000210: 0a00 b1be c0a6 903e e90b e6bd 7f3f 20be
00000220: 0281 adbe 75cd cfbe 9062 123b 6bcf a2be
00000230: ed4d 1041 6668 5641 0fb6 e93e c6b0 af40
00000240: a539 a7be bc97 8b3e 9c09 2440 cbeb 6e41
00000250: 4d6b 493f b287 f640 d068 4a3d 07ed 84bd
00000260: 3e56 c140 6d1d 35c0 a32e 453e 9e4a 04c1
00000270: 64ba 2f3c 74c5 b8bf b50f 70c1 f422 64bf
00000280: b194 1e3f f58f c3bf 87de 433d e739 65bf
00000290: 7050 0840 d90c 3241 a243 2e3e a562 d540
000002a0: 9652 a4ba 6fbf 91bf e971 fabe c820 4841
000002b0: 9c29 c23e 8d48 be40 2929 dcbd eb20 17be
000002c0: c802 36c1 69d3 3dc0 e328 893e ac69 18c1
000002d0: 451f 39ba f261 09bf b614 81c0 254e 5941
000002e0: f643 943e 562c b840 0586 0bbb cbb1 c7be
000002f0: eb61 3640 e611 7c41 e1aa 1a3e 1232 ad40
00000300: 9211 093d 4162 473f 6bb0 89c1 8c6c 26c1
00000310: 56f7 52bd 254e cdbf 6989 0a3c c3ba 083c
00000320: 56f4 1740 e6d2 7e41 15b5 1b3f e2d7 cf40
00000330: 8c09 54bd 0d7a 64be 0215 92be fb90 c1be
00000340: b14b dfbd e1d8 df3d 4b59 aebe bd04 6fc0
00000350: b856 0a3f 385d 4dc1 0bd9 98c0 735d a840
00000360: fe88 d53c 8e7a 2cbf d36d 1640 9001 3741
00000370: 3468 083e 7305 bb40 411e 85bd 07b4 2fbe
00000380: 2366 bdc0 d03f 1ec0 15bd da3d 615c 5ac1
00000390: c9fd 25bf 03da 4cc0 4401 9c3f a74e e0bf
000003a0: 4982 17c0 7e3b 0c40 f924 313d d430 1e3f
000003b0: 6bbb f740 842d 1a41 913d c0be fb27 9340
000003c0: 3109 893a a330 64bf 3fe4 8340 f710 3741
000003d0: 8865 433e 62c6 9140 3994 88be a4ab 0a3e
000003e0: d27b f8bd fc09 813e e71c 06be 2055 99be
000003f0: 3737 563c a695 22be d246 00c2 d411 55c1

0.bias f4 [128]
0.532885 -1.6829078 34.577885 0.16380745 -0.24425417 -13.411511 -2.7111654 -46.2427
11.750083 -12.3741865 -11.219461 -17.730719 43.818527 -16.614254 34.70632 -8.390698
41.82328 -0.40481046 1.9326597 0.09738221 -0.21231537 -0.7472062 -0.18462947 39.08781
-8.998784 5.8459864 -42.072796 30.805927 19.759474 -4.879683 -9.539585 29.632496
-49.335857 27.859037 -0.39097783 27.125862 30.084307 -3.549826 2.1106656 41.87016
36.299686 -0.24935506 -25.94178 -44.14256 -25.735006 -0.09910988 0.22407737 -0.1690906
-9.238481 -45.07641 -3.1366835 12.158418 -1.6847532 7.2704563 -0.23199686 -24.579483
-0.11804047 0.0062812236 -0.52859604 -0.23305371 1.2171471 -12.572137 0.19132836 39.70713
22.03481 27.282799 -0.29547054 -13.196845 -1.9640567 44.905582 -37.131683 -0.70193666
0.1177674 -0.462154 22.390438 -10.023514 -10.702415 19.20417 -46.460876 -0.07549102
-11.926627 36.932243 -3.7860506 -0.22530119 -31.190937 1.3324164 31.64376 -15.761257
28.832731 -44.337933 0.21427906 5.439582 -4.4192834 5.0189586 0.36474591 2.3426905
33.77854 1.6524328 6.5680337 -3.5487986 0.025590563 2.5720854 4.9670563 0.39156172
0.043493748 0.03495341 -0.09287816 -39.946255 -15.201245 2.5139005 1.7970045 18.801788
-22.735806 0.16851261 0.06510096 9.470192 -43.275112 9.309588 -0.13380818 -47.184666
-0.34563127 -19.267635 -0.0035632998 24.88863 -0.06836311 22.780344 0.28615522 0.10991002
00000000: 276b 083f 8669 d7bf c14f 0a42 24bd 273e
00000010: c41d 7abe 8d95 56c1 bc83 2dc0 86f8 38c2
00000020: 5700 3c41 abfc 45c1 ea82 33c1 83d8 8dc1
00000030: 2c46 2f42 fee9 84c1 46d3 0a42 4d40 06c1
00000040: 0a4b 2742 5143 cfbe 6561 f73f 5370 c73d
00000050: 3369 59be e848 3fbf 820f 3dbe eb59 1c42
00000060: 05fb 0fc1 5212 bb40 8b4a 28c2 8a72 f641
00000070: 6713 9e41 5d26 9cc0 24a2 18c1 5a0f ed41
00000080: eb57 45c2 4fdf de41 3f2e c8be c401 d941
00000090: a9ac f041 5930 63c0 2515 0740 0b7b 2742
000000a0: e132 1142 ef56 7fbe c488 cfc1 fb91 30c2
000000b0: 4be1 cdc1 1ffa cabd 8a74 653e 1626 2dbe
000000c0: d1d0 13c1 3e4e 34c2 6cbf 48c0 e188 4241
000000d0: fea5 d7bf 94a7 e840 9690 6dbe c8a2 c4c1
000000e0: 34bf f1bd b9d2 cd3b 1252 07bf a2a5 6ebe
000000f0: 7acb 9b3f 7927 49c1 95eb 433e 1ad4 1e42
00000100: 4a47 b041 2c43 da41 ea47 97be 4726 53c1
00000110: 3666 fbbf 519f 3342 d886 14c2 1fb2 33bf
00000120: 0930 f13d 739f ecbe 9e1f b341 5060 20c1
00000130: 183d 2bc1 24a2 9941 f0d7 39c2 099b 9abd
00000140: 77d3 3ec1 9eba 1342 a74e 72c0 5bb5 66be
00000150: 0a87 f9c1 9f8c aa3f 6c26 fd41 1c2e 7cc1
00000160: 6fa9 e641 0b5a 31c2 f86b 5b3e 0e11 ae40
00000170: c56a 8dc0 4f9b a040 fabf ba3e a4ee 1540
00000180: 3a1d 0742 eb82 d33f 552d d240 841f 63c0
00000190: 4da3 d13c 0c9d 2440 20f2 9e40 c77a c83e
000001a0: 8026 323d 4f2b 0f3d e836 bebd f7c8 1fc2
000001b0: 4d38 73c1 bfe3 2040 3e04 e63f 106a 9641
000001c0: eee2 b5c1 928e 2c3e a753 853d e885 1741
000001d0: b719 2dc2 13f4 1441 0305 09be 19bd 3cc2
000001e0: 95f6 b0be 1e24 9ac1 4086 69bb ea1b c741
000001f0: f501 8cbd 253e b641 f082 923e 8118 e13d

2.weight f4 [128, 128]
-0.039232165 -0.036347494 -0.029733699 -0.034162357 0.07948082 0.03896851 0.071966566 -0.0075637
0.0099793775 0.022803979 -0.09151019 4.679807e-05 -0.013758276 -0.057401247 -0.07643066 0.07824794
0.0640196 0.04096523 0.08434456 -0.035868686 -0.015266674 0.03346547 -0.014604104 -0.025190849
-0.080904335 0.015900547 -0.061261445 0.0032143504 0.07833052 -0.027207287 -0.035705242 0.04547986
-0.040342227 -0.015436543 0.0825316 -0.044082865 -0.06323393 -0.049465984 -0.024505284 -0.04978612
-0.05371348 0.035703987 0.007174551 -0.036135674 -0.076515876 -0.035675906 -0.037303343 -0.028763242
-0.08758312 0.011195441 -0.064941004 -0.06883677 -0.07221621 0.029045884 -0.053212143 -0.04432833
0.06928238 0.04693105 0.0506811 -0.083925314 -0.06338327 -0.04121354 0.0730174 0.0011961844
-0.073951356 0.00055347243 -0.06864865 -0.019365823 -0.024304591 0.06866844 0.01953114 -0.0075664665
0.014931332 -0.02551467 0.026881833 0.034963235 0.023736347 -0.04229769 0.06756262 -0.012760622
-0.042257022 0.0475129 0.06419555 0.08796053 0.018339807 -0.030131046 0.03704577 0.06798723
-0.09454026 -0.01879614 -0.0602778 0.00862605 0.03655608 -0.02610594 -0.0073943166 0.039784547
-0.014855404 -0.07422672 0.07072269 -0.044487137 -0.009710212 0.008337352 -0.005311862 -0.08314568
0.040552568 -0.040148772 -0.045843463 0.013271359 -0.053972475 -0.048695482 -0.029782448 -0.041051485
-0.04476025 -0.023837088 0.02296999 -0.07937139 -0.06134569 0.0012897146 0.012292001 0.040970255
-0.06208786 0.020367311 0.05023903 0.041232564 -0.08232681 -0.041575328 -0.07597558 -0.055933155
0.038181532 -0.027694099 -0.008389444 -0.051884517 0.013431484 -0.063881084 0.028957846 -0.053347185
-0.063443236 -0.12373879 -0.046458136 0.069880575 0.0011171909 -0.09368298 -0.040579315 -0.05047197
-0.113125 0.06930452 0.0014248795 0.018614324 -0.029789817 -0.055251326 0.014574316 -0.014125397
0.0036407423 -0.089749455 0.03935119 -0.053933244 -0.068925686 -0.054472074 0.07186287 -0.042146504
-0.05522283 -0.08412728 -0.023170598 -0.08545792 -0.11124049 0.038270608 0.06960628 0.042944256
-0.10577408 0.04780601 -0.069103405 0.0064032925 0.05280635 0.022140283 0.06364414 0.05529339
-0.008108704 -0.0009730908 -0.07086331 0.02356126 -0.040081207 -0.017644828 -0.07693135 -0.06879722
-0.04648104 -0.04303279 -0.06966223 -0.079500385 -0.006414255 0.01000292 0.080499634 0.008462262
-0.09464622 -0.10052982 0.033526924 0.040159594 -0.0902887 -0.0099333115 0.02620719 -0.008159409
-0.05325034 0.07246751 -0.0078626545 0.013432504 -0.06597639 0.010318342 -0.10620936 0.087459765
-0.07895865 0.007829496 0.0031139376 0.017418534 -0.024490098 -0.004713875 -0.079278156 -0.13140292
-0.07613686 0.02759031 -0.036614943 -0.014982836 -0.046259895 0.05257354 0.05289956 0.018035604
-0.09198239 -0.081470646 -0.0055822004 -0.06474076 0.072672345 -0.09767714 0.033407815 0.08811558
0.044267394 0.030138547 -0.08504255 0.039581798 -0.06294054 -0.12539603 0.07960179 -0.046696205
-0.01720164 0.08090004 -0.061270863 -0.07686457 -0.031467095 -0.019535773 0.013113942 -0.11673207
0.0026433975 -0.08551884 -0.043452494 -0.12679374 0.046865124 0.0016784593 -0.07868124 0.06361132
00000000: e8b1 20bd 1ce1 14bd 1694 f3bc d4ed 0bbd
00000010: d7c6 a23d 729d 1f3d 3563 933d ead8 f7bb
00000020: 8b80 233c 69cf ba3c b269 bbbd 0c49 4438
00000030: 646a 61bc 921d 6bbd ae87 9cbd 7540 a03d
00000040: b51c 833d 28cb 273d d7bc ac3d 0beb 12bd
00000050: 1221 7abc 1713 093d 0d46 6fbc 0a5d cebc
00000060: 2cb1 a5bd dd41 823c 48ed 7abd daa7 523b
00000070: c06b a03d d1e1 debc a93f 12bd 1749 3a3d
00000080: e43d 25bd 8ee9 7cbc 5406 a93d 3c90 34bd
00000090: ca80 81bd d89c 4abd 4ebf c8bc 88ec 4bbd
000000a0: aa02 5cbd 583e 123d 7f18 eb3b 0003 14bd
000000b0: 5bb4 9cbd e620 12bd 64cb 18bd e4a0 ebbc
000000c0: c75e b3bd 156d 373c caff 84bd 4bfa 8cbd
000000d0: 18e6 93bd a2f1 ed3c faf4 59bd 9f91 35bd
000000e0: ece3 8d3d c63a 403d fc96 4f3d 09e1 abbd
000000f0: 16cf 81bd 87cf 28bd 268a 953d 4ac9 9c3a
00000100: cf73 97bd e816 113a aa97 8cbd 13a5 9ebc
00000110: 6c1a c7bc 0aa2 8c3d c5ff 9f3c 1ff0 f7bb
00000120: 8ca2 743c 2404 d1bc 4a37 dc3c 9c35 0f3d
00000130: ba72 c23c 5840 2dbd 455e 8a3d ee11 51bc
00000140: b315 2dbd e39c 423d f578 833d a624 b43d
00000150: 5d3d 963c 62d5 f6bc 4ebd 173d e43c 8b3d
00000160: 539e c1bd 5dfa 99bc dbe5 76bd 4754 0d3c
00000170: d4bb 153d 20dc d5bc 064c f2bb 1ff5 223d
00000180: 1564 73bc 2e04 98bd 0fd7 903d 2538 36bd
00000190: 9517 1fbc 6499 083c 210f aebb 4848 aabd
000001a0: 731a 263d 0a73 24bd 5bc6 3bbd 1d70 593c
000001b0: 3e12 5dbd ea74 47bd 52fa f3bc 9a25 28bd
000001c0: 8656 37bd ff45 c3bc 8f2b bc3c 788d a2bd
000001d0: 9e45 7bbd a40b a93a 6464 493c 6dd0 273d
000001e0: d74f 7ebd 59d9 a63c 71c7 4d3d 7ae3 283d
000001f0: f59a a8bd e44a 2abd 1699 9bbd 2a1a 65bd
00000200: 3d64 1c3d bcde e2bc e173 09bc dc84 54bd
00000210: ba0f 5c3c 16d4 82bd 0139 ed3c 9482 5abd
00000220: 87ee 81bd c36a fdbd e34a 3ebd 8c1d 8f3d
00000230: b56e 923a dddc bfbd 7f36 26bd b2bb 4ebd
00000240: 14ae e7bd 87ef 8d3d 06c3 ba3a 117d 983c
00000250: c609 f4bc 374f 62bd 1dc9 6e3c 366e 67bc
00000260: 8599 6e3b 90ce b7bd b72e 213d 1be9 5cbd
00000270: e928 8dbd 1c1e 5fbd d72c 933d d0a1 2cbd
00000280: 5631 62bd ec4a acbd 44d0 bdbc 9004 afbd
00000290: 0ed2 e3bd a4c1 1c3d bd8d 8e3d 51e6 2f3d
000002a0: 15a0 d8bd 3cd0 433d 1686 8dbd b6d2 d13b
000002b0: 794b 583d 8a5f b53c dc57 823d 527b 623d
000002c0: 5fda 04bc 0517 7fba c820 91bd 8b03 c13c
000002d0: 312c 24bd e38b 90bc 2f8e 9dbd 8fe5 8cbd
000002e0: e762 3ebd 2743 30bd 12ab 8ebd 19d1 a2bd
000002f0: ac2e d2bb 4ae3 233c fedc a43d 4da5 0a3c
00000300: e1d5 c1bd 94e2 cdbd 8753 093d 637e 243d
00000310: 48e9 b8bd 54bf 22bc 76b0 d63c 0baf 05bc
00000320: 071d 5abd d969 943d 5dd2 00bc 0114 5c3c
00000330: a11e 87bd 430e 293c 4b84 d9bd 1b1e b33d
00000340: 13b5 a1bd 4947 003c 3413 4c3b 50b1 8e3c
00000350: 759f c8bc d976 9abb 965c a2bd 7d8e 06be
00000360: a4ed 9bbd 1305 e23c 8df9 15bd 927a 75bc
00000370: 047b 3dbd 5a57 573d 36ad 583d 67bf 933c
00000380: 4361 bcbd 15da a6bd e4ea b6bb ce96 84bd
00000390: 3dd5 943d f40a c8bd a2d6 083d f175 b43d
000003a0: ba51 353d 1de5 f63c ca2a aebd 8620 223d
000003b0: f8e6 80bd d167 00be 4306 a33d 8544 3fbd
000003c0: 74ea 8cbc ecae a53d 28f7 7abd 2c6b 9dbd
000003d0: a4e3 00bd 7c09 a0bc dcdb 563c 3911 efbd
000003e0: da3c 2d3b 8024 afbd 3efb 31bd 38d6 01be
000003f0: a5f5 3f3d c0ff db3a a123 a1bd a746 823d

2.bias f4 [128]
0.03691511 0.09446316 -0.2791591 -0.058871116 -15.170311 1.4296362 0.0544771 0.0358941
-0.041502926 0.4256403 0.066234894 -0.053336177 -0.024230765 -0.021939186 -0.075408146 1.6549395
1.9455105 -0.03401785 2.2279205 0.0043056826 -39.97105 -0.9904965 -2.3335404 1.6382943
0.08923422 0.037337776 -11.9764 0.034863546 -0.09975477 23.119604 1.8939852 4.6523547
2.6657543 0.046324298 2.484603 -0.10843177 -0.006010808 -0.116815165 -0.042594217 -0.05413475
-0.08250766 -0.069034934 0.6037536 25.610722 2.0243394 1.1044316 -0.026700195 -0.050788846
1.5268759 0.9137044 1.9144936 19.895477 0.04455314 -23.51306 -0.06040164 -0.06428291
1.2579722 16.488945 0.60148287 -0.075904384 1.219263 -17.147251 0.021054465 1.6041677
-0.0470081 0.037522767 0.024056869 1.0737778 1.7807579 0.5243045 -0.030254535 5.170583
0.0058197314 45.815292 0.036978208 3.3853223 -0.15159346 -0.07993748 0.04464252 4.878485
-0.06148174 1.5675716 0.8938838 1.3882164 -0.10398102 0.027702048 -0.09580681 -0.0981108
-0.07560427 0.0012413292 0.036188852 0.021195944 1.209916 -0.116481364 0.8347479 -0.08219737
-2.3279693 -0.038702603 -0.09340897 -0.073861845 1.1928297 -0.3874026 9.796142 -0.056546617
-0.04606736 1.3120251 -0.07159851 1.728705 0.06151224 -0.0288378 -22.835743 -0.06576869
39.708397 -0.05849639 1.2176815 -7.1796436 1.6789565 15.464899 36.113987 0.7191183
0.45353052 -0.031075941 -0.090414286 0.019029023 0.2927973 0.054531667 3.7360544 0.04828153
00000000: 4c34 173d e775 c13d f1ed 8ebe d722 71bd
00000010: 98b9 72c1 52fe b63f 6123 5f3d b105 133d
00000020: f9fe 29bd 87ed d93e 29a6 873d 0977 5abd
00000030: 997f c6bc cfb9 b3bc 966f 9abd 0fd5 d33f
00000040: 7d06 f93f 4d56 0bbd 4096 0e40 af16 8d3b
00000050: 5be2 1fc2 2e91 7dbf ba58 15c0 a1b3 d13f
00000060: 6ec0 b63d 7fef 183d 569f 3fc1 14cd 0e3d
00000070: 3b4c ccbd f3f4 b841 1b6e f23f 17e0 9440
00000080: b89b 2a40 8cbe 3d3d bc03 1f40 7a11 debd
00000090: 50f6 c4bb ca3c efbd 4677 2ebd 66bc 5dbd
000000a0: c7f9 a8bd 3062 8dbd 998f 1a3f c2e2 cc41
000000b0: c78e 0140 045e 8d3f 5eba dabc f707 50bd
000000c0: ab70 c33f 88e8 693f 200e f53f f029 9f41
000000d0: 5a7d 363d bf1a bcc1 b667 77bd c2a6 83bd
000000e0: 3c05 a13f 5ce9 8341 c8fa 193f c273 9bbd
000000f0: cf10 9c3f 922d 89c1 6a7a ac3c 5e55 cd3f
00000100: 918b 40bd 79b1 193d e912 c53c 8d71 893f
00000110: e0ef e33f d238 063f 5cd8 f7bc 6a75 a540
00000120: 72b3 be3b dc42 3742 7676 173d 1fa9 5840
00000130: 513b 1bbe 43b6 a3bd 13db 363d 8d1c 9c40
00000140: 47d4 7bbd 30a6 c83f 92d5 643f 13b1 b13f
00000150: 00f4 d4bd 68ef e23c 5c36 c4bd 51ee c8bd
00000160: 69d6 9abd 19b4 a23a c33a 143d 1ea3 ad3c
00000170: 87de 9a3f c88d eebd 0ab2 553f 1857 a8bd
00000180: 73fd 14c0 9f86 1ebd 344d bfbd e144 97bd
00000190: a5ae 983f a259 c6be ffbc 1c41 6d9d 67bd
000001a0: 21b1 3cbd 70f0 a73f 3da2 92bd 3546 dd3f
000001b0: 42f4 7b3d 403d ecbc 9aaf b6c1 bcb1 86bd
000001c0: 66d5 1e42 e999 6fbd fddc 9b3f a4bf e5c0
000001d0: 0ce8 d63f 3a70 7741 b974 1042 2318 383f
000001e0: 2735 e83e f992 febc 202b b9bd c1e2 9b3c
000001f0: 87e9 953e 995c 5f3d 841b 6f40 dbc2 453d

4.weight f4 [128, 128]
-0.046986435 0.007251734 -0.08248853 0.07588266 -0.06320208 -0.08418828 0.057296257 0.010423643
-0.025477296 -0.028100032 -0.046552636 -0.043853246 -0.03034336 -0.00813605 -0.06868593 0.004535731
-0.09020176 -0.047640953 -0.07447436 -0.06422267 -0.0025214283 -0.07641053 -0.07029381 -0.03199992
-0.05190575 -0.07164244 -0.16775481 -0.05724997 -0.06407767 -0.06684437 -0.046761025 0.040296342
-0.074626476 -0.010672035 0.01994357 -0.018699704 -0.028821385 -0.08350223 -0.0063688946 -0.034243166
0.022304228 -0.08115212 -0.03957087 -0.055468533 -0.036026616 -0.020243462 0.08389704 0.038450304
-0.07426753 -0.062790535 0.018003955 -0.017433634 -0.074448064 -0.083187245 -0.036553044 -0.01076185
-0.017487695 -0.049325828 -0.07357111 -0.049354095 0.026728816 -0.21088806 -0.015590224 -0.09391417
-0.06724316 0.033028305 -0.00432806 0.06756822 0.06480195 -0.09268781 -0.04720763 -0.0026751275
-0.01112446 -0.10372851 -0.05262601 -0.097285844 -0.027923137 0.037553325 0.054224458 -0.034303725
-0.046685368 0.04412841 -0.08042207 -0.08156399 -0.038073238 0.04053552 0.014651614 -0.07686165
0.023786353 -0.0034230826 0.0642107 -0.04994686 -0.09608173 -0.005576418 -0.11547211 -0.015030588
-0.041828994 0.08620834 -0.011584514 -0.085515335 -0.055987515 -0.03669058 0.027091635 0.021380274
-0.08720787 -0.0015009468 0.06310419 -0.05111956 0.04111265 0.073465884 0.00613388 0.014651319
-0.14074548 -0.07556798 0.060680065 -0.05123319 0.05297467 0.039318804 -0.1701969 0.03494042
-0.0962177 -0.06407693 0.062219758 0.079588294 0.033325344 0.041050736 -0.027173273 0.057158753
-0.08287978 0.034539845 0.0010573296 -0.035858877 -0.09154285 0.023333106 -0.019265093 0.004339573
-0.018293196 -0.027798597 -0.031607997 -0.08402194 0.021142103 -0.021630973 -0.03175176 0.047003854
-0.05125601 -0.007793458 -0.10801642 -0.032987356 -0.010551302 -0.023348322 0.038980074 0.06537887
0.006383433 0.06492331 -0.054384597 0.05258969 -0.07629834 -0.0062051183 -0.00086303824 -0.026509784
-0.12725312 0.029700775 0.033359885 -0.0665203 0.068191625 0.08194267 -0.0117507875 -0.028096458
-0.0053268136 -0.07453752 -0.088738665 -0.05619867 -0.04051471 0.06891777 0.051933177 -0.024577018
-0.09660972 0.03289681 -0.007464049 -0.061765537 0.07850696 -0.008217253 -0.043056395 0.06696266
-0.07717053 -0.13472567 0.010543113 0.047718115 -0.01873832 -0.076674014 -0.0857655 0.018442238
-0.0025603157 -0.073660545 -0.07640228 0.040931735 -0.078518786 0.007910657 0.08062575 -0.06610716
0.04994078 0.013341749 -0.025922144 -0.09696405 -0.06128129 -0.09238668 0.0035061724 -0.029678375
-0.022919383 0.038220193 -0.016098391 0.017259125 0.079920664 0.07779145 0.06211398 -0.035837054
0.0018898015 -0.033009082 0.02547504 0.057959165 0.0061849914 -0.03649799 -0.0054493784 -0.06538743
-0.11884912 -0.015247233 -0.008141728 -0.018514879 0.031497426 0.007173586 -0.0102105 0.02193969
-0.014107583 0.0058453 -0.051090647 -0.063090645 0.010378061 0.055396035 -0.04945896 0.080357745
0.02872535 -0.08822881 -0.050317243 -0.03614946 0.001767324 0.018594239 -0.11091339 0.0378869
-0.060048524 0.0021179016 -0.06454261 -0.03145489 0.047491822 0.0456985 -0.07353737 0.050632093
00000000: d974 40bd f49f ed3b bfef a8bd 5e68 9b3d
00000010: 1870 81bd e86a acbd 7baf 6a3d edc7 2a3c
00000020: c3b5 d0bc 0a32 e6bc faad 3ebd 769f 33bd
00000030: a392 f8bc 114d 05bc 35ab 8cbd 78a0 943b
00000040: b3bb b8bd 2923 43bd 0386 98bd 2d87 83bd
00000050: 8c3e 25bb 207d 9cbd 33f6 8fbd 5912 03bd
00000060: 209b 54bd 46b9 92bd ebc7 2bbe f27e 6abd
00000070: 273b 83bd b3e5 88bd 7d88 3fbd c70d 253d
00000080: c4d5 98bd c2d9 2ebc b360 a33c 1f30 99bc
00000090: d31a ecbc 3803 abbd 29b2 d0bb 9042 0cbd
000000a0: 5bb7 b63c 1533 a6bd 1115 22bd f932 63bd
000000b0: a590 13bd 9ed5 a5bc 36d2 ab3d 117e 1d3d
000000c0: 9319 98bd 5398 80bd 087d 933c fbd0 8ebc
000000d0: 3a78 98bd 135e aabd a5b8 15bd 7852 30bc
000000e0: 5b42 8fbc e109 4abd 73ac 96bd 8527 4abd
000000f0: 64f6 da3c 0af3 57be 246e 7fbc 1356 c0bd
00000100: c8b6 89bd b048 073d 66d2 8dbb 3561 8a3d
00000110: e2b6 843d 1bd3 bdbd ca5c 41bd 3151 2fbb
00000120: 5e43 36bc 9d6f d4bd 5f8e 57bd cd3d c7bd
00000130: 10bf e4bc 84d1 193d 771a 5e3d 1082 0cbd
00000140: 2839 3fbd febf 343d 54b4 a4bd 050b a7bd
00000150: aff2 1bbd 9308 263d 530d 703c a469 9dbd
00000160: 99db c23c cc55 60bb e680 833d 1495 4cbd
00000170: 80c6 c4bd 62ba b6bb a47c ecbd db42 76bc
00000180: e154 2bbd 008e b03d f9cc 3dbc aa22 afbd
00000190: 2a53 65bd dd48 16bd 47ef dd3c af25 af3c
000001a0: 0a9a b2bd 6bbb c4ba c53c 813d be62 51bd
000001b0: bd65 283d 4875 963d b7fe c83b 160c 703c
000001c0: 951f 10be 63c3 9abd a98b 783d e5d9 51bd
000001d0: f8fb 583d c10c 213d 1948 2ebe b01d 0f3d
000001e0: c90d c5bd c43a 83bd 25da 7e3d 30ff a23d
000001f0: 2880 083d d124 283d 7c9a debc 4c1f 6a3d
00000200: e0bc a9bd a779 0d3d 1896 8a3a c2e0 12bd
00000210: d17a bbbd 1225 bf3c d4d1 9dbc fa32 8e3b
00000220: 9ddb 95bc e2b9 e3bc 6377 01bd b213 acbd
00000230: 3432 ad3c 7033 b1bc 220e 02bd 1d87 403d
00000240: d2f1 51bd 4460 ffbb b637 ddbd c01d 07bd
00000250: 5edf 2cbc fb44 bfbc 92a9 1f3d 5be5 853d
00000260: 1e2c d13b 83f6 843d 62c2 5ebd 4968 573d
00000270: 4e42 9cbd 4e54 cbbb 843d 62ba 0c2b d9bc
00000280: a44e 02be 0a4f f33c 60a4 083d cc3b 88bd
00000290: 0da8 8b3d 8fd1 a73d 6086 40bc 8b2a e6bc
000002a0: 8d8c aebb 21a7 98bd 9ebc b5bd 9430 66bd
000002b0: c1f2 25bd c324 8d3d e2b7 543d be55 c9bc
000002c0: 51db c5bd cebe 063d fb94 f4bb dcfd 7cbd
000002d0: 42c8 a03d a8a1 06bc e75b 30bd b823 893d
000002e0: 950b 9ebd 87f5 09be 05bd 2c3c 1274 433d
000002f0: 1b81 99bc 4407 9dbd d3a5 afbd 2d14 973c
00000300: f8ca 27bb 57db 96bd cc78 9cbd 09a8 273d
00000310: 75ce a0bd b39b 013c 1d1f a53d 3163 87bd
00000320: b48e 4c3d 5a97 5a3c ad5a d4bc 1695 c6bd
00000330: 1702 7bbd 3a35 bdbd d0c7 653b 1020 f3bc
00000340: 6ec1 bbbc c78c 1c3d c6e0 83bc 0263 8d3c
00000350: 72ad a33d 2051 9f3d 3b6b 7e3d e0c9 12bd
00000360: 37b3 f73a 8834 07bd 08b1 d03c 9766 6d3d
00000370: 78ab ca3b eb7e 15bd b390 b2bb d8e9 85bd
00000380: 2b67 f3bd 88cf 79bc e264 05bc 84ac 97bc
00000390: 7203 013d 6710 eb3b f149 27bc ddba b33c
000003a0: 7e23 67bc ee89 bf3b 6d44 51bd ab35 81bd
000003b0: be08 2a3c f4e6 623d 7a95 4abd 9a92 a43d
000003c0: 6d51 eb3c 4eb1 b4bd 7419 4ebd 7511 14bd
000003d0: 8ea5 e73a f252 983c 8f26 e3bd 4b2f 1b3d
000003e0: 71f5 75bd 7ecc 0a3b ea2e 84bd d8d6 00bd
000003f0: c986 423d 5a2e 3b3d c39a 96bd 9963 4f3d

4.bias f4 [128]
-0.080977894 -0.12192604 -9.854454 -20.227634 -0.014234905 15.561224 19.903608 -0.08344766
-0.09747404 -33.401436 -0.10354397 31.45505 13.961745 -0.08322523 6.5768714 -0.14359424
3.905604 36.85393 -0.10300178 2.828437 0.29305524 28.695831 0.001503491 18.080553
-0.014359588 -0.111948416 -39.762943 37.384842 22.166683 -0.16369006 -0.12468189 46.487667
32.94472 29.500689 -0.85720503 7.2324967 -27.26621 -0.1392885 0.042100057 -25.426645
-0.11326355 -0.12476405 22.87684 20.351261 -0.063742004 -0.105975516 -8.701902 -0.009767262
-14.950107 -0.08566606 -26.519121 16.016508 37.07661 -0.072202034 23.457468 17.725407
23.19564 -3.2109172 -10.29246 -0.7722469 -0.02351241 -0.088457696 -0.58062255 24.963604
-0.12951298 1.0751278 22.249279 -24.758038 27.501543 -0.09748275 20.382442 6.424315
-30.515017 -3.3744133 0.07326893 -0.13775966 -41.523758 26.392162 -0.15198246 0.017251626
-0.11060648 24.330696 -0.086495966 -0.001751432 -0.13011134 0.19361962 0.028260775 -0.084297284
0.004701938 19.931082 -8.738864 42.357006 -0.088881776 -35.540302 40.856976 -0.09879718
47.593445 -0.10372497 25.322624 48.706932 -0.049648363 20.978022 -0.6933698 -3.5110548
11.8537035 -0.07040739 3.136042 -0.08058582 38.2293 -0.20182075 -0.097778805 27.345036
-24.34716 10.68359 -0.038433563 52.746353 -0.07641477 0.036486164 -0.002622718 -0.2290307
9.315283 -0.08612863 31.30823 0.008447785 -1.0072778 -0.11972847 -0.09930097 10.51627
00000000: bdd7 a5bd 5cb4 f9bd d8ab 1dc1 32d2 a1c1
00000010: 8539 69bc c6fa 7841 973a 9f41 9be6 aabd
00000020: 78a0 c7bd 129b 05c2 dc0e d4bd f1a3 fb41
00000030: 4f63 5f41 fd71 aabd bb75 d240 5e0a 13be
00000040: 6af5 7940 6d6a 1342 99f2 d2bd 1d05 3540
00000050: 560b 963e 1091 e541 c910 c53a f9a4 9041
00000060: 7a44 6bbc 3645 e5bd 410d 1fc2 148a 1542
00000070: 5e55 b141 5e9e 27be 3859 ffbd 5ff3 3942
00000080: 65c7 0342 6901 ec41 ca71 5bbf 9d70 e740
00000090: 3321 dac1 a5a1 0ebe 1c71 2c3d c569 cbc1
000000a0: b8f6 e7bd 4b84 ffbd c503 b741 62cf a241
000000b0: 2b8b 82bd b109 d9bd fe3a 0bc1 de06 20bc
000000c0: a333 6fc1 b071 afbd 2927 d4c1 cf21 8041
000000d0: 734e 1442 a9de 93bd e5a8 bb41 a2cd 8d41
000000e0: ac90 b941 ab7f 4dc0 ebad 24c1 f9b1 45bf
000000f0: 199d c0bc 4f29 b5bd aea3 14bf 76b5 c741
00000100: 0d9f 04be ca9d 893f 86fe b141 7610 c6c1
00000110: 2903 dc41 09a5 c7bd 3e0f a341 fd93 cd40
00000120: c11e f4c1 63f6 57c0 050e 963d de10 0dbe
00000130: 5418 26c2 2623 d341 4aa1 1bbe 4853 8d3c
00000140: a685 e2bd 44a5 c241 cc24 b1bd 4e90 e5ba
00000150: e83b 05be 3944 463e 2483 e73c 0ea4 acbd
00000160: b712 9a3b db72 9f41 63d2 0bc1 936d 2942
00000170: a607 b6bd 4529 0ec2 8b6d 2342 2d56 cabd
00000180: b05f 3e42 c26d d4bd bc94 ca41 e6d3 4242
00000190: 155c 4bbd fdd2 a741 af80 31bf 1fb5 60c0
000001a0: c5a8 3d41 c031 90bd eab4 4840 2e0a a5bd
000001b0: ceea 1842 19aa 4ebe 4140 c8bd a2c2 da41
000001c0: fcc6 c2c1 fcef 2a41 836c 1dbd 44fc 5242
000001d0: 597f 9cbd 8472 153d e8e1 2bbb 0687 6abe
000001e0: 660b 1541 3564 b0bd 4177 fa41 9468 0a3c
000001f0: 7bee 80bf 3334 f5bd 4f5e cbbd a442 2841

6.weight f4 [128, 128]
0.027603956 0.08653846 -0.18904145 -0.3086381 -0.011994737 0.23401555 -0.19006118 -0.027706305
0.07684771 -0.33102986 0.0052627507 -0.18373008 -0.20921877 -0.052489962 0.40988913 -0.105932765
-0.41610914 -0.03617058 -0.08062635 -0.19256932 0.023539718 0.061424524 -0.044280615 -0.5234526
-0.015161786 -0.038783967 0.010625678 0.40866888 0.08660214 -0.05792444 -0.087841876 0.073322736
0.039744284 0.12705895 -0.046556484 0.180589 -0.10412895 0.09552145 -0.009712312 -1.1964933
-0.024393355 -0.027295465 -0.77338964 -0.0072180396 -0.07053057 0.006964551 0.5308677 -0.101433806
0.13587533 0.049564574 0.13747856 0.120001115 -0.018013164 -0.07004232 -0.067749314 0.11258519
-0.364063 -0.82988197 -0.17685181 0.0399489 -0.010740742 -0.044128653 0.020909728 -0.647976
-0.04508151 -0.68564165 0.0929035 -0.14208761 0.15232824 -0.017393984 0.34987876 -0.110407434
-0.029347744 0.034249015 -0.17423813 -0.034117434 -0.27529383 -0.14134341 -0.04700791 -0.23837797
-0.078436136 0.28397858 0.039160028 -0.24481568 0.015068751 -0.52878857 -0.07650603 0.022888424
0.055919427 0.18692094 0.01788766 0.76566845 -0.10962525 0.0738838 -0.3260956 -0.025306411
-0.3994172 0.07031602 -0.16780867 0.19605352 0.05022618 0.025056692 -0.5925861 -0.124670856
0.18757057 -0.029693145 0.21313563 -0.016581684 -0.109007984 -0.03684508 -0.08716282 -0.015047527
0.08964239 -0.16191466 0.10002664 0.11174052 -0.09718285 0.06102393 0.045317523 -0.1009638
-0.4359483 -0.013275878 -0.03292961 0.06576247 -0.12927112 -0.009077889 0.08497624 -0.4074304
-0.13202988 0.0608913 -0.36455002 0.14641389 -0.013562467 -0.3648095 -0.30065352 -0.022150991
-0.032010656 -0.36680478 -0.058695965 0.44960287 -0.13091931 -0.020028325 -0.21686774 -0.0004333012
0.14792544 -0.23885834 -0.098605976 -0.37865683 0.12340497 0.3532816 -0.06467938 -0.077717036
0.03243836 0.03287517 0.25705498 -1.5331879 -0.08480309 0.051488083 0.032939248 0.5666398
-0.6462864 0.097470514 0.060403213 0.031859204 -0.42444035 -0.021066612 -0.011216824 -1.8357396
0.06779951 -0.083047174 0.96367353 -0.45877194 -0.06773875 -0.033625767 -0.19544728 -0.06880691
-0.47760114 0.15226983 -1.6187 -0.15186091 -3.8005435 -0.09791559 -1.5878103 -0.2714549
1.1164893 -0.17362984 1.009736 0.24465506 0.006876478 -0.08926945 0.011091494 -1.3964506
-0.09456964 0.32540727 0.041983742 -0.9317728 -1.3061421e-05 0.052953623 0.5652305 -0.008103708
0.39116114 -0.22463122 -0.124972954 0.07605643 0.29439366 -0.30146345 -0.016711228 -0.072477385
0.10619668 -0.5945163 0.02460058 -0.024737202 0.052883726 -0.41268057 -0.059966423 0.013520147
0.013561449 -0.70207596 0.35742918 0.48908922 0.04672863 -1.7483069 -1.3707284 0.029065201
-0.07504414 -0.0019714113 -0.41100958 -0.81882405 0.09148059 0.9569117 -0.24723996 0.44880956
0.26019326 -0.034137197 -0.31396088 -0.056166217 0.07056877 0.10029908 0.03657147 0.0479751
-0.2936229 0.6665231 -0.035471726 -0.5375689 -0.057226535 -0.0010957232 0.0075521674 -0.01344606
-0.08593899 -0.08953984 0.09441173 0.07193189 -0.2834937 0.030769816 0.022104599 -0.13594407
00000000: b121 e23c 133b b13d 1594 41be d005 9ebe
00000010: 9385 44bc c6a1 6f3e 669f 42be 55f8 e2bc
00000020: 5562 9d3d bf7c a9be 2773 ac3b bd23 3cbe
00000030: 723d 56be b7ff 56bd fddc d13e 47f3 d8bd
00000040: 420c d5be 9a27 14bd 6e1f a5bd e430 45be
00000050: 5ed6 c03c 4898 7b3d 975f 35bd fd00 06bf
00000060: 2469 78bc f0db 1ebd 5317 2e3c 0c3d d13e
00000070: 765c b13d 2d42 6dbd 71e6 b3bd 3b2a 963d
00000080: e7ca 223d be1b 023e 03b2 3ebd 53ec 383e
00000090: 8f41 d5bd c0a0 c33d 6420 1fbc b126 99bf
000000a0: 93d4 c7bc bd9a dfbc ddfc 45bf 4e85 ecbb
000000b0: 5572 90bd e336 e43b f2e6 073f 87bc cfbd
000000c0: e722 0b3e 3904 4b3d 2ec7 0c3e 25c3 f53d
000000d0: 5890 93bc 5972 8fbd 27c0 8abd 1093 e63d
000000e0: 7766 babe 2573 54bf a418 35be 75a1 233d
000000f0: f0f9 2fbc 3fc0 34bd e14a ab3c c1e1 25bf
00000100: 64a7 38bd 3686 2fbf 3144 be3d 6a7f 11be
00000110: effb 1b3e d47d 8ebc 4f23 b33e 4b1d e2bd
00000120: ae6a f0bc b248 0c3d 7b6b 32be b9be 0bbd
00000130: 50f3 8cbe 54bc 10be 5e8b 40bd 5b19 74be
00000140: 20a3 a0bd a465 913e 4466 203d f6b0 7abe
00000150: ece2 763c b05e 07bf 32af 9cbd 8180 bb3c
00000160: c50b 653d 3468 3f3e 2489 923c d902 443f
00000170: 3483 e0bd 6450 973d 01f6 a6be 644f cfbc
00000180: 6980 ccbe d801 903d 09d6 2bbe 41c2 483e
00000190: f8b9 4d3d b143 cd3c b9b3 17bf 6f53 ffbd
000001a0: 8012 403e 0a3f f3bc 3a40 5a3e 50d6 87bc
000001b0: 943f dfbd deea 16bd 6c82 b2bd e789 76bc
000001c0: 6e96 b73d f5cc 25be c4da cc3d 37d8 e43d
000001d0: cd07 c7bd 3af4 793d de9e 393d 1cc6 cebd
000001e0: 9e34 dfbe 1183 59bc 33e1 06bd 79ae 863d
000001f0: a65f 04be 6dbb 14bc 0608 ae3d b89a d0be
00000200: d732 07be 2869 793d 4da6 babe 86ed 153e
00000210: 1c35 5ebc 50c8 babe 42ef 99be ff75 b5bc
00000220: 9b1d 03bd d6cd bbbe 2e6b 70bd 5932 e63e
00000230: b60f 06be 7112 a4bc 9412 5ebe b42c e3b9
00000240: c479 173e 4897 74be eef1 c9bd 4fdf c1be
00000250: bfbb fc3d 53e1 b43e 9f76 84bd 1c2a 9fbd
00000260: 16de 043d 1da8 063d b69c 833e 803f c4bf
00000270: 3ead adbd 2be5 523d 4eeb 063d 4e0f 113f
00000280: 0773 25bf 9f9e c73d 5c69 773d cc7e 023d
00000290: 3f50 d9be e393 acbc c5c6 37bc 84f9 eabf
000002a0: 78da 8a3d a314 aabd 4fb3 763f 28e4 eabe
000002b0: 9dba 8abd 2cbb 09bd 5523 48be a3ea 8cbd
000002c0: 2388 f4be 9fec 1b3e 9031 cfbf 6d81 1bbe
000002d0: 1b3c 73c0 f887 c8bd 5e3d cbbf 23fc 8abe
000002e0: 1fe9 8e3f 05cc 31be 073f 813f db86 7a3e
000002f0: 1454 e13b e7d2 b6bd 19b9 353c e5be b2bf
00000300: baad c1bd c89b a63e 25f7 2b3d aa88 6ebf
00000310: 6022 5bb7 e6e5 583d f2b2 103f 6ac5 04bc
00000320: 4646 c83e ba05 66be d2f1 ffbd 79c3 9b3d
00000330: c4ba 963e 6b59 9abe fce5 88bc 066f 94bd
00000340: a57d d93d 3832 18bf 2887 c93c aca5 cabc
00000350: 9b9c 583d de4a d3be 5a9f 75bd 9b83 5d3c
00000360: d730 5e3c 40bb 33bf f500 b73e e769 fa3e
00000370: 8566 3f3d 85c8 dfbf 0774 afbf 251a ee3c
00000380: beb0 99bd cb32 01bb d96f d2be 749e 51bf
00000390: 2d5a bb3d 2af8 743f 792c 7dbe 5eca e53e
000003a0: 0d38 853e 72d3 0bbd 7bbf a0be 8c0e 66bd
000003b0: 5c86 903d 9b69 cd3d f7cb 153d 8a81 443d
000003c0: be55 96be 42a1 2a3f cd4a 11bd 1e9e 09bf
000003d0: 5f66 6abd 5f9e 8fba 2c78 f73b dd4c 5cbc
000003e0: c800 b0bd aa60 b7bd f05a c13d 0751 933d
000003f0: 1626 91be fb10 fc3c b414 b53c ec34 0bbe

6.bias f4 [128]
26.293787 49.278202 39.362164 -0.14350215 0.0011166879 -0.12992044 10.767332 -22.896217
-40.450043 43.985622 21.600584 18.817944 -0.01801686 16.238632 -1.3510345 -0.12127091
22.970146 19.409836 -0.068156354 -0.010785128 -0.01816809 37.332645 24.737753 17.82905
-26.2028 29.424042 23.851946 27.726536 -0.02420372 30.097866 25.534351 -0.10196862
25.961254 0.02017466 21.625084 -0.09078759 39.11304 -0.007673967 22.483627 -31.498175
-28.013294 28.572918 15.979282 -0.057397947 25.595806 17.90667 0.030261168 12.154842
-19.75908 0.010519043 0.03387226 21.149807 -0.033532288 5.866225 -32.766006 -5.649605
46.43646 9.516651 -0.12742783 -0.008212168 29.477457 0.0037414187 -35.041985 -0.04895923
0.0067279143 0.022172218 23.708675 57.11778 -4.7093396 -0.024515534 10.051185 -0.047421597
22.45819 -0.058808874 18.650942 -0.0040974775 17.06418 -0.11846744 0.022685964 39.33916
18.000248 -0.024285357 32.569744 -1.8331374 31.685375 0.06693465 16.181406 -0.09426561
0.0352874 23.917612 -0.011240726 43.25221 39.291718 -0.10757983 4.5745687 24.537643
-24.554527 0.014968371 21.455008 36.354607 15.5838 0.5942773 -0.11322774 -0.047843393
-0.0021867265 14.881155 26.178846 -0.040272262 26.545158 -0.036556143 28.211126 -0.11634546
-0.026861137 25.119225 -53.402428 39.679554 -0.059727095 -0.07419837 23.000101 -0.0032620975
-0.04911572 -0.12553893 33.97048 30.891619 51.92809 10.315007 -0.031985253 12.746158
00000000: ad59 d241 e11c 4542 db72 1d42 3af2 12be
00000010: d45d 923a dd09 05be fe46 2c41 742b b7c1
00000020: d8cc 21c2 47f1 2f42 ffcd ac41 268b 9641
00000030: 1898 93bc b8e8 8141 b3ee acbf e25c f8bd
00000040: dcc2 b741 5847 9b41 8f95 8bbd 1bb4 30bc
00000050: 3fd5 94bc a154 1542 ebe6 c541 e5a1 8e41
00000060: 569f d1c1 7064 eb41 c9d0 be41 f2cf dd41
00000070: e146 c6bc 6ec8 f041 5a46 cc41 edd4 d0bd
00000080: a6b0 cf41 5445 a53c 2c00 ad41 d8ee b9bd
00000090: c173 1c42 e775 fbbb 78de b341 43fc fbc1
000000a0: 3a1b e0c1 5695 e441 24ab 7f41 1c1a 6bbd
000000b0: 36c4 cc41 dc40 8f41 45e6 f73c 3c7a 4241
000000c0: 9912 9ec1 1058 2c3c a4bd 0a3d ce32 a941
000000d0: 2759 09bd 1db8 bb40 6410 03c2 90c9 b4c0
000000e0: efbe 3942 3444 1841 717c 02be 548c 06bc
000000f0: d5d1 eb41 9732 753b fe2a 0cc2 7989 48bd
00000100: d675 dc3b 83a2 b53c 5eab bd41 9b78 6442
00000110: e9b2 96c0 cdd4 c8bc a7d1 2041 263d 42bd
00000120: 60aa b341 93e1 70bd 2135 9541 2244 86bb
00000130: 7183 8841 0f9f f2bd ead7 b93c 4d5b 1d42
00000140: 8200 9041 16f2 c6bc 6b47 0242 3fa4 eabf
00000150: a67b fd41 0915 893d 8573 8141 540e c1bd
00000160: 8589 103d 4557 bf41 062b 38bc 4302 2d42
00000170: b82a 1d42 d052 dcbd de62 9240 184d c441
00000180: ac6f c4c1 e63d 753c dba3 ab41 1e6b 1142
00000190: 3f57 7941 8f22 183f f2e3 e7bd 6ff7 43bd
000001a0: 2f4f 0fbb 3619 6e41 476e d141 87f4 24bd
000001b0: 7c5c d441 e5bb 15bd 63b0 e141 8746 eebd
000001c0: e30b dcbc 2cf4 c841 169c 55c2 ddb7 1e42
000001d0: 66a4 74bd 51f5 97bd 3500 b841 eac8 55bb
000001e0: 912d 49bd 478d 00be c6e1 0742 0922 f741
000001f0: 5db6 4f42 450a 2541 f802 03bd 43f0 4b41

8.weight f4 [128, 128]
-0.014542685 -0.11073884 -0.057368673 0.032003365 -0.032398723 0.021846745 -0.049983665 -0.08168875
-0.05123674 -0.05834918 -0.10157751 0.055249743 0.039016265 0.062575504 -0.06688756 0.06001685
-0.11975658 -0.015073518 0.03960336 0.016628675 -0.040822297 -0.0792569 -0.069511555 0.03958745
0.002393547 -0.05709179 -0.06817311 -0.0517197 0.038056865 0.032967858 0.012266445 0.0809446
-0.073653385 0.028257463 0.01887154 0.079514 -0.046219576 0.08025943 -0.09585688 -0.124605276
-2.0521178e-05 0.009936956 -0.0035759816 -0.066656694 0.047757026 -0.12346818 0.07954478 -0.042689368
0.018236011 0.042117987 0.058241654 -0.035758868 -0.08617133 -0.1189867 -0.09090258 -0.07635297
-0.06554446 0.0063650776 -0.07983714 -0.06284054 -0.08465716 -0.020150788 -0.08068083 -0.07627679
-0.08394713 -0.07773063 -0.08282279 -0.08875178 -0.10121458 -0.08055684 -0.053203564 0.09285245
0.015995357 -0.012010208 -0.08031347 0.016643684 -0.116358735 -0.061714366 0.015865525 -0.028844401
-0.08349888 -0.0012739307 -0.060226258 -0.064731255 -0.025406417 0.046005644 -0.08818544 -0.0055944105
-0.07623378 -0.09059225 -0.08110865 -0.106163695 -0.12277093 -0.00219191 -0.046069514 -0.028360816
0.020762505 0.023436004 -0.05364433 0.018772146 -0.08794315 -0.014303425 0.024331449 0.08355447
0.076519415 -0.14615546 -0.036493156 0.076977976 -0.042873695 -0.0845227 0.018715292 -0.06420959
-0.060158018 -0.120753564 0.044649385 0.032658026 -0.026399901 0.029917339 -0.014036698 -0.087113775
-0.045261968 -0.036748122 -0.018222244 -0.07349694 -0.006169119 -0.09897496 -0.039816357 -0.020881455
-0.0024056386 -0.337845 0.01095771 0.0589485 0.050134655 0.028965712 -1.2594652 -0.61312026
0.15327603 -0.10722365 0.17164846 0.12827918 -0.07054269 0.10398895 -0.39422086 -0.022398246
-0.3410542 0.021498293 -0.0019191653 -0.0134391375 0.015144359 -0.09152811 -0.2790662 0.05657935
-0.1746453 0.27373433 -0.108201355 0.2662442 0.050009716 -0.0819711 0.05941108 -0.03487756
-0.10375856 -0.028791737 -0.016946342 -0.05176812 -0.080963686 0.05829099 -0.14592864 -0.10205587
0.1302116 -0.028182585 0.39406455 -0.0036993222 -0.07376021 0.16150519 -0.0040362603 0.12911798
0.3555232 0.08750422 0.007186453 -0.04500328 0.048030198 -0.003518525 -0.42111075 0.21570733
-0.21880992 -0.078803465 -0.036413006 -0.049248468 0.029633604 0.04673809 -0.016265567 0.10033923
0.04623547 0.11856976 0.031071043 -0.05183442 -0.45434067 -0.0068363487 0.14479288 0.016806327
-0.088439204 -0.03801739 0.1525667 0.10502967 0.1324117 -0.043227833 -0.03996355 -0.16853514
0.043639127 0.055634264 0.016574912 0.23832701 0.006586922 -0.042138856 0.103828534 0.011511418
0.039545298 -0.116096534 0.028525932 0.045913395 0.08325694 -0.054857686 0.15763077 0.04630441
-0.13142936 0.013016906 0.07862042 0.05823238 -0.009917209 -0.03289884 0.06971722 -0.010700355
-0.10458833 0.035783052 0.03150362 0.018116618 0.085666604 -0.04659085 -0.08857876 0.047285806
0.066390626 0.13478406 0.13343573 -0.17657356 0.053719807 0.02842853 -0.050749518 0.041606527
-0.095693044 0.061923392 0.010098375 0.05614732 -0.015696693 -0.46789962 -0.0036836953 0.063834585
00000000: 7144 6ebc 0ccb e2bd 6afb 6abd f615 033d
00000010: 86b4 04bd f2f7 b23c acbb 4cbd 6e4c a7bd
00000020: 9edd 51bd 8dff 6ebd df07 d0bd 8e4d 623d
00000030: 85cf 1f3d 9627 803d 58fc 88bd 3ad4 753d
00000040: f042 f5bd ebf6 76bc 2237 223d dc38 883c
00000050: 4835 27bd 7151 a2bd 135c 8ebd 7326 223d
00000060: 0edd 1c3b 15d9 69bd 589e 8bbd 09d8 53bd
00000070: 84e1 1b3d 4e09 073d 33f9 483c 48c6 a53d
00000080: 96d7 96bd 327c e73c 7d98 9a3c 3cd8 a23d
00000090: bd50 3dbd 0e5f a43d 9d50 c4bd 0d31 ffbd
000000a0: e524 acb7 9dce 223c 045b 6abb 4e83 88bd
000000b0: df9c 433d e3dc fcbd 60e8 a23d 0cdb 2ebd
000000c0: b063 953c e983 2c3d cd8e 6e3d e477 12bd
000000d0: 987a b0bd 4daf f3bd 222b babd f25e 9cbd
000000e0: 2d3c 86bd 2492 d03b a881 a3bd 8bb2 80bd
000000f0: bc60 adbd 4413 a5bc fe3b a5bd 0137 9cbd
00000100: 79ec abbd 3d31 9fbd ff9e a9bd 7ec3 b5bd
00000110: 9749 cfbd fcfa a4bd fbeb 59bd 6d29 be3d
00000120: b208 833c 77c6 44bc 637b a4bd 5658 883c
00000130: 7d4d eebd 34c8 7cbd 6bf8 813c 184b ecbc
00000140: 7601 abbd 05fa a6ba cfaf 76bd d291 84bd
00000150: 1e21 d0bc 6a70 3c3d 919a b4bd 5151 b7bb
00000160: 7520 9cbd 6e88 b9bd 4b1c a6bd 5a6c d9bd
00000170: 536f fbbd 26a6 0fbb 63b3 3cbd f154 e8bc
00000180: 2116 aa3c ddfc bf3c 28ba 5bbd 0bc8 993c
00000190: 8a1b b4bd ea58 6abc bf52 c73c 9b1e ab3d
000001a0: 36b6 9c3d c7a9 15be d979 15bd a1a6 9d3d
000001b0: 549c 2fbd 3d1a adbd d050 993c 5180 83bd
000001c0: 4168 76bd a54d f7bd 46e2 363d 6cc4 053d
000001d0: 9b44 d8bc 3515 f53c 2efa 65bc b568 b2bd
000001e0: 9d64 39bd 3385 16bd d146 95bc 9085 96bd
000001f0: 5226 cabb 62b3 cabd 7a16 23bd 960f abbc
00000200: eba7 1dbb 05fa acbe f887 333c fb73 713d
00000210: ff59 4d3d 8049 ed3c 2836 a1bf 73f5 1cbf
00000220: 64f4 1c3e 1398 dbbd 9dc4 2f3e 9e5b 033e
00000230: b078 90bd 29f8 d43d 51d7 c9be 877c b7bc
00000240: a89e aebe 301d b03c 808c fbba d42f 5cbc
00000250: 0c20 783c 1773 bbbd c4e1 8ebe c0bf 673d
00000260: 38d6 32be e826 8c3e ac98 ddbd 2951 883e
00000270: fdd6 4c3d 77e0 a7bd 0859 733d c6db 0ebd
00000280: 5e7f d4bd a6dc ebbc 0ed3 8abc cf0a 54bd
00000290: 4ad0 a5bd 88c2 6e3d 516e 15be ab02 d1bd
000002a0: 3156 053e 2adf e6bc d4c2 c93e 5470 72bb
000002b0: 980f 97bd 9e61 253e 9b42 84bb 8137 043e
000002c0: 2307 b63e 6a35 b33d 567c eb3b 5c55 38bd
000002d0: 50bb 443d 0e97 66bb d49b d7be 62e2 5c3e
000002e0: b50f 60be b663 a1bd ce25 15bd c3b8 49bd
000002f0: 2cc2 f23c 7170 3f3d 5e3f 85bc a77e cd3d
00000300: 6761 3d3d b4d4 f23d b388 fe3c 5450 54bd
00000310: 579f e8be 7303 e0bb 9644 143e 6cad 893c
00000320: 9d1f b5bd 1fb8 1bbd 723a 1c3e cc19 d73d
00000330: ef96 073e ab0f 31bd d2b0 23bd 7a94 2cbe
00000340: f1be 323d c1e0 633d 1cc8 873c ff0b 743e
00000350: 1bd7 d73b cb99 2cbd 0ea4 d43d 639a 3c3c
00000360: 40fa 213d 05c4 edbd 37af e93c af0f 3c3d
00000370: 9d82 aa3d 74b2 60bd f669 213e b1a9 3d3d
00000380: 6b95 06be dc44 553c be03 a13d 1385 6e3d
00000390: ca7b 22bc efc0 06bd e7c7 8e3d 8b50 2fbc
000003a0: 6832 d6bd 4091 123d f109 013d 4d69 943c
000003b0: f971 af3d 0cd6 3ebd c868 b5bd c3ae 413d
000003c0: cff7 873d d504 0a3e 60a3 083e b3cf 34be
000003d0: 4d09 5c3d f3e2 e83c bade 4fbd 9b6b 2a3d
000003e0: b7fa c3bd 62a3 7d3d a873 253c bbfa 653d
000003f0: 5a96 80bc 8a90 efbe 276a 71bb b5bb 823d

8.bias f4 [128]
0.008867351 20.494164 -0.07965712 -22.067186 -5.360735 9.392157 39.55499 34.766254
-0.025749693 28.934877 0.008562734 16.648434 -0.08381316 -0.11165028 23.688517 -0.12188192
13.299512 -0.10490279 -0.08035636 24.305883 -0.06464569 -0.095791675 41.41149 12.688181
0.036162503 -0.19099708 34.648186 27.095266 24.68057 15.132616 -0.055303734 -0.06151766
19.523565 -0.03514877 24.342056 -0.08599529 -0.11340987 17.938704 23.601849 -0.113979466
-0.020258725 21.014978 27.942308 24.545834 17.115812 -0.0249431 5.1097407 13.7462635
33.051373 -0.12994212 -0.14194547 23.765945 -8.605085 21.683504 -0.083266266 21.405731
0.02013376 -0.12143495 4.477665 -0.01007984 22.52226 21.231562 25.794199 0.027885528
2.7459264 17.041666 -0.014909698 28.97728 -0.012134389 39.52146 23.757517 -0.12859756
12.537974 21.038595 30.596905 0.022138378 -0.014027622 38.153263 0.10906785 -0.11311232
-0.120710246 7.454588 50.84689 -0.07177551 27.2686 -1.5003904 23.81222 17.193325
18.494503 19.321712 25.868782 -0.06992029 -0.055836685 31.499485 -0.015717864 -0.03111302
-0.07679722 22.43033 1.3606243 25.140543 -0.059035487 19.761002 30.685118 0.020480407
-0.23620671 0.028692322 27.62438 4.405307 28.06543 -0.015184779 -13.820326 21.565247
7.8970356 19.87475 16.938375 -0.02109534 9.180143 0.025352085 -0.068988666 20.565863
-0.0006178585 -22.291183 23.498161 27.546926 -0.6113533 15.529421 -0.05246567 16.890087
00000000: 5e48 113c 0cf4 a341 4623 a3bd 9989 b0c1
00000010: 248b abc0 4646 1641 4f38 1e42 a510 0b42
00000020: 05f1 d2bc a17a e741 b64a 0c3c fe2f 8541
00000030: 3ca6 abbd e7a8 e4bd 1582 bd41 3a9d f9bd
00000040: cdca 5441 46d7 d6bd e091 a4bd 7372 c241
00000050: f664 84bd 6d2e c4bd 5ea5 2542 ca02 4b41
00000060: 221f 143d bd94 43be be97 0a42 1bc3 d841
00000070: cf71 c541 321f 7241 2b86 62bd f1f9 7bbd
00000080: 4330 9c41 28f8 0fbd 88bc c241 4c1e b0bd
00000090: 6f43 e8bd 7782 8f41 96d0 bc41 116e e9bd
000000a0: a0f5 a5bc ad1e a841 d989 df41 de5d c441
000000b0: 2fed 8841 7955 ccbc ff82 a340 b2f0 5b41
000000c0: 9b34 0442 8c0f 05be 275a 11be a820 be41
000000d0: 6eae 09c1 d177 ad41 8187 aabd f03e ab41
000000e0: 8eef a43c e3b2 f8bd 0849 8f40 ea25 25bc
000000f0: 972d b441 3dda a941 855a ce41 3170 e43c
00000100: 42bd 2f40 5555 8841 ce47 74bc 78d1 e741
00000110: 51cf 46bc fa15 1e42 650f be41 14af 03be
00000120: 8b9b 4841 0b4f a841 76c6 f441 8b5b b53c
00000130: 1cd4 65bc f19c 1842 f75e df3d 6fa7 e7bd
00000140: ef36 f7bd fc8b ee40 3763 4b42 0aff 92bd
00000150: 1826 da41 cb0c c0bf 6d7f be41 ee8b 8941
00000160: bef4 9341 de92 9a41 44f3 ce41 5e32 8fbd
00000170: 02b5 64bd f2fe fb41 c0c2 80bc bbe0 febc
00000180: dc47 9dbd 5171 b341 f028 ae3f d51f c941
00000190: 32cf 71bd 8816 9e41 1f7b f541 87c6 a73c
000001a0: 2ce0 71be 290c eb3c bbfe dc41 46f8 8c40
000001b0: 0086 e041 94c9 78bc 0e20 5dc1 a085 ac41
000001c0: 84b4 fc40 7dff 9e41 cb81 8741 22d0 acbc
000001d0: dee1 1241 2daf cf3c ee49 8dbd e386 a441
000001e0: c8f7 21ba 5854 b2c1 3cfc bb41 1b60 dc41
000001f0: a681 1cbf 8278 7841 3ee6 56bd e61e 8741
