my_model_64.pth (torch, 90814 bytes, 14 tensors)

0.weight f4 [64, 6]
0	0x3e620bd1	0.2207482
1	0x3f1751f3	0.5910942
2	0x3e20cfd0	0.15704274
3	0x41a71efd	20.890131
4	0xbe49dcd8	-0.19713151
5	0x40d3271e	6.598525
6	0xbe8940ad	-0.26807156
7	0x3e9f47f5	0.31109586
8	0xc1a665a5	-20.799631
9	0xc01790b9	-2.3682082
10	0x3f2142cb	0.62992543
11	0xc05033d3	-3.253163
12	0x3cbe42e6	0.023225259
13	0x3f46d7a3	0.77672786
14	0xc18f4cc4	-17.912483
15	0x408cc889	4.3994794
16	0x3e3247b2	0.17410162
17	0x3fda5270	1.7056408
18	0xbe432922	-0.1905866
19	0x3dd51e5b	0.104061805
20	0xbe409bf6	-0.18809494
21	0xbd441a17	-0.047876444
22	0xbe29cb00	-0.16581345
23	0x3e8aa8ee	0.27082008
24	0xbea4ff23	-0.32225904
25	0xbe40b941	-0.18820669
26	0xbdec1767	-0.11527901
27	0xbe7b5c16	-0.24546847
28	0x3d1dd378	0.03853175
29	0xbece72a2	-0.40321833
30	0x3e56d466	0.20979461
31	0xbe9d485a	-0.30719262
32	0xc0206058	-2.5058804
33	0x41c13598	24.151169
34	0xbd794ab2	-0.06086225
35	0x40cf1963	6.471849
36	0x3c29e977	0.010370604
37	0x3f74ac75	0.9557565
38	0xc0c5b1e6	-6.177966
39	0x41423558	12.138023
40	0x3e19f481	0.15034677
41	0x40dd5f1e	6.917861
42	0x3db03a76	0.086049005
43	0x3ed0a07d	0.40747443
44	0xbf3f90ec	-0.7483051
45	0xc119704c	-9.589916
46	0x3c9539b3	0.01821599
47	0xc0fd617f	-7.9181514
48	0xbd292ee2	-0.041304477
49	0xbef54ba7	-0.4790928
50	0xc0ad1567	-5.4088626
51	0x41956474	18.67405
52	0x3d4250c2	0.047440298
53	0x40c891ee	6.2678137
54	0xbb3290c8	-0.002724694
55	0x3f6db4f8	0.9285426
56	0x40eb3ad6	7.350932
57	0xc10f936b	-8.973491
58	0x3f5b2e60	0.8561764
59	0xc10231c9	-8.137155
60	0x3d5a7665	0.053335566
61	0xbf106248	-0.56399965
62	0x41416958	12.088219
63	0x414f9703	12.974368
64	0x3e80b79c	0.25140083
65	0x40ebc21c	7.367445
66	0xbe02c44a	-0.12770191
67	0xbfa6b631	-1.302435
68	0xc107f05d	-8.496182
69	0x4104b2d3	8.293658
70	0x3ed371b4	0.41297686
71	0x40ae170c	5.4403133
72	0x3e3cd0e9	0.18439068
73	0xc0be690c	-5.950323
74	0x410135ad	8.075604
75	0xc1553246	-13.324774
76	0xbfcf4c9e	-1.6195257
77	0x40526cf1	3.2878993
78	0x3d1121aa	0.035432495
79	0x3f782048	0.9692426
80	0x401a64a1	2.412392
81	0xc0ec4e73	-7.3845763
82	0xbd5cc27a	-0.053896405
83	0xc14a71d9	-12.652795
84	0x3d7d0e33	0.06178112
85	0xc140c3e7	-12.047828
86	0x40ffd54f	7.9947886
87	0xc202f06a	-32.73478
88	0xc128238c	-10.508678
89	0x40a5e53a	5.1842318
90	0x3d1a46a1	0.037665013
91	0xc0a26a89	-5.075505
92	0x40eb7572	7.3580866
93	0xc0d34c38	-6.603054
94	0xbf90d223	-1.1314129
95	0x40c46bf5	6.1381783
96	0xbceaebb0	-0.028676838
97	0xbe653992	-0.22385243
98	0xc16d6a75	-14.8384905
99	0x3ec682be	0.38771623
100	0xbf101a1d	-0.56289846
101	0x40b4b3d3	5.646951
102	0xbd5cb78e	-0.05388599
103	0xbe97ba1a	-0.29634172
104	0x3c1ce54e	0.009576155
105	0xbe8ec7a3	-0.27886686
106	0xbeb155a4	-0.3463565
107	0xbe6633d4	-0.22480708
108	0xbed71aae	-0.42012542
109	0xbea4adf7	-0.32163975
110	0x3eb45516	0.35221165
111	0x3c7e0f33	0.015506553
112	0x3d834d8c	0.06411275
113	0xbed1d246	-0.40980738
114	0xbe8947ea	-0.2681268
115	0xbe0b262e	-0.13588783
116	0x3d82bda0	0.06383824
117	0xbeb7ec85	-0.35922638
118	0xbe341ff7	-0.17590319
119	0xbe7a456b	-0.24440543
120	0xbbe6c339	-0.0070423153
121	0xbe256b48	-0.16154206
122	0xbd1fdb24	-0.03902735
123	0xbe918f16	-0.28429478
124	0xbe9345b4	-0.28764117
125	0xbe7b7aad	-0.24558516
126	0xbeb106ea	-0.34575588
127	0xbf0d624c	-0.55228114
128	0xc05909be	-3.3912196
129	0xbf783492	-0.96955216
130	0x3de04a40	0.10951662
131	0xbff3863e	-1.9025342
132	0xbeb1000a	-0.34570342
133	0x3e90a6c0	0.2825222
134	0xbde60be9	-0.112327404
135	0xbe203f7f	-0.15649222
136	0xbead8102	-0.33887488
137	0xbecfcd75	-0.4058644
138	0x3d5335b3	0.051564883
139	0xbf3678fc	-0.7127836
140	0x4100e2ab	8.055339
141	0xc0bb5337	-5.853908
142	0x3e9eedb9	0.31040743
143	0xc11a6c5f	-9.651458
144	0x3cd1ab9d	0.025594527
145	0x3eda25c8	0.4260695
146	0x4052a66f	3.2914083
147	0xc07bc092	-3.9336286
148	0x3e8e5b13	0.2780386
149	0xc178d9fb	-15.553218
150	0x3d8ee0ae	0.06976448
151	0xbea58936	-0.32331246
152	0x3fb69396	1.426379
153	0xc1205baa	-10.022379
154	0x3ee7b411	0.45254567
155	0xc11ea7f1	-9.916001
156	0xbd13cee0	-0.036085963
157	0xbc586cdf	-0.013209551
158	0xc0a0e276	-5.027644
159	0xc08bdb10	-4.370491
160	0x3c058caa	0.008151213
161	0xc0ae6568	-5.4498787
162	0xbca4ca75	-0.02011607
163	0xbfc6d583	-1.5533909
164	0xc039693e	-2.8970485
165	0x41684407	14.516608
166	0x3eed58d6	0.4635684
167	0x40a41ada	5.128278
168	0xbcacd22c	-0.021096312
169	0xbf472c41	-0.778019
170	0x411f1257	9.9419775
171	0x41811ef1	16.140108
172	0x3e8c6e4e	0.27427906
173	0x40cadad5	6.339213
174	0xbf6a78cc	-0.9159057
175	0xbe08d1f5	-0.13361342
176	0xc0b8b35b	-5.771894
177	0xbfb6a772	-1.426985
178	0x3ea4833d	0.32131377
179	0xc0ed2d2b	-7.4117637
180	0x3d75c15f	0.059998866
181	0x3d5f8c59	0.054577205
182	0x402950e6	2.6455626
183	0xc142c9de	-12.174284
184	0x3d2371fc	0.039903626
185	0xc1150644	-9.31403
186	0x3c2a00ea	0.0103761945
187	0xbf736942	-0.95082486
188	0xc115e55a	-9.368494
189	0x41872ddc	16.897392
190	0xbd9411dd	-0.0722997
191	0x40b6986c	5.706106
192	0xbce48191	-0.027893813
193	0x3fda6ba6	1.7064102
194	0xc13e35a7	-11.888099
195	0x400fa4de	2.2444377
196	0x3e61de73	0.22057514
197	0x40c1b0f5	6.052851
198	0x3d09f11d	0.03367721
199	0xbd8cdf5c	-0.0687854
200	0x3f9a7c03	1.2069095
201	0xc0ea3c81	-7.3198857
202	0x3d73fbfe	0.05956649
203	0xc13b5484	-11.708134
204	0xbd9a5711	-0.07536138
205	0xbe99545f	-0.29947183
206	0xbe9c229f	-0.30495164
207	0xbed72526	-0.4202053
208	0xbe3ed3b2	-0.18635443
209	0x3da9e022	0.08294703
210	0x3c7b5d67	0.015342093
211	0x3f9300f3	1.1484665
212	0xc0ca227e	-6.3167105
213	0x419cbafb	19.5913
214	0xbe515121	-0.20441104
215	0x40dbbd87	6.8668857
216	0x3d9567ac	0.072951645
217	0x3f03c35e	0.5146998
218	0xc0a75d89	-5.230168
219	0x412c31c1	10.762147
220	0x3db928f7	0.090410165
221	0x40f2bffc	7.5859356
222	0xbeed79c7	-0.4638197
223	0xbe84ba49	-0.25923374
224	0xc0947dce	-4.640357
225	0xbf828df3	-1.019957
226	0x3dced773	0.100996874
227	0xc0f83fb9	-7.7577786
228	0xbf12c44e	-0.5733079
229	0xbeeaa080	-0.45825577
230	0xbed09465	-0.40738216
231	0x3e555f92	0.20837238
232	0x3e0efde4	0.13964039
233	0xc040aecb	-3.0106685
234	0x3bbcbe49	0.0057599884
235	0xbfa5876f	-1.2931956
236	0x40128cbb	2.2898395
237	0x416a4ca5	14.643712
238	0xbf209d5a	-0.627401
239	0x40a89ef9	5.269406
240	0x3daa66c5	0.08320383
241	0xbfc36a12	-1.5266745
242	0xc1104976	-9.017935
243	0xc1055142	-8.332338
244	0xbe812fe9	-0.25231865
245	0xc05b1cc0	-3.4236298
246	0xbe889439	-0.26675585
247	0x3e0aaba4	0.13542038
248	0xbdf87bd2	-0.12132992
249	0x3e8109fc	0.2520293
250	0xbe061ce7	-0.13096963
251	0xbe995520	-0.29947758
252	0x3cd417fc	0.025890343
253	0xbe7ebc62	-0.2487655
254	0xc237f03d	-45.984608
255	0xc1a92711	-21.144075

0.bias f4 [64]
0	0x4184496b	16.535849
1	0xc0c0f57a	-6.0299654
2	0xc2a1cd30	-80.90076
3	0xbe1fad37	-0.1559342
4	0x3e73d3a3	0.23811202
5	0x40e4db1b	7.1517463
6	0xc1bca737	-23.581648
7	0xc2215604	-40.334
8	0xc1333780	-11.20105
9	0x404b89c8	3.1802845
10	0x427af595	62.739826
11	0xc1bf8e3a	-23.944447
12	0x4224a70f	41.163143
13	0xc1d051c0	-26.039917
14	0x427cffe2	63.249886
15	0x42743612	61.052803
16	0xc1ba7a5b	-23.309744
17	0x3e8d2ae0	0.27571774
18	0xbceef8dd	-0.029171402
19	0x3c96e474	0.018419482
20	0xbde3cd47	-0.11123138
21	0xbfd5451d	-1.6661717
22	0xbec4891a	-0.3838585
23	0x4195f270	18.743378
24	0xc1772506	-15.446539
25	0xc1ea895d	-29.317072
26	0xc2066863	-33.60194
27	0x40b4336d	5.6312776
28	0x4278f58e	62.2398
29	0xbfe23434	-1.7672181
30	0xc1a3148f	-20.385038
31	0xc2089c46	-34.15261
32	0xc201c573	-32.44282
33	0xc1daae65	-27.335154
34	0xbea7944f	-0.32730338
35	0xc1a61a41	-20.76282
36	0xc1770db7	-15.440848
37	0xbfe6e11d	-1.8037449
38	0xbeb98b34	-0.36239016
39	0x41f29c48	30.32631
40	0xc27672d5	-61.61214
41	0x3d87a23c	0.066227406
42	0xc28509d9	-66.51923
43	0xc1cf3d5d	-25.904963
44	0xc1778353	-15.469562
45	0xc1f52377	-30.642317
46	0x3e451f2a	0.1925017
47	0x41243e00	10.265137
48	0x4290ca7b	72.39547
49	0x412c2bd0	10.760696
50	0xc2118e83	-36.38917
51	0x429983c8	76.757385
52	0xbf7e07e5	-0.99230796
53	0x4243ec7e	48.98095
54	0xbda539a3	-0.08067634
55	0xc2a0b05a	-80.34444
56	0xbdfcaa74	-0.12337199
57	0xbfc2ba53	-1.5213112
58	0xbfec8886	-1.8479164
59	0x3ea329d1	0.3186784
60	0xc206db55	-33.71419
61	0x4153ffbe	13.249937
62	0xbeaa9778	-0.33318686
63	0x429d12b8	78.53656

2.weight f4 [64, 64]
0	0x3d11d40d	0.035602618
1	0xbd573052	-0.052536316
2	0xbd8f2b09	-0.0699063
3	0xbdfc72c6	-0.12326579
4	0xbdd18fb6	-0.10232489
5	0xbd357413	-0.04430015
6	0x3c633bd9	0.013869249
7	0xbcbf8e8a	-0.023383398
8	0xbdd15663	-0.10221555
9	0x3d7e3444	0.062061563
10	0x3ccbd692	0.024882589
11	0xbe0fddb5	-0.14049418
12	0xbd7c2b5a	-0.06156478
13	0xbcbc9f27	-0.023025109
14	0x3cbac6e8	0.022799924
15	0xbdc7e667	-0.09760743
16	0xbc77dee1	-0.015128822
17	0xbd82c924	-0.06386021
18	0xbdd4b882	-0.103867546
19	0xbd8bd440	-0.06827593
20	0x3de69e2b	0.11260637
21	0xbe27dba6	-0.16392383
22	0x3de53e78	0.111935556
23	0x3b2fef43	0.0026845492
24	0x3cbd77a7	0.023128344
25	0xbda28b82	-0.07936765
26	0xbdd47bb4	-0.10375157
27	0x3d67dabf	0.056605097
28	0xbe067871	-0.13131882
29	0xbf035035	-0.5129426
30	0xbdd065a7	-0.10175639
31	0xbd0bdb76	-0.03414484
32	0x3b788e74	0.0037926706
33	0xbdcb35db	-0.099223815
34	0xbd96ac48	-0.07357079
35	0xbd28acff	-0.041180607
36	0xbc578fdb	-0.013156856
37	0xbe917d4c	-0.28415906
38	0x3d578ec7	0.052626397
39	0xbdc69211	-0.09695829
40	0x3db04860	0.086075544
41	0x3df90848	0.12159783
42	0xbb93d1b4	-0.0045110825
43	0xbbf383e5	-0.0074314945
44	0xbcc5aa47	-0.024129046
45	0xbd356cc1	-0.04429317
46	0xbc14f4c0	-0.009091556
47	0x3ae12f00	0.0017180145
48	0xbcc04d2e	-0.023474302
49	0x3d49c9c9	0.049264703
50	0x3ddf3b41	0.10899974
51	0xbd4f5064	-0.050613776
52	0x3e1b8838	0.15188682
53	0xbd6aaaa3	-0.057291638
54	0x3cae1ea0	0.021254838
55	0x3d13a6a7	0.036047604
56	0x3dc82fac	0.09774718
57	0xbe548937	-0.20755468
58	0xbed1b5b6	-0.40958947
59	0xbd89657c	-0.0670881
60	0xbd567f8a	-0.052367724
61	0xbdaa7b81	-0.08324338
62	0xbc7f8f54	-0.015598137
63	0xbe1bb293	-0.1520484
64	0xbe048a3d	-0.12943359
65	0x3de46e0b	0.111538015
66	0xbf8fa4d5	-1.1222178
67	0xbdd4d57c	-0.103922814
68	0x3ddf0ece	0.10891496
69	0xbe95a192	-0.2922483
70	0xbe2f2235	-0.17102893
71	0x3e5ae65c	0.21376938
72	0xbe2d9996	-0.1695312
73	0xbe1887b3	-0.14895515
74	0x3f5e5e58	0.8686271
75	0x3d8ea85a	0.06965704
76	0x3e3fbeb5	0.18725093
77	0xbf0abe44	-0.5419657
78	0xbee443e5	-0.4458305
79	0x3e4d5ed7	0.2005571
80	0xbe9fe334	-0.3122803
81	0x3c957ec8	0.01824893
82	0xbcc499f5	-0.023999194
83	0xbd764e64	-0.060133353
84	0xbbc7b316	-0.0060943468
85	0x3db31715	0.08744637
86	0x3dabfe54	0.083981186
87	0xbe9b7739	-0.30364397
88	0xbdb8ef4a	-0.09030016
89	0xbe9129e8	-0.28352284
90	0xbc8c6cb2	-0.017141674
91	0x3d685f42	0.05673147
92	0x3ca968ff	0.020679949
93	0xbea7b457	-0.32754776
94	0xbe90a6f7	-0.28252384
95	0xbe8a6e78	-0.27037406
96	0xbe27837d	-0.16358753
97	0xbed1a841	-0.4094868
98	0x3913e75c	0.000141052
99	0xbddf7f40	-0.10912943
100	0x3c79d60d	0.015248788
101	0xbcccd215	-0.025002519
102	0x3dd80df9	0.1054954
103	0x3c722f0c	0.014781725
104	0x3ec316e7	0.3810341
105	0x3d6fc04c	0.058532998
106	0xc04d5941	-3.2085726
107	0xbf0cb7dd	-0.54968053
108	0x3eaca124	0.3371669
109	0xbeaacdbb	-0.33360085
110	0x3d64463c	0.055731043
111	0x3e512671	0.2042482
112	0x3e783162	0.24237588
113	0xbdc22374	-0.094794184
114	0xbe12fadd	-0.14353509
115	0x3ee5a78b	0.44854388
116	0x3e023815	0.12716706
117	0x3f0dd066	0.55396116
118	0xbde1997e	-0.110156044
119	0xbfbb9f3a	-1.4657967
120	0xbdebaa54	-0.11507097
121	0xbe45ea89	-0.1932775
122	0xbe5854d2	-0.21126106
123	0xbdfc5f9c	-0.123229235
124	0xbe9ac4cb	-0.30228266
125	0x3f266261	0.64993864
126	0x3e8ef979	0.27924708
127	0x3efb9987	0.4914057
128	0xbd952ff5	-0.07284538
129	0x3cd6ef1f	0.026237069
130	0xbdc9cee1	-0.09853912
131	0xbd72171c	-0.05910407
132	0x3d9dbaaa	0.07701619
133	0xbe195b65	-0.1497627
134	0xbcb68c36	-0.022283655
135	0x3d957f8c	0.07299718
136	0x3c6bb31c	0.014385965
137	0xbb5fa211	-0.0034123699
138	0xbdde4f03	-0.10854914
139	0xbd1ccf1e	-0.03828346
140	0x39eb9122	0.00044930825
141	0xbbdef12b	-0.006803652
142	0x3d2bc72d	0.041937996
143	0x3dce28b2	0.10066356
144	0xbdd5a9a6	-0.104327485
145	0x3b758ec0	0.0037469119
146	0xbd7fd054	-0.062454537
147	0xbdca832a	-0.09888299
148	0xbc23ffc0	-0.010009706
149	0xbdee113e	-0.116243824
150	0x3db2a986	0.0872374
151	0xbcb98547	-0.02264656
152	0xbddaf098	-0.10690421
153	0x3ce4aab0	0.027913421
154	0xbe1f2a41	-0.15543462
155	0xbd63c139	-0.055604193
156	0xbd79f590	-0.061025202
157	0xbde8dbc1	-0.1137004
158	0xbdefd519	-0.11710567
159	0xbce5b83c	-0.028041951
160	0x3d6ddfe5	0.05807485
161	0x3daa3857	0.08311527
162	0x3da2e218	0.0795328
163	0xbde3d7e9	-0.11125166
164	0xbdf57e64	-0.11986998
165	0x3d8fc3a5	0.07019738
166	0x3cdf5e14	0.02726654
167	0xbafbb3d9	-0.0019203379
168	0x3c292c4a	0.010325501
169	0xbdcdbf12	-0.100462094
170	0xbda3a24c	-0.0798994
171	0x3daa5827	0.08317595
172	0xbd1532bd	-0.03642534
173	0xbd2fd745	-0.042929906
174	0xbdd49094	-0.103791386
175	0xbd8f354e	-0.06992589
176	0xbc328ca9	-0.010897794
177	0xbdacacd0	-0.08431399
178	0xbc7df8c0	-0.015501201
179	0x3c2e294c	0.010629963
180	0xbe28b41a	-0.16474953
181	0xbaec04cb	-0.00180068
182	0xbda944f0	-0.08265102
183	0xbdc80585	-0.09766678
184	0x3d448fd0	0.047988713
185	0x3d7c4b00	0.061594963
186	0xbd9a15a1	-0.07523657
187	0xbd52361c	-0.051321134
188	0xbe2cbaf9	-0.168682
189	0xbdcfea6c	-0.10152134
190	0xbe3a45b3	-0.1819065
191	0xbd041251	-0.03224403
192	0x3ea7d98d	0.32783166
193	0x3e956e10	0.29185534
194	0x3f34f08e	0.7067956
195	0x3da09cb0	0.07842386
196	0xbdfa9c32	-0.12236823
197	0x3e05d5db	0.1306986
198	0x3e995457	0.2994716
199	0xbd7fb2a4	-0.062426224
200	0xbd217cb7	-0.039425578
201	0xbd06760b	-0.03282742
202	0xbdf0e202	-0.117618576
203	0xbe727d04	-0.23680502
204	0xbe9c10be	-0.30481523
205	0x3f3cf8a6	0.7381691
206	0xbfd88793	-1.6916374
207	0xbee6b4e3	-0.4505988
208	0xbfb35989	-1.4011699
209	0xbd91c07c	-0.071167916
210	0xbd54ebae	-0.051982574
211	0x3dcfa132	0.101381674
212	0xbda91580	-0.08256054
213	0xbe415e83	-0.1888371
214	0xbdfb9838	-0.12284893
215	0xbf2baa2e	-0.6705655
216	0xbe2b9374	-0.16755468
217	0xbf29702f	-0.66186804
218	0xbc9dfd1d	-0.019285733
219	0xbebe993f	-0.37226292
220	0xbec0dd94	-0.3766905
221	0x3caed735	0.021342853
222	0xbeda5077	-0.42639515
223	0xbea9b675	-0.33147016
224	0x3e8f27ec	0.27960145
225	0xbdcd0fbb	-0.10012766
226	0xbd80fa3f	-0.06297731
227	0x3eca9ab3	0.3957115
228	0x3ed825e7	0.42216417
229	0xbc45a836	-0.01206403
230	0xbf1e009a	-0.6171967
231	0xbe10ace4	-0.14128453
232	0xbe9d4217	-0.30714485
233	0x3c8ecaa0	0.017430604
234	0xbf2bbb23	-0.6708242
235	0x3ea8e76b	0.32989058
236	0x3e8bc7bf	0.27300832
237	0xbe8b9e58	-0.27269244
238	0xbdde3246	-0.10849433
239	0x3de96be0	0.11397529
240	0xbdd44559	-0.103647895
241	0xbdeee939	-0.116655774
242	0x3f7ed5d4	0.99545026
243	0xbec37089	-0.38171795
244	0xbfa67237	-1.3003606
245	0x3dc29e0a	0.095028
246	0x3cc85908	0.024456516
247	0x3f44c259	0.7685905
248	0x3dcd39bc	0.100207776
249	0xbf2003f3	-0.62506026
250	0x3f6964f5	0.91169673
251	0x3deb5d24	0.114923745
252	0xbf4e2791	-0.80529124
253	0xbfec76a0	-1.8473701
254	0xbf44124c	-0.7659042
255	0xbf16e40d	-0.5894173

2.bias f4 [64]
0	0x40060b13	2.094426
1	0x4294a0d9	74.314156
2	0x3d9c05c2	0.07618286
3	0x4133f08a	11.246225
4	0xc20ce179	-35.22019
5	0xbd504405	-0.05084612
6	0x3cb0e7f5	0.02159498
7	0xbde06d4c	-0.10958347
8	0xbd88b6fc	-0.066755265
9	0x3d8dabd2	0.06917538
10	0x40f4d8f4	7.6514835
11	0xc1d903dd	-27.126886
12	0x40162720	2.346138
13	0x4069e798	3.6547604
14	0xbe16423b	-0.14673702
15	0x3f7f0ff3	0.9963371
16	0x40091687	2.142
17	0xbbeed7ab	-0.007288893
18	0x3cf48f03	0.02985335
19	0xbf12fe09	-0.57418877
20	0x3fc3b28a	1.5288861
21	0xbb9bf02c	-0.0047588553
22	0x41b33649	22.401506
23	0xbc68164a	-0.01416547
24	0x3e3df7c1	0.18551542
25	0xbf288a32	-0.6583587
26	0x4231b983	44.431164
27	0xbdca0a0f	-0.098652
28	0x3d597700	0.053092003
29	0xbddeb39f	-0.10874104
30	0x3d649943	0.055810224
31	0xbe0be0a8	-0.13659918
32	0xbf0537df	-0.5203838
33	0xc285915b	-66.7839
34	0xbdda217f	-0.1065092
35	0x3f8cadd6	1.099055
36	0x3eea475f	0.45757577
37	0x3faf625d	1.3701893
38	0x425942ea	54.315346
39	0x423209bf	44.509518
40	0x3fd76b79	1.6829673
41	0xbdbae099	-0.0912487
42	0xbddee0ff	-0.10882758
43	0x41df8972	27.942112
44	0xbcb960d8	-0.022629187
45	0x3f4dfac5	0.8046077
46	0x3d54df2f	0.051970657
47	0x3ce1d020	0.027565062
48	0xbda2aa15	-0.07942597
49	0x422a8385	42.628437
50	0xc0f66fca	-7.701146
51	0x4261dcf0	56.46576
52	0x429ac23e	77.37938
53	0xbe3489b8	-0.1763066
54	0x3cd104f3	0.025515055
55	0x404a63a1	3.1623309
56	0x42630d55	56.76302
57	0xbdb8f00c	-0.0903016
58	0xc2727ce3	-60.62196
59	0xc254202f	-53.03143
60	0xbdf0948c	-0.11747083
61	0xbc9187a7	-0.01776488
62	0xbdbbd52c	-0.09171519
63	0xbd9d83d5	-0.076911606

4.weight f4 [64, 64]
0	0x3bed2fa0	0.0072383434
1	0xbe0df775	-0.13863929
2	0x3d0b1c20	0.03396237
3	0xbe31d63b	-0.17366879
4	0xbddc63a1	-0.1076119
5	0x3db22660	0.08698726
6	0x3df02450	0.11725676
7	0xbc201f00	-0.009773016
8	0xbdb6f952	-0.08934273
9	0xbdd231d8	-0.10263413
10	0xbcfba670	-0.030719012
11	0xbdf0651f	-0.11738037
12	0x3dcb7f4c	0.09936389
13	0xbdb67e94	-0.089108616
14	0x3d9a1850	0.075241685
15	0x3cc2b130	0.02376613
16	0xbd1bb9d0	-0.038019
17	0x3dd0ad7e	0.10189341
18	0x3d8e7614	0.06956115
19	0xbd6f0bac	-0.05836074
20	0xbdad82dc	-0.08472225
21	0xbd16b1d8	-0.0367907
22	0x3c2e2024	0.01062778
23	0x3dddd0fc	0.10830876
24	0xbd2cc74c	-0.04218225
25	0xbd54c750	-0.05194789
26	0xbe1cb2b4	-0.15302545
27	0x3d9d594e	0.07683049
28	0x3df9dcd6	0.12200324
29	0x3db04024	0.08605984
30	0xbd8ea56a	-0.06965144
31	0x3db7648e	0.08954726
32	0xbd1b38e4	-0.037896052
33	0x3c3b726b	0.011440854
34	0x3d95afe8	0.07308942
35	0xbe081d4b	-0.13292424
36	0x3cfd6858	0.030933544
37	0x3d4c66f0	0.049902856
38	0xbe0b8e2e	-0.13628456
39	0x3d8a2556	0.067454025
40	0x3dc7da58	0.09758443
41	0x3dd5f4b2	0.104470626
42	0xba93cd00	-0.0011276305
43	0xbdf7c553	-0.120981835
44	0xbd8be60e	-0.06830989
45	0x3d34f710	0.04418093
46	0xbccb6fc8	-0.024833575
47	0x3dcb7930	0.09935224
48	0x3dd666b4	0.10468808
49	0x3c1e0ad0	0.009646133
50	0xbdd19554	-0.1023356
51	0xbb947c1a	-0.0045313956
52	0x3d6e63f8	0.058200806
53	0xbd009948	-0.03139618
54	0xbd85fa54	-0.06541887
55	0xbd786108	-0.06063941
56	0xbd59fb14	-0.053217962
57	0xbdbdf15a	-0.0927455
58	0x3c53c389	0.012925037
59	0xba0ac56f	-0.0005293702
60	0xbd43c0fc	-0.047791466
61	0xbd3daaf4	-0.04630561
62	0xbd72f08c	-0.059311435
63	0x3dc81d40	0.09771204
64	0x3dd78ebc	0.10525271
65	0x3e02ee70	0.12786269
66	0xbc6146d7	-0.0137498
67	0xbdfc7895	-0.12327687
68	0x3f0077bd	0.50182706
69	0x3d841d62	0.06450917
70	0xbdbf946f	-0.09354483
71	0x3d460e9c	0.048353776
72	0xbc9223a8	-0.017839268
73	0x3cc52717	0.024066491
74	0x3f89dd01	1.077057
75	0xbe6304d5	-0.22169812
76	0xbdfd4bb8	-0.12367958
77	0x3e9661d5	0.29371515
78	0x3dab1967	0.083544545
79	0x3e07db6b	0.13267295
80	0x3cd717de	0.026256498
81	0x3cee4e41	0.029090049
82	0xbdca4f7f	-0.09878444
83	0xbf9b3d14	-1.2128015
84	0x3d1d3ae1	0.03838623
85	0xbad4e949	-0.0016243841
86	0x3e6faf8b	0.23406808
87	0xbd940009	-0.07226569
88	0x3dd8a2cd	0.10577927
89	0x3cb9472a	0.022616941
90	0xbd81be5a	-0.06335135
91	0x3cbe958d	0.02326467
92	0x3dae61a2	0.08514716
93	0xbd4feec9	-0.050764833
94	0x3d7ad23b	0.061235648
95	0x39e71f1e	0.00044082938
96	0xbcac15e8	-0.02100654
97	0xbed2a493	-0.41141185
98	0x3d2ad86c	0.041710302
99	0x3dea6fad	0.11447082
100	0xbc66eb0a	-0.014094124
101	0xbdce7229	-0.10080368
102	0x3e39d648	0.18148148
103	0x3ef3cb9d	0.47616282
104	0xbd2a3d66	-0.04156246
105	0x3c4ff238	0.012692027
106	0xbe059450	-0.13044858
107	0xbdbb8b30	-0.09157407
108	0x3d485e3c	0.048917994
109	0x3df5ecec	0.1200808
110	0x3d109e3b	0.03530715
111	0x3dce3d96	0.1007034
112	0x3dfcf53e	0.12351464
113	0x3ec967cf	0.39337012
114	0x3e9e4fa3	0.30920133
115	0xbe3c7e44	-0.18407542
116	0x3daf00b5	0.08545057
117	0x3df7d06e	0.12100302
118	0xbc65b67a	-0.014020557
119	0xbeb4fde0	-0.3534994
120	0x3ed21cdc	0.41037643
121	0xbd09c3ec	-0.03363411
122	0xbcd5fa02	-0.02612019
123	0x3e3721ad	0.1788394
124	0xbcc93d58	-0.024565384
125	0x3de9e64c	0.11420879
126	0xbdf99fa0	-0.12188649
127	0xbd8ee3db	-0.06977054
128	0x3db3a1bc	0.08771083
129	0xbe5f971e	-0.2183499
130	0x3d2c7458	0.04210314
131	0xbe5050c2	-0.20343307
132	0x3cefe555	0.029284159
133	0xbd7f8b6c	-0.062388822
134	0x3b5c2686	0.0033592298
135	0xbda7add8	-0.08187455
136	0xbd63292c	-0.055459186
137	0xbddb772c	-0.107160896
138	0xbde012de	-0.10941099
139	0x3db2b466	0.087258145
140	0xbdb1f9a7	-0.086901955
141	0x3ccc6dc5	0.024954686
142	0xba1e8a00	-0.0006047785
143	0x3dc71090	0.09719956
144	0xbd542064	-0.051788703
145	0x3cd93f28	0.026519373
146	0x3df5dcf2	0.120050326
147	0xbe47e809	-0.19522108
148	0xbd5dcd14	-0.054150656
149	0x3ddadad6	0.10686271
150	0xbd84bdc4	-0.064815074
151	0xbd09e384	-0.03366424
152	0x3c245c20	0.01003173
153	0xbd96d505	-0.07364849
154	0xbc7a4b58	-0.015276752
155	0xbd54cd54	-0.05195363
156	0x3d226d38	0.03965494
157	0xbcd95ec0	-0.026534438
158	0xbd2bcf08	-0.041945487
159	0xbd40dfa8	-0.047088295
160	0x3d05059c	0.032476053
161	0xbcc33a19	-0.023831414
162	0xbdea0ba2	-0.11428
163	0xbdb28ac2	-0.08717872
164	0xbdf5b00e	-0.119964704
165	0x3d6effe8	0.05834952
166	0x3cfb4b4b	0.03067555
167	0xbe59f4df	-0.21284817
168	0x3ad749da	0.0016425208
169	0x3ccfabd8	0.025350496
170	0xbd8960c0	-0.06707907
171	0x3d926229	0.07147629
172	0x3dc5654c	0.096384615
173	0x3e1e145b	0.15437452
174	0x3d5d66dc	0.054053172
175	0xbccb0b28	-0.024785593
176	0xbd91a8b8	-0.07112259
177	0xbd42ffe8	-0.047607332
178	0x3a866180	0.0010252446
179	0xbea0590e	-0.31317943
180	0x3bfe545c	0.0077615213
181	0xbde75980	-0.11296368
182	0x3c36cc00	0.011157036
183	0xbde32bbf	-0.11092328
184	0xbe3482fa	-0.17628089
185	0x3df62e24	0.120205194
186	0xbe2f4248	-0.17115128
187	0xbd5e832c	-0.054324314
188	0xbd6deddb	-0.058088165
189	0xbdff78de	-0.124742255
190	0xbde7f04a	-0.113251284
191	0x3d5f1688	0.054464847
192	0xbc85bed1	-0.01632634
193	0x3d5b11f7	0.05348393
194	0xbd33f0fe	-0.043931
195	0xbf8540d1	-1.0410405
196	0x3f62ddec	0.88619876
197	0xbb12476f	-0.002232041
198	0x3d12bf06	0.035826705
199	0x3dd856e0	0.10563445
200	0xbd20e36c	-0.039279386
201	0x3ddec8c0	0.10878134
202	0xbda63768	-0.08116037
203	0xbe421d11	-0.189564
204	0xbd3c7570	-0.046010435
205	0xbf3b125f	-0.7307491
206	0x3dd091f3	0.101840876
207	0xbd2cda82	-0.042200573
208	0x3e3dd687	0.18538867
209	0xbd26b7e1	-0.040702704
210	0xbd96a785	-0.073561706
211	0xbdcea3c3	-0.10089829
212	0xbd16c61c	-0.036810026
213	0x3dbb1664	0.0913513
214	0x3f375d0c	0.71626353
215	0x3de96452	0.11396088
216	0xbd3ee480	-0.046604633
217	0xbcd1ce43	-0.025611049
218	0xbf402f25	-0.75071937
219	0xbdd7129f	-0.105015986
220	0xbcd3f230	-0.02587232
221	0xbda9237c	-0.08258721
222	0x3d93b094	0.07211414
223	0x3d862458	0.06549901
224	0xbdaeb047	-0.08529716
225	0x3f01cff8	0.5070796
226	0x3e1c2bd2	0.15251091
227	0xbd5134e8	-0.051075846
228	0x3d8924da	0.06696482
229	0x3e38964e	0.18026087
230	0xbd08ef4f	-0.033431347
231	0xbf3d6cd6	-0.73994195
232	0x3d763a15	0.060113985
233	0xbd89a39c	-0.06720659
234	0x3df4ce62	0.11953427
235	0xbdd75e1e	-0.10515998
236	0x3cb9b9d0	0.02267161
237	0x3d44a3c8	0.048007756
238	0xbd7b0e86	-0.061293148
239	0x3dc8c6ed	0.09803567
240	0xbda2d7a8	-0.079512894
241	0x3f326abf	0.6969413
242	0xbd102e68	-0.035200506
243	0xbe0f29c8	-0.13980782
244	0x3f41f579	0.75765187
245	0x3d3edddf	0.04659831
246	0x3d5c62a4	0.05380501
247	0xc00b937a	-2.1808763
248	0xbedf42c0	-0.43605614
249	0xbd1e0f78	-0.03858897
250	0x3e94d7ce	0.29070896
251	0x3f835f02	1.0263369
252	0xbd879a89	-0.06621272
253	0x3d237312	0.03990466
254	0x3d0c5fec	0.034271166
255	0x3d1a29af	0.03763741

4.bias f4 [64]
0	0xbe3905ff	-0.18068694
1	0xc10cd0c6	-8.80097
2	0xbe1b7621	-0.15181781
3	0xc23db2c1	-47.424564
4	0x41efc9d4	29.973549
5	0xc1b1b95e	-22.215511
6	0x42862525	67.07255
7	0xbbb312bf	-0.005464881
8	0x418b80ba	17.437855
9	0xbd6610e2	-0.056168444
10	0x423c1948	47.02469
11	0xc055b6eb	-3.3392894
12	0x4196f482	18.869389
13	0xbdbec7a2	-0.09315421
14	0x4207490c	33.821335
15	0x40f5cb9c	7.6811047
16	0xc2897c34	-68.742584
17	0x425ca052	55.156563
18	0x3d778142	0.060426004
19	0x429c3fcd	78.12461
20	0x3fb52413	1.4151634
21	0xbd10406a	-0.03521768
22	0x412c4fb7	10.769462
23	0xbd2b4918	-0.041817755
24	0x41d04d36	26.0377
25	0xbe50b6a3	-0.2038217
26	0x421608ae	37.508476
27	0xbd201e79	-0.03909156
28	0x420795a9	33.896152
29	0x4214883f	37.133053
30	0x4280d732	64.4203
31	0x3cb18126	0.021668028
32	0xc27de731	-63.475773
33	0xc24bc831	-50.9455
34	0xc141f144	-12.121403
35	0x425cce1a	55.20127
36	0x41517067	13.089942
37	0xbddb820c	-0.10718164
38	0xc1f0d8fc	-30.10595
39	0x42680ce9	58.012608
40	0xbe17a339	-0.14808358
41	0x40d9317f	6.787292
42	0x3d550fc0	0.052016973
43	0x41f8bc40	31.091919
44	0x422d1b0a	43.276405
45	0xbc8fe40d	-0.017564798
46	0x3d774dab	0.060376804
47	0x42153f29	37.31168
48	0x3dbe2295	0.0928394
49	0xbd5a924c	-0.053362176
50	0x41f23070	30.273651
51	0x41f08d03	30.068853
52	0xc201fe1b	-32.49815
53	0xbdf898f1	-0.12138546
54	0x414d44ef	12.8293295
55	0x41e210be	28.258175
56	0x3ecf6be8	0.40512013
57	0x42142375	37.034626
58	0xc1de2b22	-27.77106
59	0xbdc83233	-0.097752
60	0x4204525e	33.080437
61	0x41ab427c	21.407463
62	0x3c8a01c4	0.016846545
63	0x426d717d	59.36083

6.weight f4 [64, 64]
0	0x3d8d9bde	0.06914495
1	0x3d129798	0.035789102
2	0x3da19e76	0.07891552
3	0xbda8bfe3	-0.082397245
4	0xbc2b724a	-0.01046426
5	0xbe2e9480	-0.17048836
6	0xbd553b47	-0.052058484
7	0x3dbabbf7	0.09117883
8	0xbe17aadc	-0.14811271
9	0xbdd1e1a5	-0.102481164
10	0xbdbfce4f	-0.09365522
11	0xbd106407	-0.035251644
12	0xbd888a06	-0.06666951
13	0xbdc8f1d6	-0.098117515
14	0xbd22237d	-0.039584626
15	0xbd8f86e9	-0.07008154
16	0xbdf6b911	-0.12047017
17	0x3ab2d580	0.001364395
18	0x3d13c761	0.036078814
19	0x3c51c3e2	0.01280305
20	0xbdc09f20	-0.09405351
21	0x3dad899e	0.08473514
22	0xbca19e6c	-0.019728862
23	0xbd51a4e4	-0.051182643
24	0x3d3cdd1f	0.046109315
25	0x3cce6b80	0.025197744
26	0x3d851fb0	0.065001845
27	0x3db50262	0.08838345
28	0xbd5f5fa4	-0.05453457
29	0x3dc431f9	0.09579844
30	0xbc004699	-0.007829332
31	0x3d11f8ee	0.03563779
32	0x3b98da3e	0.0046646884
33	0x3d821872	0.06352319
34	0xbba8a8ea	-0.0051470893
35	0xbd9d2513	-0.07673087
36	0x3d5a0e66	0.053236388
37	0xbb112acb	-0.002215075
38	0x3d3c2de0	0.045942187
39	0xbdbce1d4	-0.09222761
40	0xbd3f1d58	-0.046658844
41	0x3d2147f2	0.039375253
42	0xbda19024	-0.07888821
43	0xbc551721	-0.013006003
44	0x3d8a4613	0.06751647
45	0xbde6db4e	-0.11272298
46	0xbab4f780	-0.0013806671
47	0xbcbcfdfd	-0.02307033
48	0x3da7c918	0.081926525
49	0xbd2c0758	-0.04199919
50	0xbe3cad27	-0.18425427
51	0xbdad0649	-0.084484644
52	0x3bbc6b34	0.0057500843
53	0xbdc9fe47	-0.09862953
54	0xbdea4847	-0.11439567
55	0xbd2d1e4e	-0.04226523
56	0x3b6abc1a	0.0035817684
57	0xbdf52cf3	-0.11971464
58	0xbd64b20f	-0.055833872
59	0x3d843560	0.06455493
60	0xbe01e355	-0.12684377
61	0xbdd292c2	-0.10281898
62	0xbd3a1c3e	-0.04543709
63	0x3dbf2a30	0.093342185
64	0xbcd784d2	-0.02630845
65	0xbd302bc6	-0.043010496
66	0xbe21cff5	-0.15801986
67	0x3f04cb03	0.5187227
68	0xbefa127c	-0.48842227
69	0x3f75cf5f	0.9601955
70	0x3e0625db	0.13100378
71	0xbd4454f8	-0.047932595
72	0xbd8f5b11	-0.069997914
73	0x3d705461	0.05867422
74	0x3e23dc4c	0.16002005
75	0x3ca2cd7c	0.019873373
76	0xbce554bc	-0.027994506
77	0x3d8428cf	0.06453096
78	0xbdc0f27c	-0.0942125
79	0xbd96b313	-0.073583744
80	0xbf501fb4	-0.81298375
81	0xbeb1538b	-0.3463405
82	0xbf02c0b9	-0.5107532
83	0x3e6e4045	0.23266704
84	0xbcf8c2ca	-0.03036632
85	0xbd256c4c	-0.040386483
86	0x3d9f1504	0.0776768
87	0xbde69eda	-0.11260767
88	0x3f71b39d	0.94414693
89	0xbc2113d5	-0.0098313885
90	0x3f454bcf	0.770688
91	0xbd372e1f	-0.04472172
92	0x3d57c4f4	0.052678064
93	0x3eb4afa9	0.35290268
94	0xbb7ab8a7	-0.0038257034
95	0x3dcfbb5a	0.10143156
96	0xbeaa26aa	-0.33232623
97	0xbe923be1	-0.2856131
98	0x3ee9d930	0.45673513
99	0xbe508144	-0.20361811
100	0x3f8021f2	1.0010359
101	0x3e1a159c	0.15047306
102	0xc0cc717f	-6.3888545
103	0x3f4fe496	0.8120817
104	0x3d0462b8	0.032320708
105	0xbf69f18a	-0.91384184
106	0xbc934ff3	-0.017982459
107	0xbe170f6a	-0.14751974
108	0x3de86edf	0.11349272
109	0xbd9629c1	-0.07332183
110	0xbc2c0d4e	-0.010501219
111	0x3d884ae9	0.06654913
112	0x3d8d966c	0.06913456
113	0xbd825c91	-0.06365312
114	0x3e79e129	0.24402298
115	0x3f633eec	0.88767886
116	0xbfbd1078	-1.4770651
117	0x3b05799c	0.0020366674
118	0x3dfcf11c	0.123506755
119	0x3956801b	0.00020456353
120	0x3db2a941	0.08723689
121	0xbc1ddbe4	-0.009634946
122	0xbe51eaef	-0.20499776
123	0x3d0dd2c2	0.034624822
124	0xbc91561b	-0.017741254
125	0x4011f8c2	2.280808
126	0x3b49428b	0.0030709829
127	0x3e2e75e0	0.17037153
128	0x3c5a7510	0.013333574
129	0xbd2b9324	-0.04188837
130	0xbdcb5c94	-0.09929767
131	0x3dbc259f	0.09186863
132	0x3bbaeb60	0.0057043284
133	0xbd616114	-0.05502422
134	0xbe112ccd	-0.14177246
135	0xbd72eb80	-0.05930662
136	0xbe173026	-0.14764461
137	0x3cd1b0d8	0.025597021
138	0x3d74efda	0.059799053
139	0xbdb4b770	-0.088240504
140	0xbc7f2252	-0.015572147
141	0xbcd99c18	-0.02656369
142	0xbe1b15a1	-0.1514497
143	0xbe63f39c	-0.22260898
144	0xbde48d0f	-0.11159717
145	0x3b169543	0.002297715
146	0x3dac6cc2	0.084191814
147	0x3d79132f	0.06080931
148	0xbd35e872	-0.04441113
149	0x3d2d129c	0.042254075
150	0xbd4114db	-0.04713903
151	0x3dfd624a	0.12372263
152	0xbe0697ec	-0.13143891
153	0xbd0b060c	-0.033941314
154	0xbe3bc918	-0.1833843
155	0x3c4a3fb0	0.012344286
156	0xbe414d32	-0.18877104
157	0xbdf4a9d8	-0.119464576
158	0xbb3d5e88	-0.0028895456
159	0x3dfeb436	0.12436716
160	0x3d9c1d15	0.076227345
161	0x3d5da9ac	0.05411689
162	0xbdb98e06	-0.09060292
163	0xbd11b365	-0.035571475
164	0xbde623a6	-0.11237268
165	0x3dac168e	0.084027395
166	0x3d0be3ac	0.03415267
167	0x3d982c69	0.074303456
168	0xbdf8e014	-0.121521145
169	0xbdb93454	-0.09043184
170	0xbda4df58	-0.08050412
171	0xbe3fb5be	-0.18721673
172	0xbe2a1a10	-0.16611505
173	0x3d21c150	0.039490998
174	0x3daa2f30	0.083097816
175	0xbb5ccb30	-0.0033690445
176	0xbd2f5f00	-0.04281521
177	0x3cbf7a68	0.023373798
178	0x3dbb0620	0.091320276
179	0xbd6b2ff3	-0.057418775
180	0xbd383f04	-0.04498197
181	0xbdca2554	-0.09870401
182	0x3d67b07d	0.056564797
183	0xbd77406c	-0.06036417
184	0xbdc8d8d4	-0.09806982
185	0x3d25d76a	0.040488638
186	0xbd0fa577	-0.03506991
187	0xbd4ea6d0	-0.050452054
188	0xbe5bd319	-0.21467246
189	0x3c807488	0.015680566
190	0xbd17a2a8	-0.037020355
191	0xbdae8140	-0.08520746
192	0xbcf32401	-0.029680254
193	0x3ea7ee1f	0.3279886
194	0x3e1c77bb	0.15280049
195	0xc02241d4	-2.5352678
196	0x3e08fb1b	0.13377039
197	0xbeba235e	-0.36355108
198	0x3e7ee485	0.24891861
199	0xba24d8dc	-0.0006288418
200	0x3e2a6542	0.1664019
201	0x3dc25ab3	0.09489956
202	0x3e4d3657	0.2004026
203	0x3e52a407	0.20570384
204	0x3debe615	0.11518494
205	0xbdaceadb	-0.084432326
206	0x3e5dd250	0.21662259
207	0x3d865c64	0.06560591
208	0x3fbeb4a2	1.4898875
209	0xbf5cc400	-0.8623657
210	0xbd0c8f2c	-0.034316227
211	0xbee354a6	-0.4440052
212	0x3e68c262	0.22730401
213	0xbd134011	-0.03594977
214	0x3ea5a100	0.32349396
215	0x3d1c43d0	0.03815061
216	0xbf840a96	-1.031573
217	0x3d418347	0.047244336
218	0xbeed01a9	-0.4629033
219	0xbdea5447	-0.11441856
220	0xbe361420	-0.17781115
221	0x3e3393ba	0.17536822
222	0xbf807534	-1.0035768
223	0xbcbc9332	-0.023019407
224	0x3eb4e22f	0.35328814
225	0x3ebf931d	0.37416926
226	0xbe169cc7	-0.14708243
227	0x3e860a30	0.26179647
228	0xbe1c78e4	-0.15280491
229	0x3cdd392c	0.0270048
230	0xbf88c6f7	-1.0685719
231	0x3e35d184	0.17755705
232	0xbba90536	-0.005158092
233	0x3f07976d	0.5296543
234	0x3d0b8b7c	0.03406857
235	0x3e3e92c4	0.18610674
236	0x3e7c243c	0.24623197
237	0x3d2f9ebb	0.042875987
238	0x3c795150	0.01521714
239	0xbd05858e	-0.03259807
240	0xbe0a4195	-0.1350158
241	0xbd5dea19	-0.05417833
242	0x3e897e07	0.26853964
243	0xbd84673b	-0.06465002
244	0xbf2d0d1c	-0.6759813
245	0xbcd3b4bc	-0.025843017
246	0x3ee01f71	0.43773988
247	0x3ea21cd7	0.31662628
248	0x3b3bb7b2	0.0028643426
249	0x3e768080	0.24072456
250	0xbeda22f0	-0.4260478
251	0x3da47682	0.08030416
252	0x3e5c0140	0.21484852
253	0x3e384043	0.17993264
254	0x3d096721	0.033545617
255	0x3ecb58c2	0.39716154

6.bias f4 [64]
0	0x3b68c918	0.0035520252
1	0x42613857	56.30502
2	0x3bb1b8ce	0.0054236418
3	0x41f1acfe	30.209469
4	0x3fce19a9	1.6101581
5	0xbde7ed58	-0.113245666
6	0x4245673d	49.35082
7	0x421f9cea	39.903236
8	0x42539576	52.895958
9	0x40b03858	5.506878
10	0xbd60016b	-0.054688852
11	0x40ff7b1e	7.983779
12	0x3f377dbc	0.7167623
13	0x4230b16f	44.173275
14	0xc21004e9	-36.004795
15	0x42252c8b	41.2935
16	0x422492a3	41.1432
17	0x3ba7199c	0.0050994884
18	0x421a2965	38.540424
19	0x4241c5b8	48.443085
20	0xbe1aa81e	-0.15103194
21	0x41cc2606	25.518566
22	0xbdfc1c29	-0.123100586
23	0xbc8a041b	-0.01684766
24	0xbdd2d59c	-0.10294649
25	0x3cedd322	0.02903134
26	0x426e1234	59.517776
27	0xbf4441fb	-0.7666318
28	0x420c1353	35.01887
29	0x429ad76d	77.42075
30	0x428095c5	64.29252
31	0xbda23426	-0.07920103
32	0xc248b317	-50.174892
33	0x3b66c463	0.003521227
34	0x424a6070	50.594177
35	0x42822a6b	65.08285
36	0x42a75acd	83.677345
37	0x4214fd1b	37.247173
38	0xbf5f456f	-0.8721532
39	0x425529a3	53.29066
40	0x426337d8	56.804535
41	0xbdbe2b43	-0.09285595
42	0x42666e17	57.60751
43	0x425ba261	54.908573
44	0xc0ee7497	-7.451732
45	0xbcb3f06e	-0.021965232
46	0x3dbf726f	0.09347998
47	0x3d768fcb	0.060195725
48	0x423b116f	46.767025
49	0xbcbae1fb	-0.022812834
50	0x41febdc9	31.842669
51	0x421cc4be	39.19213
52	0xbd6e1add	-0.058131088
53	0xbe13c181	-0.14429285
54	0x3d1f872e	0.038947277
55	0xbd86c45e	-0.06580423
56	0x421a0d7f	38.51318
57	0x41b4c327	22.59529
58	0xc29ae998	-77.45624
59	0xbdd13fe8	-0.10217267
60	0xc22046b0	-40.06903
61	0xc279df6e	-62.468193
62	0xc26d2986	-59.29055
63	0xbd11598c	-0.03548579

8.weight f4 [64, 64]
0	0x3d58541a	0.05281458
1	0x3b3455d1	0.002751697
2	0xbda7e0de	-0.08197187
3	0xbe02875f	-0.12746952
4	0x3c4024b1	0.011727498
5	0xbd551c98	-0.052029222
6	0xbe15c590	-0.14626145
7	0x3da93a7a	0.08263107
8	0xbe3371bb	-0.17523853
9	0xbd90ae44	-0.070644885
10	0xbda0ce3a	-0.078518346
11	0x3da3f065	0.08004836
12	0xbcba63df	-0.0227527
13	0xbdcc0d08	-0.09963423
14	0x3da6c41c	0.08142874
15	0x3d9b0417	0.075691395
16	0x3c7dde31	0.015494869
17	0x3dc8868a	0.09791286
18	0xbe0fdf22	-0.14049962
19	0xbe32546e	-0.1741502
20	0x3d8be57a	0.068308786
21	0xbd0b8e7c	-0.03407143
22	0x3d59b484	0.05315067
23	0x3de19b2b	0.11015924
24	0xbce9f4e0	-0.028559148
25	0xbd8802e0	-0.06641173
26	0x3d859eb2	0.06524409
27	0xbda1ef7c	-0.07907006
28	0xbe0f1251	-0.13971831
29	0x3d638122	0.055543073
30	0xbda8b858	-0.08238286
31	0xbdca1f0e	-0.098692045
32	0x3d369c48	0.044582635
33	0xbd815d7c	-0.06316659
34	0xbd08802c	-0.03332536
35	0xbe29ad16	-0.16569933
36	0xbdb5ec6f	-0.08882987
37	0x3cdd7a2f	0.0270358
38	0xbc189750	-0.009313419
39	0xbd5c2c94	-0.05375345
40	0x3d6a2711	0.057166163
41	0x3d7cd59c	0.06172715
42	0x3d507eca	0.050902165
43	0x3cba9d16	0.022779983
44	0xbd9b7e05	-0.07592396
45	0xbde3ea9a	-0.11128731
46	0xbe00850e	-0.12550756
47	0xbd982aac	-0.07430014
48	0xbb89d548	-0.0042063333
49	0x3dcd4bfe	0.1002426
50	0x3d8642a6	0.06555681
51	0x3d9e7422	0.07736994
52	0x3c40e548	0.011773415
53	0x3db04dd8	0.086085975
54	0x399577c3	0.00028508724
55	0x3d6dcd18	0.05805692
56	0xbe1080f0	-0.14111686
57	0x3d8028b2	0.06257762
58	0x3d124b6e	0.035716467
59	0x3940c000	0.00018382072
60	0xbe098b61	-0.13432075
61	0xbcb10b69	-0.021611886
62	0xbd51bbb1	-0.051204387
63	0xbda5b31a	-0.080908015
64	0xbc33f06b	-0.010982613
65	0xbf6cf90b	-0.9256751
66	0x3ceb10c0	0.02869451
67	0xbf0cedda	-0.5505043
68	0xbdf42bd5	-0.11922423
69	0xbd8cfe2e	-0.068844184
70	0xbf11d5ff	-0.5696716
71	0x3dc24962	0.09486653
72	0x3e207231	0.1566856
73	0x3eb28924	0.34870255
74	0xbceceefe	-0.028922554
75	0x3e98fa95	0.2987868
76	0xbc074ccf	-0.008258059
77	0xbd4d7eb1	-0.05016965
78	0x3fa068c0	1.2531967
79	0x3eada08d	0.33911553
80	0x3e2f5146	0.17120847
81	0x3d0d718b	0.03453211
82	0x3f399b1e	0.72502315
83	0x3e549322	0.20759252
84	0xba391d00	-0.0007061511
85	0xbfe34988	-1.7756815
86	0xbd9f5b47	-0.07781082
87	0xbd201185	-0.039079208
88	0x3c9eb8de	0.01937526
89	0xbda1e9c7	-0.079059176
90	0xbf715257	-0.94266266
91	0x3e815184	0.25257504
92	0xbede8117	-0.43457863
93	0x3f136266	0.5757202
94	0xbe33b4c7	-0.1754943
95	0x3ed93126	0.4242031
96	0xbf600261	-0.8750363
97	0x3d3bb89b	0.04583035
98	0xbb61f218	-0.0034476575
99	0xbf36d72e	-0.7142209
100	0x3ea6455e	0.32474798
101	0x3f1b882f	0.60754675
102	0x3eb30fb1	0.3497291
103	0x3ecf5303	0.4049302
104	0xbf7e27ce	-0.9927949
105	0xbd9f0598	-0.07764739
106	0xc0185f5e	-2.3808208
107	0x3f303f37	0.6884646
108	0xbd0a7d2e	-0.033810787
109	0x39e06609	0.00042800631
110	0x3ee77105	0.45203415
111	0x3ccef765	0.025264451
112	0xbe99cce9	-0.30039147
113	0x3c298c80	0.010348439
114	0xbfb0fb85	-1.3826758
115	0x3f4b0130	0.79298687
116	0x3e15bb6d	0.14622279
117	0x3d518ff0	0.05116266
118	0x3dcc0722	0.09962298
119	0xbd975275	-0.07388774
120	0x3f25396e	0.64540756
121	0xbf78f1bd	-0.97243863
122	0x3d9aa24b	0.07550486
123	0x3da47b28	0.08031303
124	0x3f18588d	0.5951012
125	0x3f1f86e1	0.62315184
126	0x3f712264	0.941931
127	0x3cc0aece	0.023520853
128	0x3b1cdfe3	0.0023937158
129	0xbe0878a6	-0.13327274
130	0xbc3e3b40	-0.011610806
131	0x3d40989f	0.04702055
132	0x3de2d21d	0.11075232
133	0x3c3ed280	0.011646867
134	0x3d7ce335	0.06174012
135	0x3bb16909	0.0054141325
136	0xbdec7ef5	-0.11547653
137	0xbca5ba69	-0.020230489
138	0xbd2ef710	-0.042716086
139	0xbcf4dab5	-0.029889444
140	0xbd66b83f	-0.056328055
141	0x3da3a007	0.07989507
142	0xbddc5d9d	-0.10760043
143	0xbdb3ba30	-0.08775747
144	0xbd663d48	-0.056210786
145	0x3dca2e39	0.098720975
146	0xbd023371	-0.03178734
147	0x3d109559	0.03529868
148	0x3d626c66	0.055279158
149	0x3d8ee408	0.06977087
150	0xbceb4770	-0.028720587
151	0x3c8e17a2	0.017345253
152	0xbd79e51c	-0.06100951
153	0xbc1babb0	-0.009501383
154	0xbdf621d1	-0.12018169
155	0xbde33082	-0.110932365
156	0x3ca5dcd2	0.020246897
157	0xbdf7bbfd	-0.12096403
158	0x3d59df82	0.05319167
159	0x3dbd363a	0.092388585
160	0x3c462b95	0.012095352
161	0x3d43ff20	0.047850728
162	0xbe036be3	-0.12834124
163	0xbd9d3029	-0.076752014
164	0xbddee524	-0.10883549
165	0xbdc2a696	-0.0950443
166	0xbbe997a3	-0.007128672
167	0x3d139880	0.036034107
168	0x3da3ebb1	0.08003939
169	0xbd2aceb2	-0.041701026
170	0xbdc85854	-0.09782472
171	0xbe0052f5	-0.12531646
172	0xbbe21a30	-0.0069000944
173	0xbd97aeed	-0.07406411
174	0x3c8477e9	0.016170459
175	0x3da956c8	0.08268505
176	0x3db4aa72	0.08821572
177	0xbca70200	-0.020386696
178	0xbdd6c9fd	-0.10487745
179	0xbd9ab769	-0.07554514
180	0x3d939c25	0.072075166
181	0x3d047fa0	0.032348275
182	0x3a9c2283	0.0011912141
183	0xbe03ae49	-0.12859453
184	0x3d57a866	0.05265083
185	0x3d81615d	0.06317399
186	0x3d108f9b	0.035293203
187	0xbcb88498	-0.022524163
188	0xbd72f690	-0.05931717
189	0xbdb80ef8	-0.0898723
190	0xbd9dfa94	-0.077138096
191	0x3cefaa63	0.029256051
192	0x3d04f4ce	0.032460026
193	0x3e6be422	0.23036245
194	0x3d5722fd	0.0525236
195	0x3e20541c	0.15657085
196	0x3c49220a	0.012276182
197	0xbdbb388b	-0.09141644
198	0x3e1ca3ae	0.15296814
199	0x3e15b037	0.14618002
200	0x3e8b23ba	0.27175695
201	0x3e0d902c	0.13824528
202	0xbd264809	-0.04059604
203	0x3dbcb6d5	0.0921456
204	0xbd6d0800	-0.057868958
205	0x3e212a29	0.15738739
206	0xbe84b903	-0.25922403
207	0x3ee81f47	0.45336363
208	0x3eb8f17e	0.36121744
209	0xbce9e415	-0.02855114
210	0x3e96dbf8	0.29464698
211	0x3e8819a0	0.2658205
212	0x3d8bfd72	0.0683545
213	0x3f0cc6fd	0.5499113
214	0xbb826d06	-0.0039802818
215	0x3dd0dedf	0.10198759
216	0xbe0a95fe	-0.1353378
217	0xbcfb6fdc	-0.030692987
218	0xbe59e0ec	-0.21277207
219	0xbe48797a	-0.1957759
220	0x3ec7184e	0.3888573
221	0x3e988c3f	0.297945
222	0x3ee9f181	0.45692065
223	0xbe948f9f	-0.29015824
224	0x3e152f92	0.14568928
225	0x3d17b7d2	0.03704054
226	0x3f072c3f	0.5280189
227	0x3e74ca3d	0.23905273
228	0x3ec3e563	0.38260946
229	0x3e2b16fd	0.16707988
230	0xbe22a8d2	-0.15884712
231	0x3c8e8abf	0.017400144
232	0x3e95abc9	0.29232624
233	0x3c0040ba	0.007827932
234	0x3d6f013e	0.058350794
235	0x3e24cf4d	0.16094704
236	0xbd931d37	-0.07183307
237	0x3c99ab42	0.01875842
238	0xbe466bdd	-0.19377084
239	0xbc0b3221	-0.008495838
240	0x3e6c713e	0.23090073
241	0xbe2354d2	-0.15950325
242	0x3e38cd65	0.18047102
243	0x3e59ab35	0.21256717
244	0x3c57cce9	0.013171413
245	0xbde46b83	-0.11153319
246	0x3d0a3d07	0.033749606
247	0xbb03336e	-0.0020019668
248	0x3e7b29ab	0.24527614
249	0x3e26bf3b	0.16283886
250	0xbedfe29b	-0.43727574
251	0xbd9c95ab	-0.076457344
252	0xbf415860	-0.75525475
253	0x3e812a30	0.252275
254	0xbfa278a6	-1.2693069
255	0x3d5b2518	0.053502172

8.bias f4 [64]
0	0xbe6a77fd	-0.22897334
1	0xc22fdd66	-43.96621
2	0xbda93134	-0.08261338
3	0x4244e666	49.225
4	0x3c8b772c	0.017024599
5	0xbe3bbf44	-0.18334681
6	0x424117d3	48.273266
7	0x3d8d3f2e	0.06896816
8	0x41bd7a1f	23.68463
9	0x429f3fe5	79.624794
10	0xbd8496d6	-0.06474082
11	0xbd5879b7	-0.05285045
12	0x42175d38	37.841034
13	0x4234db43	45.214123
14	0xbfebb91a	-1.8415864
15	0xc0a7c27f	-5.242492
16	0x4262496c	56.5717
17	0xbe1a5405	-0.15071113
18	0x4219eb9a	38.48008
19	0x42167075	37.60982
20	0xbe298015	-0.16552766
21	0xbd824689	-0.0636111
22	0x42547c97	53.12167
23	0x41ddb5f7	27.71385
24	0x4247da1a	49.96299
25	0x418fa755	17.956705
26	0x42b6d085	91.407265
27	0xbd567472	-0.052357145
28	0x4189c4c9	17.221087
29	0x41828345	16.314096
30	0x404b08fa	3.172423
31	0x427eb2b1	63.674503
32	0xbd8a5df9	-0.06756205
33	0xbe17273a	-0.14761057
34	0x40608a3d	3.5084374
35	0x3d6e7730	0.058219135
36	0x42049a23	33.150524
37	0x421b68a1	38.852177
38	0x404b6866	3.178247
39	0x3d81356d	0.06309018
40	0x42412e13	48.294994
41	0x41f3256a	30.393269
42	0xbc8619c5	-0.01636971
43	0x424e04a7	51.504543
44	0xbcc72757	-0.02431075
45	0x3cb5bd51	0.022185
46	0x42410ac8	48.26053
47	0xbdddc011	-0.108276494
48	0x3be55e43	0.0069997623
49	0x422ed0fd	43.70409
50	0x41c9573c	25.167595
51	0x423c944f	47.144833
52	0x3da54996	0.08070676
53	0x3da1d4da	0.07901926
54	0xc0771508	-3.8606586
55	0xbdda8909	-0.10670669
56	0x423cb243	47.174084
57	0xbdc78034	-0.0974125
58	0xbcf1a9de	-0.029499944
59	0xbf8cc6da	-1.0998185
60	0x423029fa	44.040993
61	0x3db6c230	0.08923757
62	0x42924702	73.13869
63	0xbdeeb8c4	-0.11656335

10.weight f4 [64, 64]
0	0x3decfe28	0.11571914
1	0xbf2ab3bc	-0.666805
2	0x3cfc5145	0.030800471
3	0x3ebac6f7	0.36479923
4	0x3d4f95a6	0.050679825
5	0xbc32174b	-0.010869811
6	0x3e9d9f0a	0.307854
7	0x3c111413	0.008854884
8	0x3e77281c	0.24136394
9	0x3ebf6e53	0.37388858
10	0x3cfd6700	0.030932903
11	0xbd220589	-0.03955606
12	0x3f94d112	1.1626303
13	0x3f61ecad	0.88251764
14	0xbdf5f5ac	-0.12009749
15	0xbce3135b	-0.02771919
16	0x3ece32a0	0.40273
17	0x3da9e6a3	0.082959436
18	0x3e70d8cf	0.23520206
19	0x3e4542bc	0.19263738
20	0x3de8cc35	0.113670744
21	0xbd7a6a16	-0.061136328
22	0x3ec71a72	0.38887364
23	0x3c8eb121	0.017418446
24	0x3e5fc83d	0.21853729
25	0x3e48314a	0.19550052
26	0x3ee324e6	0.4436409
27	0x3de8912b	0.113558136
28	0x3fa84d13	1.3148521
29	0xbfc6e4a7	-1.5538529
30	0xbddc3194	-0.10751644
31	0x3e897436	0.26846474
32	0x3bce68cc	0.006299114
33	0x3be76a0a	0.0070622014
34	0x3e89038d	0.26760522
35	0xbce8cb22	-0.028417174
36	0x3f4c66d4	0.79844403
37	0x3f25cfa7	0.6476998
38	0xbbd870d1	-0.0066052456
39	0x3da29515	0.079385914
40	0x3e1a5729	0.15072311
41	0x3e648506	0.2231637
42	0x3d85650c	0.06513414
43	0x3e4d9955	0.20078023
44	0xbce983c7	-0.02850522
45	0x3dcc7463	0.099831365
46	0x3d333312	0.043749876
47	0xbc3c5a90	-0.011496201
48	0x3d11ee0d	0.035627414
49	0x3e78498b	0.24246804
50	0xbd5c77c5	-0.05382516
51	0x3ea6c509	0.325722
52	0xbdad74c8	-0.0846954
53	0xbc82d41a	-0.015970279
54	0xbfa07ca9	-1.2538043
55	0xb9ea7553	-0.0004471937
56	0x3e648820	0.22317553
57	0xbe302df7	-0.17205034
58	0x3d54d057	0.0519565
59	0x3d2d3f2c	0.042296574
60	0x3e3c52f4	0.18391019
61	0x3d628865	0.055305857
62	0x3ee9e18e	0.45679897
63	0xbd08cd0f	-0.033398684
64	0x3c6cc140	0.014450371
65	0xc0003b8c	-2.0036345
66	0xbbf4da83	-0.0074723377
67	0x3ebdd7a0	0.3707857
68	0xbd29f1fd	-0.041490544
69	0xbdbef352	-0.093237534
70	0x3ea12c7d	0.31479254
71	0xbdbf7263	-0.093479894
72	0xc058cdf5	-3.3875706
73	0xbe473dd1	-0.19457175
74	0x3cb5b8e9	0.022182899
75	0xbdd2cd73	-0.102930926
76	0x3e069c14	0.13145477
77	0x3d1042a1	0.035219792
78	0xbc8bb66c	-0.017054759
79	0x3ec3744a	0.3817466
80	0x3e83f660	0.25773907
81	0x3dd010af	0.10159432
82	0x3ea042b5	0.31300893
83	0x3e82b1ea	0.25526363
84	0x3d42377c	0.047416195
85	0x3da91e3e	0.08257721
86	0x3e11b116	0.14227709
87	0xbf5304da	-0.8242928
88	0x3e9d43d7	0.3071582
89	0x3f8ceb9b	1.1009401
90	0x3c1834c4	0.009289924
91	0xbd281732	-0.041037746
92	0x401baf62	2.4325795
93	0xc0f6589e	-7.6983175
94	0x3e41288b	0.18863122
95	0x3eb2dbf4	0.34933436
96	0xbd47c9ae	-0.04877632
97	0x3dbaa70f	0.09113895
98	0xbf1f3dd3	-0.6220371
99	0x3d979858	0.07402104
100	0xbecfc3f7	-0.40579197
101	0x3efb082e	0.49029678
102	0xbe98c83d	-0.2984027
103	0xbac4f1e1	-0.0015025699
104	0x3e806cf8	0.25083137
105	0x3ef7a63b	0.4836901
106	0xbdf113f0	-0.11771381
107	0x3ea1eb60	0.3162489
108	0xbcaff23f	-0.021477817
109	0xbd826c80	-0.06368351
110	0x3e8c803d	0.27441588
111	0xbd65744b	-0.05601911
112	0xbdcc51ce	-0.099765405
113	0x3e1fc5a3	0.15602736
114	0x3ebba6e1	0.36650756
115	0x3ea185a4	0.31547272
116	0xbe3813aa	-0.17976251
117	0x3d41de61	0.047331218
118	0xc027404b	-2.6132991
119	0xbdf1f923	-0.11815097
120	0x3ea6215b	0.32447323
121	0xbe5c4136	-0.21509251
122	0x3c016f21	0.00790003
123	0xbdb517d3	-0.08842435
124	0x3edf84b4	0.43655932
125	0xbcd46f7d	-0.025932068
126	0x3e7977fb	0.24362175
127	0x3de0256e	0.10944639
128	0x3dc23345	0.09482435
129	0xbd38ffc4	-0.045165792
130	0x3ce00129	0.027344303
131	0xbcde377d	-0.027126068
132	0xbdfbc5a9	-0.1229356
133	0xbd4a96a8	-0.049460083
134	0xbe0b3a99	-0.13596572
135	0xbcd77606	-0.026301395
136	0xbd677cce	-0.056515507
137	0xbe2973e3	-0.16548114
138	0xbdae4d8e	-0.08510886
139	0xbdbc061c	-0.09180853
140	0x3c9298fa	0.01789521
141	0x3d3f8a0d	0.046762515
142	0xbdba1819	-0.090866275
143	0xbdf5f181	-0.12008954
144	0xbdda0fff	-0.10647582
145	0xbd28c06a	-0.041199125
146	0xbe1fcd74	-0.15605718
147	0x3d33a3ad	0.043857265
148	0x3dade21c	0.084903926
149	0x3dbdd55a	0.09269209
150	0xbdb780d6	-0.089601204
151	0xbdba4653	-0.090954445
152	0x3d614c2b	0.05500428
153	0xbddbedf4	-0.10738745
154	0xbdf059d3	-0.117358826
155	0xbdd53e4a	-0.10412271
156	0xbc9a993c	-0.018871896
157	0xbc88a7f0	-0.016681641
158	0xbdeed43c	-0.11661574
159	0x3dbbb6f5	0.09165756
160	0xbd9b56d1	-0.07584918
161	0x399a313c	0.0002940985
162	0x3c98af9a	0.01863842
163	0x3d75017c	0.05981587
164	0x3dd647b8	0.10462898
165	0xbd529f7e	-0.051421635
166	0x3d24abf7	0.04020306
167	0xbc228670	-0.009919748
168	0xbd5136f1	-0.051077787
169	0xbddfb906	-0.10923962
170	0x3d9e7224	0.07736614
171	0xbce51a1a	-0.027966548
172	0x3ccd4370	0.02505657
173	0xbb6a3235	-0.0035735492
174	0x3c9dd6a0	0.01926738
175	0xbdeaf7ad	-0.11473022
176	0x3dd13340	0.10214853
177	0x3d08fe00	0.03344536
178	0x3d09f6b5	0.033682544
179	0xbd92016f	-0.0712918
180	0xbdfb2cc1	-0.122643955
181	0xbd0ab378	-0.03386256
182	0xbdcdab2c	-0.10042414
183	0xbd754e04	-0.059888855
184	0x3d085d3b	0.033292037
185	0xbca3af3c	-0.01998102
186	0x3ded958e	0.11600791
187	0xbddc9502	-0.107706085
188	0xbdfcad3b	-0.123377286
189	0xbdde6206	-0.1085854
190	0xbc83f8d4	-0.016109861
191	0x3d3d8164	0.046265975
192	0x3d8e4ea5	0.06948594
193	0x3d77f840	0.060539484
194	0x3da7cbe3	0.08193185
195	0xbe32492a	-0.17410722
196	0x3c46ab7e	0.012125848
197	0x3ddf5106	0.10904126
198	0x3cccddaa	0.025008041
199	0x3d6dbb44	0.05803992
200	0xbd7f345b	-0.06230579
201	0xbe25ca76	-0.16190514
202	0x3df6c0c2	0.120484844
203	0xbd044405	-0.03229143
204	0x3d479dc2	0.048734434
205	0xbdaab740	-0.083357334
206	0xbd4dbfd2	-0.050231762
207	0x3ca975ea	0.020686109
208	0x3d7b6e6e	0.06138461
209	0xbd1a4378	-0.037662
210	0x3d81ae45	0.063320674
211	0x3b97c7db	0.004631979
212	0xbc8eb290	-0.01741913
213	0x3ccbc158	0.024872467
214	0xbc94bdf2	-0.01815698
215	0x3dd5dde3	0.10442712
216	0xbdd47793	-0.103743695
217	0x3d445ed4	0.047941998
218	0xbc66a018	-0.014076255
219	0x3d49f384	0.0493045
220	0xbe1e7fcb	-0.15478437
221	0x3dbc33d7	0.09189575
222	0x3da59dff	0.08086776
223	0x3d1b089c	0.037850007
224	0x3c1af7c1	0.009458483
225	0x3d1fd7b6	0.039024077
226	0xbd978f11	-0.074003346
227	0xbddcac4e	-0.10775052
228	0x3dbe7589	0.09299762
229	0xbe0a530c	-0.13508242
230	0xbd4a40ec	-0.04937832
231	0xbd9cca7e	-0.0765581
232	0xbe346218	-0.17615545
233	0xbd8c1d70	-0.06841552
234	0xba843d80	-0.0010089129
235	0xbe271833	-0.16317825
236	0xbdc43e8c	-0.09582242
237	0xbdc22bfd	-0.09481046
238	0xbd4234ac	-0.047413513
239	0xbca7a83c	-0.020465963
240	0x3dbc220e	0.09186183
241	0xbe3fed5c	-0.18742889
242	0xbe064b88	-0.1311475
243	0xbdd0669a	-0.1017582
244	0x3e0624f0	0.13100028
245	0x3de92c38	0.11385387
246	0xbc846790	-0.016162664
247	0xbd0b8ea8	-0.034071594
248	0xbd214018	-0.039367765
249	0x383959c9	4.4191056e-05
250	0x3c9e5670	0.019328326
251	0xbd5d48b8	-0.054024428
252	0xbd824822	-0.063614145
253	0x3cf07ed0	0.029357344
254	0x3cb4765d	0.022029096
255	0xbda17ea4	-0.07885483

10.bias f4 [64]
0	0x4258ab16	54.167076
1	0x420dafbc	35.421616
2	0xbe297a07	-0.16550456
3	0x3d1c023e	0.038088076
4	0xbe68f73e	-0.22750565
5	0x414bc828	12.736366
6	0x4251c129	52.438633
7	0x3c498fcb	0.012302349
8	0x4251d4bd	52.457752
9	0x4252aaa3	52.666637
10	0xbe30ceb4	-0.17266351
11	0x420de361	35.47205
12	0xbd883e29	-0.06652481
13	0x41b63579	22.77611
14	0x4253b20f	52.923885
15	0xbd573f9d	-0.0525509
16	0x426debc8	59.480255
17	0x425391f2	52.892525
18	0x42480d96	50.013268
19	0x41fbded5	31.483805
20	0x41b15927	22.168531
21	0x42557f54	53.374344
22	0x426bef81	58.98389
23	0x4255f7f2	53.492134
24	0x422304c8	40.75467
25	0x424c0599	51.005466
26	0xbe11b4af	-0.14229082
27	0x41be8f97	23.820112
28	0xbe1ee101	-0.1551552
29	0x4250ed06	52.23147
30	0x4253b1e8	52.923737
31	0x424d7d8d	51.37261
32	0x41d54740	26.65979
33	0x424f1b8b	51.776897
34	0x41a5bc53	20.716955
35	0xbd8fcd79	-0.07021613
36	0xc1e5c5bc	-28.72155
37	0xbe0f4163	-0.13989787
38	0x4251967a	52.39695
39	0x42542a39	53.041233
40	0x423a2739	46.538303
41	0xc1d56a7a	-26.67699
42	0xbdae5e62	-0.08514096
43	0x41c52838	24.644638
44	0xbcce382e	-0.025173273
45	0xbe3a66e9	-0.1820332
46	0x3d64f110	0.055893958
47	0x3cfab08e	0.030601766
48	0x4271fb5c	60.49547
49	0x4224e42a	41.222816
50	0x3cc91294	0.024544992
51	0x4253ae9d	52.92052
52	0x4251c567	52.442776
53	0x4256aab7	53.666714
54	0xbdf74df5	-0.12075416
55	0x425192f1	52.393497
56	0x424b6458	50.847992
57	0x4256b913	53.680737
58	0xbd0f20b9	-0.034943316
59	0xbe2a2b0a	-0.1661798
60	0x427069ab	60.10319
61	0x42110548	36.255157
62	0xbe2470f4	-0.16058713
63	0x41b683ed	22.814417
