my_model.pth (torch, 340798 bytes, 14 tensors)

0.weight f4 [128, 6]
000000 61 a4 bd 3c 0d ac 00 40 0a c3 0c c1 9f 6c 89 c0
       0.023149671 2.0105011 -8.797617 -4.2945094
000010 0f 35 0d bf 27 53 0c c0 74 95 02 be 1d 79 ac 3e
       -0.55159086 -2.1925752 -0.12752324 0.33686152
000020 d6 5f ac 41 97 c7 de be 6a 51 7a 3e af 86 38 41
       21.546795 -0.4351165 0.2444512 11.532882
000030 24 0f 0f be 0c f7 5d bd 17 a1 f3 bf 26 9f 18 c1
       -0.1397062 -0.05419068 -1.9033536 -9.538855
000040 c8 04 b8 3e 1d 0f ef 40 22 29 43 be 5b 1e d5 3d
       0.35941148 7.470595 -0.1905866 0.104061805
000050 f6 9b 40 be 17 1a 44 bd 00 cb 29 be ee a8 8a 3e
       -0.18809494 -0.047876444 -0.16581345 0.27082008
000060 23 ff a4 be 41 b9 40 be 67 17 ec bd 16 5c 7b be
       -0.32225904 -0.18820669 -0.11527901 -0.24546847
000070 78 d3 1d 3d a2 72 ce be 6e 9a 44 3c ea 3d 11 c0
       0.03853175 -0.40321833 0.0119997095 -2.269404
000080 44 70 ab c0 81 fe 02 41 b9 b2 e4 3e d6 de f6 c0
       -5.3574543 8.187135 0.44667605 -7.7147017
000090 fa 36 b7 be 65 3f 88 3e 1c fb 59 40 68 17 88 41
       -0.3578413 0.26610866 3.4059515 17.011429
0000a0 7f 66 f4 bd 46 4a e7 40 44 a6 3f bd d8 64 3b c0
       -0.11933612 7.2278166 -0.046789423 -2.92803
0000b0 71 5f ae 3f df 21 25 c1 c6 ad 61 c0 61 27 01 41
       1.3622876 -10.320769 -3.5262313 8.072114
0000c0 93 ad 6a 3d 43 53 bf c0 38 df 63 c0 10 b9 a5 c0
       0.05729444 -5.978914 -3.5604992 -5.1788406
0000d0 d1 5f 91 bf 28 19 db 40 f3 88 89 3d a6 19 11 3f
       -1.1357366 6.846821 0.06715574 0.5667976
0000e0 ec b3 59 40 b6 91 c4 bf 52 be 8f 3d 18 5f 1f c1
       3.4016066 -1.5356967 0.070187226 -9.960716
0000f0 14 8f 68 3c ba bf 2f 40 47 b9 0b 40 82 24 0d 40
       0.014194269 2.746077 2.1831834 2.2053533
000100 00 f8 81 bf fb 00 5d c1 f2 6b eb b9 76 bc f8 bf
       -1.0153809 -13.812739 -0.00044903118 -1.9432514
000110 a0 91 2d 40 20 56 5f 41 79 0d 0e 3f ef 6d 5e 3f
       2.7120132 13.958527 0.5548931 0.86886495
000120 67 fe 12 3c 9e ab 1c c0 82 c6 d1 c0 bc 8f 95 41
       0.008971787 -2.4479747 -6.555482 18.695183
000130 52 c6 c5 3e 79 ee 57 40 38 a6 28 3d eb 78 66 3f
       0.3862787 3.3739302 0.041174144 0.90028256
000140 ef cc 46 40 0d 62 95 c0 9a 2a fa bd c8 54 18 c1
       3.1062582 -4.668219 -0.12215157 -9.520699
000150 74 69 b3 3d 32 60 03 bf 4c f9 6a 40 db 2a d8 40
       0.08760348 -0.5131866 3.6714659 6.7552314
000160 c0 70 f7 bd de 4e e0 40 9a 03 9f 3d ad da 0e 40
       -0.12082052 7.0096273 0.07764359 2.232097
000170 73 69 5b c0 c7 b8 05 c1 8e 52 c0 bf 65 c5 e1 c0
       -3.428311 -8.357612 -1.5025194 -7.055346
000180 34 36 11 be a4 b6 0b 3f 05 ba e3 c0 63 9d bf c0
       -0.14180833 0.5457556 -7.1164575 -5.9879622
000190 1f 74 74 be 1b a1 e0 40 8e b7 5c bd 1a ba 97 be
       -0.23872422 7.019666 -0.05388599 -0.29634172
0001a0 4e e5 1c 3c a3 c7 8e be a4 55 b1 be d4 33 66 be
       0.009576155 -0.27886686 -0.3463565 -0.22480708
0001b0 1c 3a c9 be 65 59 98 be 54 eb b9 3e e8 08 23 3d
       -0.39302146 -0.29755703 0.36312354 0.039803416
0001c0 e1 9f b4 3d 85 69 dc be ea 47 89 be 2e 26 0b be
       0.08819557 -0.43049255 -0.2681268 -0.13588783
0001d0 a0 bd 82 3d 85 ec b7 be f7 1f 34 be 6b 45 7a be
       0.06383824 -0.35922638 -0.17590319 -0.24440543
0001e0 ce d7 60 bb 5a a1 21 be 91 c0 01 bd fa 9d 90 be
       -0.0034308317 -0.15784207 -0.031677786 -0.28245527
0001f0 af 81 92 be 0c 3b 79 be 40 6e e6 bd 93 37 fc be
       -0.28614566 -0.24338931 -0.11251497 -0.4926115
000200 bd 2a f5 c1 e9 8e 20 c1 5a 7c 9f 3e 2d 31 4c c1
       -30.645868 -10.03489 0.3114956 -12.762006
000210 0a 00 b1 be c0 a6 90 3e e9 0b e6 bd 7f 3f 20 be
       -0.34570342 0.2825222 -0.112327404 -0.15649222
000220 02 81 ad be 75 cd cf be a1 62 f3 bd b0 29 58 bf
       -0.33887488 -0.4058644 -0.11884046 -0.8443861
000230 b4 99 0f 41 aa 31 67 41 f8 de 9a bb 0a b6 d9 40
       8.975025 14.449625 -0.004726287 6.8034716
000240 0d 53 36 bd f0 10 74 3d 6c 82 32 c2 3b 42 67 c1
       -0.044512797 0.059586465 -44.627365 -14.45367
000250 e3 ce a9 3e 45 29 18 c1 59 cd 78 3c cf bd 5f be
       0.33165655 -9.510076 0.015185677 -0.2184975
000260 16 89 cc 3f 34 fc 0d 41 e7 1b 81 3e 58 99 51 c1
       1.5979335 8.874073 0.252166 -13.099937
000270 89 6a c6 3b 53 69 9a be 10 30 a3 c1 86 d0 78 c0
       0.0060551804 -0.3015848 -20.398468 -3.8877273
000280 b4 2b 36 3d 10 de a3 40 b3 78 6f 3d 9f d9 02 c0
       0.044475272 5.1208572 0.058464717 -2.0445325
000290 ac df 59 40 86 6a 8c 3f bb 5f cf bd e5 ab fb 40
       3.4042768 1.0970008 -0.10125681 7.864733
0002a0 60 52 df ba e9 8b ae bf 01 c6 0b 40 26 d7 64 41
       -0.00170381 -1.3636447 2.1839602 14.302526
0002b0 a7 86 c6 3e 8b f6 f2 40 6c 10 06 bf 87 c3 56 be
       0.38774607 7.5925956 -0.5236881 -0.20973025
0002c0 0e c8 f3 c0 ca 3e e8 bf 53 b3 67 3e 67 d7 6d c1
       -7.6181707 -1.8144162 0.22627 -14.865088
0002d0 6b 7b 3e bc 5d 76 97 3e c1 4b f1 3f 79 32 de bf
       -0.011626105 0.29582492 1.8851243 -1.7359153
0002e0 f6 73 86 bd ba 58 49 c1 9c b9 04 be bf 15 9c 3e
       -0.065650865 -12.584162 -0.1296143 0.3048534
0002f0 b2 c7 ab c0 89 d3 21 c1 20 2a 12 3f 44 f8 d6 40
       -5.368127 -10.114144 0.5709553 6.717806
000300 81 d3 6f bd 29 99 4d 3f 08 f4 9f c0 d2 2d 8d c0
       -0.058551315 0.8031183 -4.998539 -4.4118433
000310 6f ac 24 be 86 9d d1 c0 88 6e 1f bb a3 19 ba be
       -0.16081403 -6.550479 -0.0024327356 -0.36347684
000320 d6 31 97 40 a6 93 1c 41 11 05 b3 3e 22 be 02 41
       4.7248335 9.786047 0.34964803 8.171419
000330 7b 0e 83 bd 30 4f 82 be f2 91 9d be 0d 52 cf be
       -0.06399246 -0.2545104 -0.3077541 -0.40492287
000340 ea 09 15 be ae af de 3d 09 f4 36 3c 67 d0 3b 40
       -0.14554563 0.10873352 0.011166581 2.9345949
000350 21 e5 d1 3f 0d 51 f2 c0 1f aa 83 bf e6 59 e7 40
       1.639805 -7.572394 -1.0286292 7.229724
000360 85 ff cc bc 5e 08 04 c0 8c 2f 54 40 b2 ad 16 41
       -0.025024185 -2.0630107 3.315402 9.417406
000370 b3 e2 0b 3e 2e 79 e2 40 d9 32 04 be f6 fa ad be
       0.13660698 7.0772924 -0.12910022 -0.3398053
000380 13 c1 b1 c1 ae 49 bd c0 48 6b e5 3d a1 b4 74 c1
       -22.219275 -5.915244 0.11202103 -15.294099
000390 bc 39 f6 be dd 26 10 bf f9 9f 37 3f 63 33 d9 3e
       -0.48090923 -0.563093 0.71728474 0.42422017
0003a0 70 02 25 3e e1 1c 2b c0 eb d5 b6 bd ed e4 4f c1
       0.16114211 -2.6736376 -0.0892752 -12.99339
0003b0 20 96 95 3f 4a 66 be c1 e8 fe 61 c1 1e 0c dc 40
       1.168644 -23.799946 -14.124733 6.876479
0003c0 2d 9f 6a 3d 3e 19 7f bf 8b 8b a5 40 aa 63 28 41
       0.057280708 -0.9964789 5.173284 10.524332
0003d0 06 13 25 3e ac 95 cf 40 39 94 88 be a4 ab 0a 3e
       0.16120538 6.4870205 -0.26675585 0.13542038
0003e0 d2 7b f8 bd fc 09 81 3e e7 1c 06 be 20 55 99 be
       -0.12132992 0.2520293 -0.13096963 -0.29947758
0003f0 be 12 a6 bd ab 6f 58 be 5e cf 00 c2 23 bb 1e c1
       -0.081090435 -0.21136348 -32.202507 -9.920688

0.bias f4 [128]
000000 bd 43 59 c2 e3 a6 92 41 0b 41 3e 41 24 bd 27 3e
       -54.31615 18.331488 11.89088 0.16380745
000010 c4 1d 7a be 02 c2 ce c1 a8 0d 96 41 05 ed 9a 41
       -0.24425417 -25.84473 18.756668 19.365732
000020 d3 8e f0 41 69 ed ed c1 84 f7 45 c2 5a f3 be 41
       30.069738 -29.740923 -49.491714 23.868824
000030 42 8c 78 c1 64 ba ec c1 ea 92 44 42 9c 0e 10 c2
       -15.534243 -29.591011 49.14347 -36.014267
000040 40 0e 92 c1 51 43 cf be b0 4e 34 3e 53 70 c7 3d
       -18.256958 -0.40481046 0.17608142 0.09738221
000050 da 56 59 be 6b 3a 60 c1 82 0f 3d be 9d e5 27 42
       -0.21224537 -14.014262 -0.18462947 41.97423
000060 40 a3 c1 c1 b6 8d 2a c2 0a d2 80 c2 f3 cc 80 42
       -24.204712 -42.63839 -64.41023 64.40029
000070 6e e3 10 42 d7 47 2d c0 ae 4a 24 c2 ff 15 d0 bc
       36.2221 -2.7075098 -41.07293 -0.025401114
000080 b6 ff 0a c2 c0 06 49 42 1a 3d c8 be 06 7a 27 42
       -34.749718 50.25659 -0.39109117 41.869164
000090 53 d3 30 42 da 04 23 c1 56 b0 42 3e 04 ec 1c 42
       44.20637 -10.188684 0.1901258 39.230484
0000a0 4a cb 44 42 ef 56 7f be 96 61 65 c1 86 f9 e5 c1
       49.198524 -0.24935506 -14.336325 -28.746838
0000b0 88 c5 d4 c1 c3 09 1d 42 8a 74 65 3e e5 b8 dc 3f
       -26.59645 39.259533 0.22407737 1.7243925
0000c0 f7 34 0a c2 32 4f 02 42 d6 c3 1d c2 48 43 ce c1
       -34.551723 32.57734 -39.441246 -25.782852
0000d0 b2 3d 3b 3d a9 58 61 c1 96 90 6d be b2 a9 40 c2
       0.045713134 -14.084146 -0.23199686 -48.165718
0000e0 34 bf f1 bd 2b 81 86 c0 00 2c d5 c0 a2 a5 6e be
       -0.11804047 -4.2032676 -6.661621 -0.23305371
0000f0 b1 64 14 40 2c 0a 34 42 c1 0f 4e 3e e2 a0 4b 42
       2.3186457 45.009933 0.20123197 50.907112
000100 57 06 54 42 ac 9c a6 be ea 47 97 be e0 65 8b 42
       53.00619 -0.32541406 -0.29547054 69.698975
000110 75 9a 5c 41 d1 68 b4 41 06 24 4a 42 49 78 56 c1
       13.787709 22.55118 50.53518 -13.4043665
000120 09 30 f1 3d 42 48 ec 40 21 0b 15 c2 75 eb d4 be
       0.1177674 7.3838205 -37.260868 -0.4158589
000130 e5 52 0e bf 24 04 4a 42 e8 b1 38 c1 09 9b 9a bd
       -0.55595237 50.504044 -11.543434 -0.07549102
000140 3f 5c f9 41 ab ca 8e 41 1c 11 a5 41 98 54 63 be
       31.170042 17.848959 20.633354 -0.22200239
000150 f8 e0 f9 c1 9c 88 75 42 5d c7 55 42 e5 53 01 c2
       -31.234848 61.383408 53.44469 -32.33193
000160 aa 95 07 42 5a c9 7f 41 b3 9a b6 40 7c 06 09 c2
       33.896156 15.986658 5.706384 -34.256332
000170 32 89 36 c2 7c f8 eb 41 fa bf ba 3e 07 4b 6a 40
       -45.63398 29.49633 0.36474591 3.6608293
000180 12 48 49 42 03 c2 3a 42 ef 47 87 42 15 ac 33 c0
       50.32038 46.689465 67.640495 -2.807378
000190 4d a3 d1 3c 07 6d 31 c0 9b 45 e4 bd c7 7a c8 3e
       0.025590563 -2.7722795 -0.11146089 0.39156172
0001a0 ca 80 12 3d 4f 2b 0f 3d 8f 7a b8 bd b8 f0 1d c2
       0.035767354 0.03495341 -0.09007751 -39.485077
0001b0 a4 be fb c0 53 46 0f 42 9e 69 e7 3d cb 9d 82 41
       -7.8670216 35.818676 0.11299442 16.327047
0001c0 d8 05 5b 42 92 8e 2c 3e a7 53 85 3d 66 79 d5 41
       54.755707 0.16851261 0.06510096 26.684277
0001d0 a6 d5 7e c2 12 cf 9d 3e bb 6a e0 3d 31 db ff 41
       -63.70864 0.30822045 0.10957857 31.982027
0001e0 95 f6 b0 be 5e 2c 0e 42 40 86 69 bb 5a 66 81 41
       -0.34563127 35.543327 -0.0035632998 16.174976
0001f0 f5 01 8c bd c9 27 4f 42 64 ee 92 3e eb 74 91 3d
       -0.06836311 51.788853 0.28697503 0.071023785

2.weight f4 [128, 128]
000000 95 24 90 bd ae 1d 8e bd 0b 68 7f bd d4 ed 0b bd
       -0.070382275 -0.06939255 -0.062355082 -0.034162357
000010 d7 c6 a2 3d 9f 1f cb 3b 0a f5 38 3d eb ab e3 bb
       0.07948082 0.006198838 0.045155562 -0.0069479845
000020 18 97 2d 3c fe dd ed bb e3 26 ba bd 9f 8b 06 bd
       0.010595106 -0.0072591295 -0.09089448 -0.032847997
000030 0f 3d 03 bd a0 bf af bd ef 10 c5 bd 75 40 a0 3d
       -0.032040652 -0.085814714 -0.096223705 0.07824794
000040 5d 3f c1 3d 28 cb 27 3d d7 bc ac 3d 0b eb 12 bd
       0.09435914 0.04096523 0.08434456 -0.035868686
000050 12 21 7a bc f1 19 52 ba 0d 46 6f bc 40 b3 6a bd
       -0.015266674 -0.000801473 -0.014604104 -0.057299852
000060 37 d8 e7 bd f4 fd 82 bc a0 95 ec bc da a7 52 3b
       -0.113205366 -0.015990235 -0.02887994 0.0032143504
000070 56 fb 3c 3d 61 69 cc bc b1 a5 8a bd 73 75 5b 3c
       0.04613813 -0.024952592 -0.067698844 0.013394701
000080 9f 6d 02 bc f8 b8 3e bd 54 06 a9 3d a3 0a 32 bd
       -0.007960706 -0.04656312 0.0825316 -0.043467175
000090 3f 45 cf bc 56 c0 a9 bd 4e bf c8 bc ed 66 49 bd
       -0.025301574 -0.08288638 -0.024505284 -0.049170423
0000a0 0f 24 9a bd 58 3e 12 3d 76 11 d8 bc 81 ac df bc
       -0.07526409 0.035703987 -0.026375514 -0.027303936
0000b0 a7 14 c8 bd 4b f4 8a bd 64 cb 18 bd e4 a0 eb bc
       -0.09769564 -0.067848764 -0.037303343 -0.028763242
0000c0 f6 1b b2 bd 78 61 db bc ca ff 84 bd e5 0e d2 bd
       -0.086967394 -0.026779875 -0.064941004 -0.10256747
0000d0 18 e6 93 bd d6 26 5c ba fa f4 59 bd 07 0c 33 bd
       -0.07221621 -0.0008398121 -0.053212143 -0.043712642
0000e0 ec e3 8d 3d a4 92 50 3c 37 4a 8c 3c 09 e1 ab bd
       0.06928238 0.012730274 0.017125232 -0.083925314
0000f0 16 cf 81 bd 57 76 94 bd 26 8a 95 3d 05 ec a1 bc
       -0.06338327 -0.07249134 0.0730174 -0.019765863
000100 a4 88 d6 bd e8 16 11 3a aa 97 8c bd 13 a5 9e bc
       -0.10475281 0.00055347243 -0.06864865 -0.019365823
000110 1f f5 57 bd a1 3e a1 3d 20 6d 37 bc eb ec 4b bd
       -0.052724 0.07873274 -0.011195451 -0.04978649
000120 8c a2 74 3c 24 04 d1 bc be db 7d bc 9c 35 0f 3d
       0.014931332 -0.02551467 -0.015494285 0.034963235
000130 ba 72 c2 3c 97 ff de bc 4d 19 1d 3d ee 11 51 bc
       0.023736347 -0.027221484 0.038354207 -0.012760622
000140 19 90 2a bd c1 a9 0e 3d c9 a3 67 3d a6 24 b4 3d
       -0.04164133 0.03482986 0.056552682 0.08796053
000150 3a 5e ac 3c 62 d5 f6 bc 49 35 80 3c 93 6d 10 3d
       0.021041024 -0.030131046 0.015650408 0.035260748
000160 d9 1e ff bd 1a ef 94 bc 90 61 1c bd c8 6a 17 3c
       -0.124570556 -0.018180419 -0.03817898 0.009241767
000170 73 1e bf 3b 79 0d bd bc 06 4c f2 bb 60 58 0b 3d
       0.0058324873 -0.023077713 -0.0073943166 0.034019828
000180 9b 43 41 bd 76 35 89 bd 0f d7 90 3d 21 33 6d bd
       -0.047183614 -0.0669965 0.07072269 -0.05791009
000190 95 17 1f bc 10 ed bf bc 21 0f ae bb 48 48 aa bd
       -0.009710212 -0.02342847 -0.005311862 -0.08314568
0001a0 73 1a 26 3d 0a 73 24 bd 5b c6 3b bd a1 86 63 3c
       0.040552568 -0.040148772 -0.045843463 0.0138870785
0001b0 46 6c af bd 6f df 91 bd 52 fa f3 bc 01 a0 25 bd
       -0.085655734 -0.07122695 -0.029782448 -0.040435795
0001c0 3b e3 80 bd ff 45 c3 bc 8f 2b bc 3c a7 4a a1 bd
       -0.06293341 -0.023837088 0.02296999 -0.07875567
0001d0 06 c0 78 bd a4 0b a9 3a 64 64 49 3c 06 56 2a 3d
       -0.060730003 0.0012897146 0.012292001 0.041585945
0001e0 d7 4f 7e bd 84 cf 44 bc 71 c7 4d 3d 13 69 2b 3d
       -0.06208786 -0.012012366 0.05023903 0.041848253
0001f0 f5 9a a8 bd 2a 2c 96 bd 16 99 9b bd 2a 1a 65 bd
       -0.08232681 -0.073326424 -0.07597558 -0.055933155
000200 88 42 14 3d 10 62 cb bc ae 34 c6 3c dc 84 54 bd
       0.03619626 -0.024827033 0.024195042 -0.051884517
000210 ba 0f 5c 3c 0f bd 87 bd 3e 01 fb 3c 4e 7f 55 bd
       0.013431484 -0.06627857 0.03064024 -0.05212336
000220 d6 bb 0d bd 78 de b8 bd 51 7c 5a bc 33 9a 90 3d
       -0.034602962 -0.090268075 -0.013335303 0.07060661
000230 50 a9 f7 3c 02 78 78 bd 6f d7 3b bc 94 14 b5 bc
       0.030232102 -0.060661323 -0.011464938 -0.022104539
000240 e2 d6 ab bd 87 ef 8d 3d 06 c3 ba 3a 11 7d 98 3c
       -0.08390595 0.06930452 0.0014248795 0.018614324
000250 e3 eb 2b bd 4a 53 57 bd 1d c9 6e 3c ee db 9c 3c
       -0.041973006 -0.052569665 0.014574316 0.01914784
000260 b0 e5 e2 3b 75 4c 66 bd 7d 2c 94 3d 06 62 d0 bc
       0.0069243535 -0.05622526 0.07235048 -0.025437366
000270 66 76 8a bd 13 5c 53 bd c1 66 96 3d 01 e0 51 bc
       -0.06760864 -0.05160148 0.073438175 -0.012809754
000280 5d 01 ce bc 63 7c 4e bd 44 d0 bd bc 03 1c b3 bd
       -0.025147134 -0.050411593 -0.023170598 -0.08745577
000290 8a 3f a9 bd 84 ba 27 3d bd 8d 8e 3d 0b 37 93 3d
       -0.08264072 0.04094936 0.06960628 0.07188233
0002a0 1c d0 9c bd 3c d0 43 3d f6 e1 87 bd a9 f4 20 3d
       -0.07656881 0.04780601 -0.066348955 0.039295826
0002b0 05 e5 4f 3d c6 1a 61 3d dc 57 82 3d 52 7b 62 3d
       0.05075552 0.054957174 0.06364414 0.05529339
0002c0 3e 02 32 bc 31 eb e5 3c 81 d4 33 bd 7f f8 d8 3c
       -0.010864792 0.02806625 -0.04390383 0.02648568
0002d0 ce c3 1d bd 9b 36 6b bc 2f 8e 9d bd 81 10 15 bd
       -0.038516812 -0.014356281 -0.07693135 -0.036392692
0002e0 e7 62 3e bd 28 dd 24 bd 6a d0 88 bd 19 d1 a2 bd
       -0.04648104 -0.040249974 -0.06680377 -0.079500385
0002f0 da aa 93 bb d9 fe 32 3d fe dc a4 3d 38 7e 1d 3d
       -0.004506451 0.043700073 0.080499634 0.03845045
000300 89 5e 73 bd 4f 9b c7 bd 87 53 09 3d 75 70 18 3d
       -0.059416328 -0.0974642 0.033526924 0.037216622
000310 20 c0 b2 bd 05 77 9c 3c 79 7c 7b 3d a1 1f b3 bb
       -0.08728051 0.019099722 0.061398003 -0.005466417
000320 07 1d 5a bd d9 69 94 3d 49 7d c8 3c 30 58 43 3d
       -0.05325034 0.07246751 0.024473803 0.047691524
000330 4e b8 86 bd 34 f2 1f 3d fb f0 96 bd 1b 1e b3 3d
       -0.06578122 0.039049342 -0.07370182 0.087459765
000340 43 ab 4c bd ba 06 24 3d d2 04 8c 3b f0 0d f1 3c
       -0.049968015 0.040045477 0.0042730356 0.029425591
000350 6e 74 d9 bc 45 4a c4 3c 04 c1 4b bd f7 3b c5 bd
       -0.026544776 0.023961196 -0.04974462 -0.09630578
000360 e7 e9 3f bd 7e 02 68 3d a2 48 0b bd 47 11 72 3c
       -0.046853926 0.056643 -0.034004815 0.014774627
000370 a1 23 33 bd d4 62 59 3d 36 ad 58 3d 88 66 ab 3c
       -0.04373515 0.053072765 0.05289956 0.020922914
000380 0c 9a 6a bd 10 4d ad bd 5a 0d 14 bc 02 43 7e bd
       -0.057275817 -0.08461964 -0.009036386 -0.062075622
000390 3d d5 94 3d b5 c9 c2 bd 68 2f 09 3d f1 75 b4 3d
       0.072672345 -0.09511129 0.033492476 0.08811558
0003a0 ba 51 35 3d 1d e5 f6 3c ca 2a ae bd 51 0e 93 3d
       0.044267394 0.030138547 -0.08504255 0.07180465
0003b0 b9 ba e5 bc ca e7 c3 bd 30 c8 a4 3d 04 31 48 bd
       -0.028043138 -0.09565695 0.08045995 -0.04887487
0003c0 8f de 9d bc ec ae a5 3d 28 f7 7a bd f0 75 9b bd
       -0.019271163 0.08090004 -0.061270863 -0.07590854
0003d0 b2 76 89 3a b1 37 9a bc af c9 41 3c bf 69 b2 bd
       0.0010487644 -0.018825384 0.01182787 -0.08711576
0003e0 da 3c 2d 3b cc ee 57 bd 3e fb 31 bd 1e 0b c1 bd
       0.0026433975 -0.05271797 -0.043452494 -0.094259486
0003f0 a5 f5 3f 3d 05 5b 61 3b 09 d9 ab bd 59 59 83 3d
       0.046865124 0.0034386527 -0.083910055 0.06413526

2.bias f4 [128]
000000 5e b2 9e 3c 08 7b 81 3d 05 a0 ce 3f 33 b5 d0 bd
       0.019372161 0.063222945 1.6142584 -0.10190811
000010 a9 de 3e c1 b6 a5 ea 3f d0 f1 7f 3c 0b f1 07 bb
       -11.92936 1.8331821 0.015621617 -0.0020743038
000020 a1 58 ce bd 9e 28 47 c2 b5 cf 73 3d bb 22 ed bc
       -0.10075498 -49.789665 0.059524257 -0.028947225
000030 db 16 cb ba 3a 6d 91 bf b6 a5 99 bd 96 24 11 40
       -0.0015494482 -1.1361458 -0.0750231 2.267858
000040 84 3c 13 40 18 25 87 bd 31 19 2f c1 b4 67 7a 3b
       2.3005686 -0.06598872 -10.94365 0.0038208785
000050 74 b9 94 3e 8b 2c 8c bc ee a4 6f bf cd d7 13 3f
       0.2904774 -0.017111083 -0.9361104 0.5775116
000060 db 3c cf 3f 35 5e 14 3d 22 65 e6 40 31 17 4b 3b
       1.6190447 0.036222655 7.1998453 0.0030989165
000070 32 ca d3 bd 93 bf 5f 42 f4 2f 7b 3d 18 6c 8d 40
       -0.103413 55.937084 0.06132503 4.419445
000080 d1 cb f2 41 35 47 81 3c 61 dd 01 41 46 18 dd bd
       30.34952 0.015781024 8.116548 -0.107956454
000090 48 1e 8e 3c 08 8e f5 be ba 79 50 bd 4c e1 af bd
       0.017348424 -0.47959924 -0.050897337 -0.08587894
0000a0 af 31 e9 bd 2b 62 8c bd 8a 31 80 c1 c3 be 0a 40
       -0.113864295 -0.068546616 -16.024189 2.1678932
0000b0 ac a5 cb 3f dc 3d 48 40 cd 99 64 bd b9 b7 61 bd
       1.5909934 3.1287756 -0.05581074 -0.055106852
0000c0 d5 df 69 40 2e 9a 63 42 11 7b 6d 42 8a 86 50 40
       3.6542866 56.900566 59.370182 3.2582116
0000d0 64 e9 67 3d 18 e0 39 c2 48 f8 25 42 d7 2e 04 bd
       0.056619063 -46.46884 41.492462 -0.032271232
0000e0 71 06 30 40 93 b8 84 42 68 74 90 3e d9 c6 9e bd
       2.7503932 66.3605 0.2821381 -0.07752771
0000f0 69 67 1e bd 9e f3 b2 bc 14 85 ad 3c c3 0c 5e 40
       -0.03867284 -0.021844681 0.02118162 3.469529
000100 bc 65 97 bd 6d 27 91 3e ed b0 cd 3c 2a 45 d4 be
       -0.07392451 0.28350392 0.025108779 -0.41459018
000110 93 4d 5a 40 7b 05 b3 3f db 01 4d bd d1 f6 af 40
       3.4109848 1.3986048 -0.050050598 5.498879
000120 b6 79 a3 3c 3b 42 bd 3e 86 f2 a2 3b 2b eb 67 40
       0.019955497 0.36964592 0.0049727587 3.6237285
000130 19 61 39 bd 42 73 a3 bd 19 e1 18 3d b8 5d 90 3e
       -0.045258615 -0.07980968 0.037324045 0.28196502
000140 77 a6 b5 bd a3 ac 1a 41 3e ae e2 3f a9 17 85 40
       -0.08869641 9.667148 1.7709424 4.159138
000150 20 46 9b bd b6 6e ed 3c d6 91 c4 bd 0f d5 c8 bd
       -0.07581735 0.028983455 -0.095981285 -0.09806263
000160 78 f0 62 be d3 10 10 3d 05 42 14 3d a8 3b 35 42
       -0.22162044 0.035172295 0.036195774 45.308258
000170 97 2a 1b 40 73 03 72 be cc 72 f4 3d cd 53 a8 bd
       2.4244745 -0.23634128 0.11935958 -0.08219109
000180 e9 c3 cf bd e0 5c 46 c0 ac 02 7f bd 21 cf d0 bd
       -0.10144789 -3.0994186 -0.062258407 -0.10195757
000190 bc 09 61 3e 4b e9 0b bf c9 cc 64 40 64 e0 67 bd
       0.2197637 -0.5465285 3.574999 -0.05661048
0001a0 9f 14 1c bd 3d 68 40 40 e2 fb 99 bd cd c4 ae 40
       -0.038105603 3.0063622 -0.07518746 5.4615235
0001b0 d7 af f3 3c 8a 0d 6a bd 95 45 48 c1 24 57 0b bd
       0.029746933 -0.057141818 -12.516988 -0.03401865
0001c0 e0 df cd 3f de 16 b0 bd 15 89 02 41 af 54 c8 41
       1.6083946 -0.085981116 8.158467 25.04135
0001d0 85 0a 12 40 a0 19 99 c1 a1 1b 65 40 eb 3c 2c 40
       2.281892 -19.137512 3.5798113 2.6912181
0001e0 5e 61 1e bf 18 7a ff bc a4 41 f5 bd 7b e0 9b 3c
       -0.6186732 -0.031186149 -0.119754106 0.019027939
0001f0 7b 46 1e 3e ea 08 2e 3c dd 1d 68 c0 02 35 b2 38
       0.15456574 0.010622242 -3.6268227 8.497575e-05

4.weight f4 [128, 128]
000000 38 04 2e bd f4 9f ed 3b 71 5e 4d bd 3d af 2e 3d
       -0.042484492 0.007251734 -0.050138894 0.04264759
000010 60 76 8d 3d a1 eb 7f bd 35 25 d1 3c ca d5 ae bc
       0.06907344 -0.062480573 0.025530437 -0.021342177
000020 ed 53 7f bd 54 0a 4c 3e 69 65 a0 bd 76 9f 33 bd
       -0.062335897 0.19925815 -0.078318425 -0.043853246
000030 2e 66 7e bd b9 da e8 3c 8b 39 17 bd 70 26 d1 bc
       -0.062109165 0.028424608 -0.03692011 -0.025531024
000040 29 99 c6 bd 29 23 43 bd e5 b7 80 3e 2d 87 83 bd
       -0.09697182 -0.047640953 0.251403 -0.06422267
000050 53 e4 a5 3c c2 5a 99 3d 2e 2a 6e bd e5 0c ae bd
       0.020250475 0.07488014 -0.058145694 -0.08498553
000060 07 36 dd bc 46 b9 92 bd b5 ce 11 3e 23 c4 d0 bc
       -0.027003301 -0.07164244 0.14239009 -0.02548415
000070 6d 49 c4 bd 29 69 2d be 08 81 c2 3c 20 23 be bb
       -0.09584317 -0.16934647 0.023743168 -0.005802527
000080 60 b5 da be 04 6e 49 3d c2 44 3a 3e 4f 13 56 3c
       -0.42716503 0.049177185 0.18190292 0.013066127
000090 d3 1a ec bc 4b 68 0d be b4 10 9e 3c b6 2f 87 bd
       -0.028821385 -0.13809316 0.019295074 -0.06600897
0000a0 12 5c 4e bd 15 33 a6 bd 57 08 6f 3e 98 c2 48 bd
       -0.050380774 -0.08115212 0.23343025 -0.049013704
0000b0 72 8c 78 3e e8 20 27 bc 36 d2 ab 3d 11 7e 1d 3d
       0.24272326 -0.010200717 0.08389704 0.038450304
0000c0 42 7e e8 bd 10 91 8b bf 8c 1c a8 3d b0 32 c7 bb
       -0.11352207 -1.0903645 0.0820857 -0.0060790405
0000d0 99 d3 2e bd c0 81 35 3f 06 9e 1b be 78 52 30 bc
       -0.042682264 0.7090111 -0.15197 -0.01076185
0000e0 49 af a8 3e f6 b0 36 3e 6d cd 28 bd 4b 15 90 bc
       0.32946232 0.17840943 -0.041211534 -0.017588278
0000f0 07 bf 6e 3c f9 39 8d bd 66 f8 41 bd 00 17 a2 3b
       0.014571912 -0.06895823 -0.04735603 0.0049465895
000100 93 54 d1 bd b0 48 07 3d 8e 2f 59 bc 14 d3 4e bc
       -0.102212094 0.033028305 -0.013255967 -0.012623567
000110 7d 43 86 3e 1e f8 02 be ae 56 31 bc cb f5 ae bd
       0.26223364 -0.12789962 -0.010823889 -0.08542975
000120 5e 43 36 bc f6 bc d3 3b 9d d5 ac bd 53 3c 8a be
       -0.01112446 0.006461735 -0.08439181 -0.2699915
000130 17 1a 1b 3c 84 d1 19 3d 31 5b 1a 3c c6 bf d5 3c
       0.0094666695 0.037553325 0.009421156 0.026092421
000140 b6 82 62 bd 6c 55 12 3e e1 e0 12 be dd 40 87 bb
       -0.055300437 0.14290398 -0.14343597 -0.0041276054
000150 af f2 1b bd 93 08 26 3d 31 20 3e 3d a4 69 9d bd
       -0.038073238 0.04053552 0.04641742 -0.07686165
000160 b5 1f 7c 3b 90 ae d8 3c f0 e4 04 3d f9 99 01 be
       0.0038471047 0.026450425 0.032444894 -0.12656392
000170 ec 34 20 bc 62 ba b6 bb 94 5e ba bb db 42 76 bc
       -0.009778243 -0.005576418 -0.005687544 -0.015030588
000180 97 b0 04 3c a8 31 ca 3d 86 98 75 bc 78 28 5c bd
       0.008098743 0.098727524 -0.014989978 -0.05374953
000190 d6 fe 54 bd 76 60 f1 bd 59 62 99 3d b4 af 59 3d
       -0.052000843 -0.117859766 0.074894615 0.05314608
0001a0 39 17 63 bd 33 7f 3b 3c e9 f4 aa 3d 79 29 9b 3d
       -0.05544207 0.011443901 0.08347494 0.0757627
0001b0 6b 23 19 3c 3d 1c e0 3d 9b bd 69 be 16 0c 70 3c
       0.009346823 0.10942886 -0.22826235 0.014651319
0001c0 2f c0 ca bd e7 69 33 bd 0b f9 16 3c 15 f8 56 bd
       -0.09899937 -0.04380217 0.00921465 -0.052482683
0001d0 39 09 fd 3d 17 ac 9d 3e 35 a2 1d 3d d0 87 db 3e
       0.12355275 0.30795357 0.03848477 0.42877054
0001e0 e8 72 d7 bd ac 58 04 bd f6 10 83 3c 30 ff a2 3d
       -0.105199635 -0.032311127 0.015999299 0.079588294
0001f0 a0 42 71 bb 40 2a cc 3c f5 56 d6 3e 03 9e 4e 3d
       -0.0036813393 0.02492249 0.41863218 0.05044366
000200 e0 bc a9 bd d9 03 0b 3d e0 9a 7c bb 3f c0 10 bd
       -0.08287978 0.033939216 -0.003854446 -0.03533959
000210 92 97 b9 bd 0d ad d0 bb d4 d1 9d bc 00 ab 81 3b
       -0.09062113 -0.0063682855 -0.019265093 0.0039571524
000220 9d db 95 bc 9b 06 37 bd 63 77 01 bd b2 13 ac bd
       -0.018293196 -0.044684034 -0.031607997 -0.08402194
000230 34 32 ad 3c 52 f3 57 bd c6 66 03 bd b8 38 af 3c
       0.021142103 -0.052722283 -0.032080434 0.02138935
000240 f5 c1 9a bd e0 34 f2 bb 73 75 09 be c0 1d 07 bd
       -0.075565256 -0.007391557 -0.1342371 -0.032987356
000250 8c a7 61 3d 03 f3 9a 3b 75 b3 a1 3c 03 6b 08 3d
       0.055091426 0.0047286763 0.019738892 0.03330518
000260 e4 c7 7e 3b 83 f6 84 3d c9 7b 84 bc 49 68 57 3d
       0.0038876468 0.06492331 -0.016172307 0.05258969
000270 4e 42 9c bd 1b 9f 9a 3c c5 8b cc 3c f5 ff 7a bc
       -0.07629834 0.018874696 0.024968991 -0.015319814
000280 cc 66 00 be ad 50 2d 3d 65 97 41 3c cc 3b 88 bd
       -0.12539214 0.042313267 0.01181588 -0.0665203
000290 17 3c 8b 3d af 53 a5 3d 56 69 25 bc 8b 2a e6 bc
       0.067985706 0.08072602 -0.010095915 -0.028096458
0002a0 8d 8c ae bb 21 a7 98 bd 8f b7 ea bd 73 5a 60 bd
       -0.0053268136 -0.07453752 -0.11460792 -0.05477376
0002b0 45 50 6f bd e1 a1 2b 3d e2 b7 54 3d be 55 c9 bc
       -0.05842616 0.041902427 0.051933177 -0.024577018
0002c0 31 41 ec bd d4 d9 d5 bb ff 44 86 bd 31 9b 84 bd
       -0.11535872 -0.0065262113 -0.06556129 -0.06474913
0002d0 42 c8 a0 3d bf b5 5e 3c 7d 72 fe bd 20 b6 8a 3d
       0.07850696 0.013593136 -0.12424181 0.06773019
0002e0 f5 16 cc bd 2a 64 23 be 01 0a 10 3d 5b 98 68 3d
       -0.09965316 -0.15956178 0.03516579 0.056785922
0002f0 69 43 83 bc c4 0e 8a bc d3 a5 af bd e8 ba e8 bb
       -0.016023355 -0.016852744 -0.0857655 -0.007102359
000300 f8 ca 27 bb 17 38 95 bd b3 a1 8f bd 75 ba 09 3d
       -0.0025603157 -0.07286089 -0.070132636 0.033625085
000310 06 50 d4 bd d3 6b 9f bc 1d 1f a5 3d f1 02 80 bd
       -0.10366826 -0.019460594 0.08062575 -0.06250561
000320 b4 8e 4c 3d 8b 66 89 3c 75 07 7e bc 2e 09 a3 bd
       0.04994078 0.01677253 -0.015504708 -0.07960735
000330 c8 db 71 bd 58 9c a4 bd 8b 89 a7 3b 9e 44 c1 bc
       -0.05904749 -0.08037633 0.005112832 -0.02359229
000340 6e c1 bb bc 0f 31 88 3c 3f 3e 1b bd b1 44 44 bc
       -0.022919383 0.016624955 -0.03790116 -0.011979268
000350 04 fa af 3d 97 9f 9e 3d 77 b6 80 3d 55 4d 09 bd
       0.085926086 0.07745283 0.062848024 -0.033521015
000360 37 b3 f7 3a 3e 78 03 bd 08 b1 d0 3c b5 5f d8 bb
       0.0018898015 -0.032097094 0.02547504 -0.006603206
000370 6f 19 a4 bc 1f fe 13 bd 51 df f2 bb d8 e9 85 bd
       -0.020031659 -0.03613102 -0.0074118753 -0.06538743
000380 3f 74 aa bd f1 59 3e ba e2 64 05 bc 84 ac 97 bc
       -0.083229534 -0.0007261327 -0.008141728 -0.018514879
000390 77 f9 37 3d 34 08 b8 bc 8f 46 40 3a dd ba b3 3c
       0.044915643 -0.022464849 0.0007334733 0.02193969
0003a0 c9 f6 66 bc fb 2c 95 bb 93 2e 88 bd 20 6f b2 bd
       -0.014096924 -0.004552481 -0.06649508 -0.08712602
0003b0 be 08 2a 3c f4 e6 62 3d ac b2 d0 3c 9a 92 a4 3d
       0.010378061 0.055396035 0.025475822 0.080357745
0003c0 6e 38 ab 3c 4e b1 b4 bd 96 8b 97 bd 38 e4 4e 3b
       0.020900931 -0.08822881 -0.07399671 0.0031569134
0003d0 69 17 92 bc 57 58 26 bc 18 55 7a bd be 66 19 bc
       -0.017833428 -0.010152898 -0.061116308 -0.009362875
0003e0 da 7d 73 bd 25 da b3 3b ea 2e 84 bd d8 d6 00 bd
       -0.059446193 0.0054886513 -0.06454261 -0.03145489
0003f0 05 6a 43 3d 5a 2e 3b 3d 6f e8 c7 bd 99 63 4f 3d
       0.04770853 0.0456985 -0.0976113 0.050632093

4.bias f4 [128]
000000 38 51 37 c2 1f 9a 91 bd 4b d9 39 c2 6d e2 5b bd
       -45.829315 -0.071094744 -46.4622 -0.053682733
000010 76 ae 22 bd 51 0c 12 41 cf 65 89 c1 3a 10 28 42
       -0.03971716 9.128007 -17.174711 42.015846
000020 51 ed 1d be ca 4c 2e be dc 9f 03 be 44 9b cb 41
       -0.1542256 -0.1702148 -0.1285395 25.450813
000030 68 fd 64 42 48 63 56 bd 62 35 97 42 ad 2e fa bd
       57.247467 -0.052340776 75.60426 -0.12215934
000040 48 a7 6d 42 ef ee 19 c2 a7 b3 2b c2 3e 6d 15 bd
       59.41336 -38.483334 -42.92544 -0.036481135
000050 b5 03 0e bf 64 49 3f bd 69 be c6 3b 16 78 50 42
       -0.55474406 -0.04670085 0.006065179 52.11727
000060 74 e3 6e c0 ac fa 2c be e3 c5 39 42 c2 fd 30 c2
       -3.7326326 -0.16892499 46.44325 -44.24781
000070 b9 29 04 c1 69 12 4f c1 cf 13 15 be bf 9b 84 c1
       -8.260186 -12.941995 -0.14558338 -16.576048
000080 7e fa d5 41 d9 6c 5a 42 86 34 5a 42 65 a2 2f bb
       26.74731 54.606297 54.551292 -0.0026799676
000090 3f f0 8b 42 e0 9a 02 3d a2 22 94 3d e6 21 ab bd
       69.96923 0.03188598 0.07233168 -0.08356075
0000a0 2a 6e ab bd 61 bf e6 bf be 7c 3b 42 fb ba 5e 42
       -0.083706215 -1.8027154 46.87182 55.6826
0000b0 c2 d5 f9 bd c2 1f cf bd be c4 0c 3f d6 51 aa bc
       -0.12198974 -0.10113479 0.54987705 -0.020790976
0000c0 89 b7 dc c0 97 e4 df c1 31 33 85 bd b2 a1 1d 42
       -6.897404 -27.986616 -0.065039046 39.407906
0000d0 1d 16 d9 41 bc 5f cd bc 21 b9 5f 42 93 23 bf 41
       27.135798 -0.025070064 55.93079 23.89237
0000e0 75 03 d6 40 2c 5f a7 c1 7b ca bd 41 1d c8 6e 42
       6.687922 -20.92147 23.723867 59.695423
0000f0 ec 50 21 bd 6e ff 2b c2 c0 e5 f6 bc 0c 04 61 42
       -0.039383814 -42.999443 -0.03013885 56.253952
000100 a9 7f 20 be ad 4f d4 bd 04 48 61 42 ef 9f 08 be
       -0.15673698 -0.103667594 56.320328 -0.1334226
000110 56 7e 74 42 15 1f 3c 3f 51 23 02 42 2a 4c a6 c2
       61.123375 0.7348493 32.53449 -83.14876
000120 c9 36 69 42 8e b6 ce 3e 8e 1b c3 bd c2 93 99 bc
       58.3035 0.40373653 -0.0952674 -0.018747214
000130 62 3c 8b c2 30 f9 6e c2 69 d6 59 bd 95 c7 96 42
       -69.617935 -59.743347 -0.053182993 75.38981
000140 2a 2f 43 bd ed 7b 96 c1 5c f6 4d c2 db b7 8a bc
       -0.0476524 -18.81051 -51.490585 -0.016933372
000150 61 01 06 be db f4 8c bc 3c d5 0f 3b 16 20 6f 41
       -0.13086464 -0.0172066 0.0021947166 14.9453335
000160 56 ab a3 bd 49 4c 92 42 22 f5 0b be 7e 15 9e 42
       -0.07991664 73.148994 -0.1366773 79.04198
000170 11 ca bc be f9 ed 6f 42 75 94 9b 42 34 8d af bd
       -0.36872914 59.982395 77.789955 -0.08571854
000180 cb 28 04 42 66 11 c9 bd ed 72 26 42 a6 a0 05 c2
       33.039837 -0.098177716 41.612232 -33.406883
000190 ec 78 67 bd 5f f1 0e 3d 1d 90 5c c2 c0 1c 39 41
       -0.056511804 0.03489816 -55.140736 11.569519
0001a0 18 77 e2 40 a0 da bf bd 44 3e 4f 42 bc 78 f2 bc
       7.077038 -0.09367871 51.810806 -0.029598586
0001b0 af c7 65 42 7b a0 a4 3c f0 82 06 be e8 16 08 42
       57.445004 0.020096054 -0.13135886 34.02237
0001c0 d0 03 8e bd 07 88 66 42 b6 de 96 bd db 86 2e c2
       -0.06934321 57.63284 -0.073666975 -43.631695
0001d0 ab 26 8c bd 4a 29 a9 3a 46 3e 05 bc be 52 68 bd
       -0.06843313 0.0012905982 -0.008132523 -0.056719534
0001e0 16 ec 95 42 1d d1 61 be 71 4e 49 c1 07 85 e3 3c
       74.961105 -0.22052427 -12.581651 0.027773393
0001f0 ee 42 af bc 6b b9 26 be be e4 f6 bd 10 18 fa c1
       -0.02139422 -0.16281669 -0.12055348 -31.26175

6.weight f4 [128, 128]
000000 2c cd 5f bf fb e9 4d 3c d9 38 24 be ed 73 e8 3c
       -0.8742244 0.012567992 -0.1603731 0.02837559
000010 6b 1f be 3c 65 c7 cf be 23 67 87 3e 87 0e 62 3f
       0.02320834 -0.40581813 0.26445875 0.88303417
000020 bf 0d 8f 3d 91 68 ea bc 09 ef cf 3b ff 79 10 3f
       0.06985044 -0.028614314 0.006345634 0.5643615
000030 07 8f 24 3d 52 00 5b bc 68 6d db bd a4 90 97 bc
       0.040175464 -0.013366776 -0.10714227 -0.018501587
000040 7b d6 ce be 49 b7 cd bf f7 d7 8c 3d dc 35 cb bc
       -0.4039801 -1.6071559 0.068771295 -0.024805956
000050 fb 99 01 bd 4d a3 c7 bc 01 36 52 bd 95 3f 54 3e
       -0.031640988 -0.02436986 -0.051321033 0.2072738
000060 dc 28 67 bf ea ee dd 3c 78 25 90 3e 41 36 5f be
       -0.9029672 0.027091462 0.28153586 -0.2179804
000070 32 16 e4 bf 55 4d a4 3e 4e 49 0d be 6d c4 be 3f
       -1.7819273 0.3209025 -0.13797495 1.4903694
000080 81 88 97 3f 9e 39 89 3c d0 f8 b2 be 7f 94 66 3d
       1.1838533 0.016751107 -0.34955454 0.05629396
000090 e2 db fa 3e 3e 2f fc 3c 9a ef c3 3d e4 3f 2e 3d
       0.48995882 0.030784246 0.09567185 0.0425414
0000a0 4b a9 09 3a e4 64 72 3d 65 df b6 3e c9 eb 04 bf
       0.0005251362 0.059178248 0.35717312 -0.5192228
0000b0 71 9a 37 bd 5b 1e 32 bc 46 09 d0 3c 38 9f b0 bd
       -0.04482502 -0.010871495 0.025395047 -0.086241186
0000c0 f2 be 95 bd 05 bb 72 bf 9b de 6c 3d 6b c1 50 bf
       -0.073118106 -0.9481662 0.05782948 -0.8154513
0000d0 9d d1 3f be 96 2f 1d bd b5 94 98 bd 4d 5b 04 bf
       -0.18732305 -0.03837546 -0.074502386 -0.51701814
0000e0 34 08 cc be e2 59 ad 3c 0a 7e 20 3d ee 9f d6 3e
       -0.39850008 0.021161024 0.0391827 0.41918892
0000f0 a5 32 83 bd 1c 55 e6 3d 8d 24 27 3d 03 15 dd ba
       -0.06406144 0.11246702 0.040806342 -0.0016867224
000100 d1 f8 dc 3c 6d e4 d7 bc 15 ca e9 3c b3 a2 7c 3d
       0.026974114 -0.02635404 0.028538743 0.0616786
000110 8f 93 6d 3d 61 77 73 3f 17 81 2d be 10 1e e7 3e
       0.05800205 0.9510403 -0.16943775 0.45140123
000120 cf d8 84 3f 1d fe 61 bd 60 ac e9 bc 33 af a8 bd
       1.0378665 -0.055173982 -0.028524578 -0.082365416
000130 c8 4c 76 be 17 d3 10 c0 ab 13 a7 bd 86 7a e0 bb
       -0.24052727 -2.262884 -0.08158048 -0.0068505434
000140 4b f6 9d bd 1b 91 14 c0 66 f1 7c 3e 2b 5f d2 bc
       -0.07712992 -2.3213565 0.24701461 -0.025680145
000150 4f e0 52 bc 1e a9 f1 3d 91 bb 73 bd 25 d4 ec 3e
       -0.012870862 0.11799835 -0.05950505 0.46255603
000160 23 3d 95 3d c7 fc 43 3e 3a 5b c3 3c ac 66 dc 3e
       0.072870515 0.19139396 0.023847211 0.43047082
000170 5b ba 99 3b 88 db 95 3d 74 20 a4 be 05 56 d8 bd
       0.0046914048 0.07317263 -0.3205601 -0.10563282
000180 3c 5a 46 3f c7 e2 d1 3d 6e f2 2c be 7d 01 25 3f
       0.77481437 0.102483325 -0.16889355 0.64455396
000190 e4 69 64 3d 31 83 a6 3d 35 c0 d0 be 4e 33 26 bf
       0.055765048 0.081304915 -0.40771642 -0.64922035
0001a0 cc 79 93 bf e6 62 63 3a ca 06 92 be 9f 78 76 bc
       -1.1521544 0.00086741 -0.28520805 -0.015043407
0001b0 53 f3 fc 3d f4 41 28 bd 79 60 6b bd 15 df a2 bd
       0.12351098 -0.041078523 -0.05746505 -0.07952706
0001c0 09 d2 27 3c ac d5 da be 03 4a a1 3d 23 67 03 bf
       0.010242947 -0.42741144 0.07875445 -0.5132925
0001d0 01 1b a8 bd 7c 48 21 3d 72 97 22 3d 75 9f 58 bd
       -0.082082756 0.039375767 0.03969521 -0.052886445
0001e0 04 c8 95 3e d9 8e d3 bc f0 b6 f3 bd 08 59 7f 3d
       0.29254162 -0.025824951 -0.11900127 0.062340766
0001f0 8b 81 e7 bd ae 20 1f 3d e5 0b 63 bc 2b 14 d8 bd
       -0.11304005 0.038849525 -0.013857816 -0.10550722
000200 f1 3f 3d be 28 56 e2 3c b2 8d 26 bf fe 02 ed bd
       -0.18481423 0.027628973 -0.6505996 -0.11572836
000210 e1 50 5b 3d 32 8a 8c be 48 3c e0 3d ed 01 e5 bd
       0.05354393 -0.27449185 0.10948998 -0.11182008
000220 21 b5 ab bd 7b cf b9 bd 1c 6d 36 bd f3 31 03 3d
       -0.08384157 -0.09072777 -0.04453765 0.032030057
000230 c7 3f 8e 3e 2a da a3 3d ec 52 fc bc 75 04 84 bc
       0.27783033 0.08000596 -0.030801259 -0.016115407
000240 4d f1 92 be 2c 69 0a bd 7d 97 0c 3e f5 e0 be 3d
       -0.28699723 -0.033791706 0.13729663 0.09320251
000250 72 a7 43 3d b2 21 3e 3c 7d df 4f bd 07 e6 2b 3f
       0.04776711 0.011604713 -0.050750244 0.6714787
000260 15 49 1f bf be a3 88 3d 2a 4d d5 be 35 f3 02 3d
       -0.6222089 0.06671856 -0.41660434 0.03197022
000270 91 d6 86 be dd b1 24 bf 3b 6a 58 3c de dd e1 be
       -0.26335576 -0.643339 0.013208921 -0.44114584
000280 42 74 12 3f 4d a3 cb 3d 69 b8 54 be 51 3b 5f bd
       0.57208645 0.099432565 -0.20773472 -0.054499928
000290 66 9a a4 3e c5 49 ba 3c ba c2 a6 3d ee 6c c9 3c
       0.32149047 0.022740254 0.0814261 0.024588075
0002a0 cd aa bd 3d 31 62 35 bf b6 50 c3 3e 7c c2 be bf
       0.09261093 -0.70852953 0.38147515 -1.4903102
0002b0 4c 64 b2 bd 87 76 d2 bc 54 e4 66 bd 25 ff 0d bd
       -0.08710536 -0.025691284 -0.056370094 -0.034667153
0002c0 13 60 08 3e 9f 66 69 3c b8 e0 63 bd 28 a7 a4 3e
       0.133179 0.014245658 -0.05563423 0.3215878
0002d0 f8 99 a0 be e1 b8 9e bc 51 d1 24 be d4 40 47 bf
       -0.3136747 -0.019375267 -0.16095473 -0.77833295
0002e0 f1 f2 61 bf bb cd bb bd dc 23 2e 3d 46 5d b3 bd
       -0.88261324 -0.09170099 0.042514667 -0.08758025
0002f0 e6 b7 cb bc b1 78 74 bf 93 fe fc 3c ad d8 93 3d
       -0.024867963 -0.9549666 0.03088311 0.07219062
000300 e3 14 fb bd cf 45 3a 3d fe cb 0c 3e e9 ad 8b bd
       -0.12259843 0.04547673 0.13749692 -0.0682028
000310 1c 4b d1 bd f1 9a c5 bf b0 1d 10 3e b1 a3 81 bf
       -0.10219404 -1.5437909 0.14073825 -1.012808
000320 0a 1a 92 3e 1c 19 a9 bd d0 78 fc bb e5 4b 9c 3d
       0.2853549 -0.08256742 -0.0077048317 0.07631663
000330 ce 0f 05 bf 83 af 7c be c1 10 f1 bc ff ac 82 3e
       -0.5197724 -0.24676327 -0.029426934 0.2552261
000340 75 87 9b 3d f6 50 93 3b 5e 2b 6c bf 73 06 9d 3d
       0.07594196 0.0044957353 -0.92253673 0.07667246
000350 50 9c b7 3c 56 6c ac bd 0f 57 b1 bd 14 0e 98 3e
       0.022413403 -0.08419101 -0.08659183 0.2969824
000360 34 f2 c5 3c 5e 2a f6 3d 43 df 4a bc 4f 0d ae 3e
       0.024163343 0.120198 -0.012382331 0.3399453
000370 be 2c f7 be d8 47 9a 3e 0c f7 b1 3e 58 e9 45 bd
       -0.48276323 0.30132937 0.34758794 -0.048318237
000380 d0 a4 b7 bd d8 6a 04 bd 9c b2 0d 3f 92 70 11 bf
       -0.08966982 -0.032328457 0.5535066 -0.56812394
000390 f2 3f 6a 3d 79 c1 c0 bd c3 bd a3 3c 78 33 2a 3f
       0.05718989 -0.09411902 0.019987946 0.66484785
0003a0 97 08 8f 3e 33 c2 31 bc 13 0b 0f be 77 30 2d bd
       0.2793624 -0.010849523 -0.13969068 -0.042282548
0003b0 d7 1b ec bd ea b0 8b 3d 4f 7f 16 3b 77 d5 82 3e
       -0.115287475 0.06820853 0.0022964065 0.25553486
0003c0 44 56 2b bd 25 05 ac 3d 85 e5 3a 3d 6e 56 3e bd
       -0.041830316 0.08399419 0.045629043 -0.046469145
0003d0 3e 0a 14 3c af e1 bc bb c6 ac 52 3d 9b f9 ed 3b
       0.009035645 -0.0057642083 0.0514343 0.0072624213
0003e0 67 36 25 3f c2 81 89 bd fa 77 02 3e ef 89 78 3d
       0.64536136 -0.067142025 0.1274108 0.06067842
0003f0 d8 e1 f9 bc c6 36 aa bc b2 cd 84 3c 54 dc 83 3e
       -0.030503199 -0.020778071 0.016211364 0.25754035

6.bias f4 [128]
000000 72 75 81 42 44 ec 7a 42 a2 07 32 42 e9 9c df bd
       64.729385 62.73073 44.507454 -0.109186
000010 1f 9b 8b 41 b7 41 a4 bd da d8 20 42 4b 27 f8 bb
       17.450743 -0.080203466 40.21177 -0.0075730435
000020 c2 4d b2 bb b0 83 7d 42 46 63 f0 41 6c 91 65 3d
       -0.0054413984 63.3786 30.048473 0.05604689
000030 e0 56 4a 3c 56 1d 4e 42 ff fb 14 42 48 a7 ad bd
       0.012349814 51.52865 37.24609 -0.08479172
000040 59 39 5e 42 b7 ff 70 42 d1 e4 0e 42 b7 6e b6 3c
       55.556004 60.24972 35.723454 0.02226959
000050 d3 b9 a6 bc 67 5c 83 42 3f ac 80 42 a9 fd 86 41
       -0.02035228 65.68047 64.33642 16.873857
000060 32 07 e3 3d 39 7d ad 42 52 9e cf 3e b5 9f 5f 42
       0.11085357 86.744576 0.40550476 55.905964
000070 0a c4 c7 bd 0c a7 55 42 38 7f 57 42 32 6c 8d bd
       -0.09754188 53.41313 53.874237 -0.06905402
000080 5d 7f 24 42 81 87 43 3c 0c 9c 85 42 28 e1 53 bd
       41.12438 0.011934162 66.80478 -0.051728398
000090 c6 f1 9a 42 70 ca a6 3b 68 58 8f 42 1e 0f a0 bd
       77.47221 0.0050900504 71.67267 -0.078153834
0000a0 73 6b 40 3d 36 5b 5c 42 b6 c5 63 42 50 0d bd bd
       0.04697747 55.089073 56.943077 -0.09231055
0000b0 95 6b 42 41 44 45 0d bf 91 c1 88 3d b0 91 39 c1
       12.151265 -0.55183816 0.06677545 -11.598068
0000c0 60 52 0f bd b3 61 12 3b d0 4f 2c 3d 93 ba cb 40
       -0.03499067 0.0022336065 0.042068303 6.366525
0000d0 5c 04 65 3d 15 3a 95 42 a8 ab db 3e fc 9d 9f 3d
       0.05591236 74.61344 0.429044 0.07793805
0000e0 83 a6 ee c1 f9 50 66 c2 dc ae df bd 68 c6 d8 3f
       -29.831305 -57.579075 -0.10922024 1.6935549
0000f0 1f 4a 5f 42 06 12 88 42 4f ea 9d bc 12 86 ac bc
       55.822384 68.0352 -0.019276766 -0.021060023
000100 4d bf 03 bc e3 37 17 41 b1 5e db 41 9c ce 96 42
       -0.008041215 9.451144 27.421236 75.403534
000110 c0 1b ac c1 56 31 74 3c cc d0 37 42 74 38 3e be
       -21.51355 0.014904341 45.953903 -0.18576223
000120 8a 77 01 c2 cb 87 ae bc aa 25 59 42 70 bf e0 ba
       -32.366737 -0.021304986 54.28678 -0.0017146897
000130 e8 5a 03 3d 8d af 4b be f3 7f d8 3b 06 ee 83 42
       0.032069117 -0.19891186 0.0066070496 65.96489
000140 9c 42 f2 41 f5 ce b5 bc 85 86 27 c2 36 b4 d4 bd
       30.282524 -0.022193411 -41.881367 -0.10385935
000150 14 86 6c 42 45 15 25 3d 8d 2e 88 42 21 d8 8b bd
       59.130936 0.040303487 68.09092 -0.06828333
000160 3e 54 ad bd ec 9d 9a 41 a7 a5 3c 3c 45 5c 80 42
       -0.084633335 19.32711 0.011514104 64.180214
000170 c7 24 95 c1 8c 60 81 bd 38 bc 92 42 49 f8 4e 42
       -18.642958 -0.06317243 73.367615 51.742466
000180 5c 05 a9 41 7d d5 28 bc 12 11 6d 42 05 9d 39 c1
       21.127617 -0.010304806 59.26667 -11.600835
000190 ea e9 63 42 58 e2 a4 42 a7 16 ba bd 9f 12 df 3c
       56.97843 82.44208 -0.09086352 0.027230559
0001a0 19 13 50 3d b7 a7 61 42 96 ef 8f 42 61 22 1b bd
       0.050799463 56.413784 71.96794 -0.037874583
0001b0 08 89 9e 41 f2 e5 f6 3c ba 44 96 42 ba b1 1c bd
       19.81691 0.030138943 75.13423 -0.03825543
0001c0 9e d0 2a 3c 07 2b 66 42 f4 89 a8 42 23 65 8c 42
       0.010425715 57.54202 84.26944 70.19753
0001d0 8b ba b3 bc 2e eb e1 bd 25 be 87 42 e9 b8 1c bc
       -0.021939537 -0.11031185 67.871376 -0.00956557
0001e0 a1 96 05 bd 7d 51 f7 bd db 59 77 42 01 dc be 42
       -0.032614354 -0.120760895 61.83775 95.429695
0001f0 5a 0f a6 c1 94 11 c6 c1 7f e3 14 bd dc e5 4e 42
       -20.757496 -24.758583 -0.03634977 51.724472

8.weight f4 [128, 128]
000000 ff 71 d2 bf 48 8c 8a be f2 2b 36 c0 f6 15 03 3d
       -1.6441039 -0.2706015 -2.8464322 0.032003365
000010 2b ce a6 3f f2 f7 b2 3c c4 97 63 be 68 0d f4 bd
       1.3031667 0.021846745 -0.22225863 -0.119166195
000020 b7 c0 83 bd 47 07 8e 3e cc 23 9d be 80 e7 7c 3b
       -0.06433242 0.27739927 -0.30691373 0.0038590133
000030 85 cf 1f 3d 45 d7 28 3f 4c 96 81 3d 3a d4 75 3d
       0.039016265 0.65953475 0.06327495 0.06001685
000040 a2 12 57 3e c2 3c 8f 3e ed 00 1f be db 38 88 3c
       0.21003202 0.27976042 -0.15527697 0.016628673
000050 93 61 14 bc 0b 69 0c 3e 04 2c d1 be c3 38 b6 3f
       -0.009056467 0.13711946 -0.40853894 1.4236072
000060 c2 34 00 3c 0b b3 34 c0 ea 2d 11 bd 06 89 f5 be
       0.007825078 -2.823428 -0.035444178 -0.47956103
000070 a3 03 9a 3c c8 88 90 3e c6 6a 8a 3e 48 c6 a5 3d
       0.018800562 0.28229356 0.27034587 0.0809446
000080 80 3b 45 bf 32 7c e7 3c ae ab 0c bf 3c d8 a2 3d
       -0.77043915 0.028257463 -0.5494946 0.079514
000090 50 34 f4 bf 0e 5f a4 3d 7d 75 8d bf cc 77 9f bd
       -1.9078465 0.08025943 -1.105148 -0.07786521
0000a0 73 f5 b6 3c 5a 33 48 3e 73 68 bc 3e b9 91 c9 bd
       0.022333836 0.19550839 0.36798438 -0.098422475
0000b0 ce 92 0b 3f a1 ae 14 bf 60 e8 a2 3d 62 58 cf 3e
       0.5452088 -0.5807896 0.07954478 0.40497118
0000c0 18 c4 b8 3d 77 aa f3 3c cd 8e 6e 3d 47 e8 b3 3f
       0.09021777 0.02974437 0.058241654 1.405526
0000d0 98 7a b0 bd 68 6d b2 bd c0 74 97 bd f5 c7 02 bd
       -0.08617133 -0.08712274 -0.07395315 -0.031928975
0000e0 e3 fb 20 bf 05 98 65 3f a8 81 a3 bd bd 2c 1b 3f
       -0.6288435 0.8968509 -0.07983714 0.6061514
0000f0 10 d8 b7 bf 8a 8f 8d 3e aa 0c 8a bc 6c 45 dd bd
       -1.4362812 0.27648574 -0.016851742 -0.10804257
000100 1b bc 55 bd f6 96 c0 bf ea 8e 34 be f2 c0 1e c0
       -0.052181344 -1.504607 -0.17632642 -2.4805264
000110 a3 c1 3b 3c fc fa a4 bd 4e d2 6c c0 6d 29 be 3d
       0.011459741 -0.08055684 -3.700336 0.09285245
000120 51 ec 06 3f 77 c6 44 bc 05 69 11 c0 08 49 46 3d
       0.5270434 -0.012010208 -2.272035 0.04840949
000130 0e 2f 9c bd 8d e9 3c bd 11 19 43 3d 2a 50 47 c0
       -0.076261625 -0.04612117 0.047631327 -3.1142678
000140 40 84 c8 bc 20 ca f9 3c 00 36 18 3f b0 5c 4d bd
       -0.024477124 0.030491889 0.594574 -0.05013722
000150 43 50 88 c0 6a 70 3c 3d 19 f8 f2 3e 52 51 b7 bb
       -4.2597976 0.046005644 0.47454908 -0.005594411
000160 75 20 9c bd 3f fa b5 3e e5 68 b2 bd 96 0c 84 3f
       -0.07623378 0.35542485 -0.08711413 1.0316341
000170 1c b2 da be 69 e3 f8 bc 67 e7 44 bf 8e 21 93 3e
       -0.42714012 -0.030381875 -0.7691559 0.28736538
000180 85 0b 37 3f a5 de 6a bc 82 93 3c be 3b 01 92 3e
       0.7150195 -0.014335309 -0.18415645 0.28516564
000190 08 c0 90 c0 e3 3e 48 bf bf 52 c7 3c 02 d2 9e 3d
       -4.5234413 -0.7822096 0.024331449 0.077548996
0001a0 36 b6 9c 3d ff 6c a3 bf 64 89 9e c0 a1 a6 9d 3d
       0.076519415 -1.2767638 -4.9542713 0.076977976
0001b0 d6 43 d4 3e 3d 1a ad bd 6f 8a 9d c0 51 80 83 bd
       0.41458005 -0.0845227 -4.9231486 -0.06420959
0001c0 41 68 76 bd 0d 80 d0 3e 27 2f 00 be 52 bb 7f 3e
       -0.060158018 0.40722695 -0.12517987 0.24973801
0001d0 9b 44 d8 bc 7b 48 f2 ba 91 e9 4a 3f 22 77 f3 bd
       -0.026399901 -0.0018484736 0.79262644 -0.11887957
0001e0 b5 c0 9d bd a3 05 81 bc d8 1e 96 bf ee 9f 7e c0
       -0.077027716 -0.015749758 -1.1728163 -3.9785113
0001f0 7b 71 aa bd 14 57 6e 3e 7a 16 23 bd 1c 70 9a be
       -0.08322426 0.23275405 -0.039816357 -0.30163658
000200 6b 75 bc 3e 69 40 56 3d 33 f1 55 bd 8d 3c ac 3d
       0.36808333 0.05230752 -0.05223198 0.08409987
000210 22 c7 8d 3e 72 10 21 3d cc d4 66 3e 94 4b 19 3e
       0.2769099 0.039322324 0.22542113 0.14970237
000220 85 ab 83 3b 65 62 c5 3d 83 e0 b5 bb 1f df 0b 3d
       0.0040182495 0.09637908 -0.0055504455 0.03414833
000230 26 65 a0 bd ff d4 7a 3d e6 58 9f bc e1 0e 80 3d
       -0.078317925 0.061238285 -0.01945157 0.06252838
000240 ba dd 7c 3e a6 e4 89 3e 06 c1 bb be 4f a1 97 bd
       0.24693957 0.26932257 -0.36670703 -0.07403814
000250 7b cd a3 3d 24 3e 1c 3f dd 11 f0 3e 31 be 59 bd
       0.07998177 0.6103232 0.4688863 -0.053159896
000260 8c 0d cb bb 33 c2 61 3f 05 0e 34 bd d3 83 83 3f
       -0.0061966833 0.8818695 -0.043958683 1.0274605
000270 54 88 17 3c 22 a8 0c bc c8 74 8b 3e 64 95 39 bc
       0.009248812 -0.008585008 0.27237535 -0.011327121
000280 58 c4 12 be 27 db 73 3a 97 ed 6b 3e 64 71 74 bd
       -0.14332712 0.00093023706 0.23039852 -0.05967845
000290 53 79 9e 3e 31 97 9c 3d 9a a9 7d 3e cc 6b 66 3d
       0.30951938 0.07646025 0.24771729 0.056255147
0002a0 5f 08 d7 3b e3 0d b7 3e 5b 8f 62 3e cb cb 23 3d
       0.006562277 0.35752782 0.22124998 0.039989274
0002b0 fd c5 3b bd fc 1b 7a be 5b 19 6e bd e8 00 5c be
       -0.045843113 -0.24424738 -0.05812965 -0.2148472
0002c0 ba b7 6d 3d 9d f1 46 3d b3 d8 a0 3c f2 5c 30 be
       0.058036543 0.048570264 0.01963458 -0.17222956
0002d0 58 db ec bb 41 08 91 3e 77 73 c5 3d c2 08 98 3d
       -0.0072282963 0.2832661 0.09641164 0.074235454
0002e0 02 59 82 bf e7 cf fa 3d 19 3d 38 3c f4 49 62 3e
       -1.0183413 0.122466855 0.011245036 0.22098523
0002f0 1a 34 77 be 52 02 81 3e d3 b4 69 3d bd e4 a4 3d
       -0.24140969 0.25197083 0.057057213 0.08051441
000300 d3 cf 0a 3d 8a 5c 1c 3e 62 8f 65 3c 26 e5 f4 3d
       0.033889603 0.15269676 0.014011236 0.11957769
000310 6a 88 c4 be fb f1 45 3d b8 39 24 bb 89 5d 97 bb
       -0.38385326 0.048326474 -0.0025058817 -0.0046193046
000320 57 bd c4 3d 7c 6a 9e bd e0 e4 27 3f 1a 93 5e 3d
       0.09606426 -0.07735154 0.6558361 0.054339506
000330 e3 2e ac 3c 3e 50 4d bd ca 21 d7 bb b4 9b 86 3e
       0.021018451 -0.050125353 -0.0065653073 0.26290667
000340 c1 2f bf 3e 18 50 5f 3d a5 b1 15 be 09 b4 14 3d
       0.3734112 0.054519743 -0.14618547 0.036304507
000350 d9 30 31 3f c8 b9 a0 bd 3a 63 9d 3e 6e 2a a4 3c
       0.6921516 -0.07847935 0.30739766 0.020039763
000360 12 82 34 3c a3 2a 17 be e9 76 43 3d 90 a2 4e 3e
       0.011017339 -0.14762358 0.047720823 0.201792
000370 36 9a 86 3c bf 90 9a bc c0 05 22 3e 87 93 34 3e
       0.016430955 -0.018867848 0.15822506 0.17634402
000380 60 17 1b 3f 69 be ab bc b0 08 87 3e 73 f2 77 3e
       0.6058254 -0.020964818 0.26373816 0.24213581
000390 96 b5 5e 3d 05 40 2a 3f c5 dc b3 3d f7 39 13 3d
       0.054372393 0.66503936 0.08782343 0.03594395
0003a0 4c 78 d0 bd 6e 59 46 be d1 be 6f 3f 22 8f 4a bd
       -0.10179195 -0.19370052 0.9365054 -0.04945291
0003b0 a4 d8 0d 3e ba 07 32 bd 6d 74 de 3e 91 05 b3 3d
       0.13852173 -0.0434644 0.434482 0.08741296
0003c0 5d 3b a8 3d bc 14 30 3d 6b b8 4e 3e 4e 52 31 3e
       0.08214448 0.042988524 0.20187537 0.17316553
0003d0 93 64 da 3c 15 80 9e ba 9b 39 0c 3e 1c a8 78 bc
       0.026659286 -0.0012092615 0.1369385 -0.015176799
0003e0 7f ed 56 bd a6 49 c2 3d 80 2d 8b 3e 92 4f 0c 3f
       -0.052472588 0.094867036 0.2718315 0.54808915
0003f0 98 9c 95 be 49 bf 35 3d bd 77 e8 ba c7 39 63 3e
       -0.29221034 0.044371877 -0.001773588 0.22190009
