my_model.pth (torch, 340670 bytes, 14 tensors)

0.weight f4 [128, 6]
-0.086206086 -0.20901002 -2.2174993 5.0521817 -0.21659283 6.2337146 -0.14031346 0.26411632
12.336515 5.0113335 0.07466489 8.942233 -0.025959425 0.15388513 -4.0268273 6.422749
0.25991297 6.412276 -0.1905866 0.104061805 -0.18809494 -0.047876444 -0.16581345 0.27082008
-0.32225904 -0.18820669 -0.11527901 -0.24546847 0.03853175 -0.40321833 -0.114716366 -0.9973248
-2.7294724 0.2225843 0.023678167 6.421472 0.0007239739 -1.2298524 -2.8614023 7.222767
-0.53926414 -2.6099606 -0.08027473 0.11653261 -5.6130543 5.1282296 0.22723512 5.992409
-0.0975641 -0.6724142 -1.8329241 5.26445 -0.018852426 6.72932 0.033290345 0.63188994
0.6554216 -0.92455655 0.11373671 -7.8047175 -0.013263306 0.28907958 1.2359324 -1.1877272
0.03814782 -10.697991 0.037355654 -0.4210784 -5.669251 7.527535 0.55200475 6.4707217
0.13563323 -0.8552545 -0.3225288 4.2855587 -0.06525539 6.1454706 0.08483875 1.5672157
1.0004165 -2.1109426 0.21517725 -7.9706945 0.07146309 -0.531393 -0.2263252 3.459477
-0.058835153 6.396032 0.014873208 -0.93693113 0.48665392 -9.368434 -1.427298 6.0576825
0.03346099 -0.61766285 1.9970403 -1.7704511 -0.35465 5.6449366 -0.05388599 -0.29634172
0.009576155 -0.27886686 -0.3463565 -0.22480708 -0.42064497 -0.32328835 0.3447475 0.013766571
0.062464364 -0.4441079 -0.2681268 -0.13588783 0.06383824 -0.35922638 -0.17590319 -0.24440543
-0.004557129 -0.1578961 -0.03377869 -0.28260514 -0.28620368 -0.24394219 0.018843064 -0.19663651
-24.979706 -11.00539 0.47485408 -3.462308 -0.34570342 0.2825222 -0.112327404 -0.15649222
-0.33887488 -0.4058644 -0.03637329 -0.41145372 -7.82932 7.866837 0.34187403 2.329725
-0.051311992 0.0034443357 15.160042 16.203077 0.45454863 5.8442473 0.045930292 0.26491088
1.015054 -2.017046 0.063422136 -7.527121 -0.011576039 -0.23302998 -5.538556 11.436903
0.41625124 0.549995 0.0062199403 -1.0321707 -0.063660555 3.5598683 0.23326558 7.4548106
-0.01300948 -0.5930313 -2.2831035 8.246605 0.32536897 7.6108074 -0.17813618 -0.14823453
-8.142795 -2.317786 0.3344606 -6.004835 0.014522609 0.5924698 0.7490881 -5.089549
-0.066117205 -10.240628 -0.09078767 -0.90023834 -1.9797454 4.9474883 0.13340041 6.2185116
0.004036146 0.9325178 -11.661655 -1.5628638 -0.1780112 5.714759 -0.029081762 0.20603843
-5.885991 6.331981 0.61966646 6.4794407 -0.02030528 -0.24613525 -0.24976839 -0.3656953
-0.13307361 0.13786715 0.0012478322 0.0046515227 -1.8378686 7.727134 0.030182878 6.647351
-0.10581753 -0.7412384 0.009399426 -2.6822546 -0.3507531 7.208222 -0.32900628 -0.22786137
-20.307055 -4.996317 0.2867113 -7.4220233 -0.51352644 -0.45696393 -0.733566 0.10656523
0.12522118 0.7237871 0.019963745 -0.20469695 -1.1719828 3.2091308 -0.030471092 5.878117
-0.08566924 -0.9737861 -2.2330608 4.2133656 0.1878706 6.094425 -0.26675585 0.13542038
-0.12132992 0.2520293 -0.13096963 -0.29947758 0.010491653 -0.21429715 -15.949248 -8.604171
00000000: d18c b0bd b906 56be 82eb 0dc0 79ab a140
00000010: 83ca 5dbe 977a c740 55ae 0fbe 413a 873e
00000020: 5e62 4541 d85c a040 e8e9 983d 6313 0f41
00000030: dca8 d4bc 1094 1d3e c5db 80c0 2987 cd40
00000040: 5013 853e 5d31 cd40 2229 43be 5b1e d53d
00000050: f69b 40be 171a 44bd 00cb 29be eea8 8a3e
00000060: 23ff a4be 41b9 40be 6717 ecbd 165c 7bbe
00000070: 78d3 1d3d a272 cebe 6af0 eabd ae50 7fbf
00000080: adaf 2ec0 24ed 633e b7f8 c13c b37c cd40
00000090: 11c9 3d3a ce6b 9dbf 3721 37c0 e820 e740
000000a0: 370d 0abf 9809 27c0 1467 a4bd a6a8 ee3d
000000b0: 249e b3c0 751a a440 53b0 683e d1c1 bf40
000000c0: b0cf c7bd 5623 2cbf 429d eabf 6076 a840
000000d0: 6770 9abc 9756 d740 755b 083d 8ac3 213f
000000e0: b6c9 273f bdaf 6cbf cbee e83d 3fc0 f9c0
000000f0: 564e 59bc 3d02 943e 0833 9e3f 7207 98bf
00000100: e340 1c3d f92a 2bc1 3e02 193d 9797 d7be
00000110: 816a b5c0 91e1 f040 2f50 0d3f 2710 cf40
00000120: 70e3 0a3e f5f1 5abf 7f22 a5be 4c23 8940
00000130: 9ea4 85bd b2a7 c440 f0bf ad3d 869a c83f
00000140: a60d 803f af19 07c0 6d57 5c3e ee0f ffc0
00000150: 3e5b 923d 5f09 08bf cbc1 67be 1268 5d40
00000160: 21fd 70bd 4bac cc40 c1ae 733c b8da 6fbf
00000170: b42a f93e 1be5 15c1 b3b1 b6bf 89d8 c140
00000180: 640e 093d 271f 1ebf 049f ff3f 249e e2bf
00000190: af94 b5be 52a3 b440 8eb7 5cbd 1aba 97be
000001a0: 4ee5 1c3c a3c7 8ebe a455 b1be d433 66be
000001b0: c75e d7be 0d86 a5be bf82 b03e 2f8d 613c
000001c0: a2da 7f3d 1c62 e3be ea47 89be 2e26 0bbe
000001d0: a0bd 823d 85ec b7be f71f 34be 6b45 7abe
000001e0: f853 95bb 84af 21be 865b 0abd 9fb1 90be
000001f0: 4a89 92be fbcb 79be c55c 9a3c 155b 49be
00000200: 70d6 c7c1 1416 30c1 1320 f33e 7496 5dc0
00000210: 0a00 b1be c0a6 903e e90b e6bd 7f3f 20be
00000220: 0281 adbe 75cd cfbe 29fc 14bd 10aa d2be
00000230: ca89 fac0 21bd fb40 1d0a af3e 371a 1540
00000240: 862c 52bd 5dba 613b 888f 7241 e79f 8141
00000250: 99ba e83e 1304 bb40 6721 3c3d 66a2 873e
00000260: 4aed 813f 4817 01c0 77e3 813d 2dde f0c0
00000270: 6da9 3dbc 699f 6ebe da3b b1c0 8efd 3641
00000280: e21e d53e 79cc 0c3f a4d0 cb3b 2b1e 84bf
00000290: 7760 82bd e2d4 6340 2cdd 6e3e cf8d ee40
000002a0: b725 55bc e6d0 17bf 5e1e 12c0 18f2 0341
000002b0: c396 a63e bc8b f340 5569 36be cbca 17be
000002c0: e348 02c1 9b56 14c0 6b3e ab3e 9c27 c0c0
000002d0: 3df0 6d3c 1aac 173f 3dc4 3f3f 96dd a2c0
000002e0: 7568 87bd 9dd9 23c1 e3ee b9bd 0576 66bf
000002f0: 4c68 fdbf d351 9e40 1e9a 083e 0cfe c640
00000300: a641 843b 7db9 6e3f 2496 3ac1 ec0b c8bf
00000310: 9148 36be 4edf b640 e03c eebc bdfb 523e
00000320: 0a5a bcc0 979f ca40 76a2 1e3f 9457 cf40
00000330: 4257 a6bc e10a 7cbe 49c3 7fbe 6a3c bbbe
00000340: 7344 08be 0c2d 0d3e 4d8e a33a cd6b 983b
00000350: 473f ebbf af44 f740 1542 f73c 19b7 d440
00000360: dcb6 d8bd cdc1 3dbf 0d00 1a3c 0faa 2bc0
00000370: e995 b3be c1a9 e640 8373 a8be 7e54 69be
00000380: d974 a2c1 d4e1 9fc0 d3cb 923e 3781 edc0
00000390: 7876 03bf 2df7 e9be fbca 3bbf df3e da3d
000003a0: fb39 003e 1d4a 393f 028b a33c 149c 51be
000003b0: 8803 96bf 6662 4d40 839e f9bc 8919 bc40
000003c0: 5b73 afbd 0c4a 79bf 78ea 0ec0 e4d3 8640
000003d0: 2761 403e 8805 c340 3994 88be a4ab 0a3e
000003e0: d27b f8bd fc09 813e e71c 06be 2055 99be
000003f0: 2fe5 2b3c b670 5bbe 1f30 7fc1 afaa 09c1

0.bias f4 [128]
7.3744955 9.80768 13.9471035 0.16380745 -0.24425417 13.699353 -14.76034 10.42285
17.171919 -10.190388 -13.127767 14.783576 26.649267 -11.407045 25.870094 10.1830225
25.25031 -0.40481046 0.1503499 0.09738221 -0.21324077 -28.01449 -0.18462947 -2.3303144
28.847847 -8.447691 5.9942102 24.158663 17.387661 -3.0682237 -15.6174345 20.44716
-17.55958 11.5676775 -0.3645298 19.352047 11.906124 -8.566096 -0.022431476 23.441013
19.578129 -0.24935506 -26.410418 0.5864378 -17.87521 16.952316 0.22407737 -0.12433762
7.5311093 18.500364 -0.22502677 -18.268812 -0.5642045 -12.322097 -0.23199686 14.718868
-0.11804047 -6.02396 -2.043692 -0.23305371 -0.14781941 -3.6890929 0.21039551 24.178108
-14.377883 -0.4091579 -0.29547054 5.5616794 -3.332316 13.801278 -10.875886 -27.484894
0.1177674 -0.38555324 24.824741 -25.860388 18.867624 13.849958 -2.62155 -0.07549102
13.609974 24.05289 13.642733 -0.17138937 -5.9607754 6.8053207 25.301323 -14.871661
17.001095 8.333698 -0.5898807 2.183483 -7.2078996 6.15232 0.36474591 -0.6325234
8.16732 15.149687 18.617188 -6.316632 0.025590563 -0.37629095 -0.1516502 0.39156172
0.0860268 0.03495341 -0.11653897 -1.3966649 -10.439237 21.340534 0.17119588 22.62772
27.819454 0.16851261 0.06510096 6.513099 17.012285 0.2960899 0.3873346 -9.095875
-0.34563127 14.72163 -0.0035632998 16.739399 -0.06836311 14.845395 0.28698996 0.07133477
00000000: defb eb40 42ec 1c41 5627 5f41 24bd 273e
00000010: c41d 7abe 8d30 5b41 5a2a 6cc1 fec3 2641
00000020: 1760 8941 d40b 23c1 550b 52c1 8789 6c41
00000030: b331 d541 4283 36c1 f4f5 ce41 a9ed 2241
00000040: a300 ca41 5143 cfbe 53f5 193e 5370 c73d
00000050: ca5b 5abe ad1d e0c1 820f 3dbe df23 15c0
00000060: 64c8 e641 be29 07c1 92d0 bf40 f144 c141
00000070: ee19 8b41 c75d 44c0 03e1 79c1 c993 a341
00000080: 057a 8cc1 3515 3941 a6a3 babe fed0 9a41
00000090: 7c7f 3e41 bb0e 09c1 37c2 b7bc 3287 bb41
000000a0: 02a0 9c41 ef56 7fbe 8948 d3c1 ca20 163f
000000b0: 6e00 8fc1 589e 8741 8a74 653e b9a4 febd
000000c0: d9fe f040 bf00 9441 6b6d 66be 8726 92c1
000000d0: b56f 10bf 4f27 45c1 9690 6dbe 7c80 6b41
000000e0: 34bf f1bd 48c4 c0c0 dacb 02c0 a2a5 6ebe
000000f0: f95d 17be 191a 6cc0 ec71 573e c46c c141
00000100: cf0b 66c1 257d d1be ea47 97be 47f9 b140
00000110: aa44 55c0 09d2 5c41 a103 2ec1 10e1 dbc1
00000120: 0930 f13d 3c67 c5be 1299 c641 13e2 cec1
00000130: e5f0 9641 6e99 5d41 7ac7 27c0 099b 9abd
00000140: 74c2 5941 526c c041 a248 5a41 b280 2fbe
00000150: acbe bec0 30c5 d940 1c69 ca41 53f2 6dc1
00000160: 3e02 8841 d456 0541 6c02 17bf 2fbe 0b40
00000170: 1da7 e6c0 cedf c440 fabf ba3e 0eed 21bf
00000180: 58ad 0241 1e65 7241 00f0 9441 d921 cac0
00000190: 4da3 d13c 35a9 c0be 314a 1bbe c77a c83e
000001a0: d22e b03d 4f2b 0f3d fcab eebd eac5 b2bf
000001b0: 1d07 27c1 6ab9 aa41 f94d 2f3e 9205 b541
000001c0: 3e8e de41 928e 2c3e a753 853d 4f6b d040
000001d0: 2919 8841 1899 973e b850 c63e b488 11c1
000001e0: 95f6 b0be cc8b 6b41 4086 69bb 4aea 8541
000001f0: f501 8cbd bd86 6d41 59f0 923e f717 923d

2.weight f4 [128, 128]
-0.038080845 -0.043828953 -0.02856487 -0.034162357 0.07948082 0.04011223 0.0731477 -0.0063880356
0.011090439 0.023992045 -0.090278015 0.0012145778 -0.012621311 -0.05622017 -0.075295165 0.07076652
0.065159485 0.04096523 0.08434456 -0.035868686 -0.015266674 0.025983987 -0.014604104 -0.02400899
-0.07963006 0.017095981 -0.060084496 -0.0042671254 0.07950892 -0.027207287 -0.034519542 0.04662188
-0.03918479 -0.014245082 0.0825316 -0.042931464 -0.070715345 -0.049465984 -0.024505284 -0.048666157
-0.052574567 0.035703987 0.008376036 -0.034961455 -0.07536972 -0.034500252 -0.037303343 -0.028763242
-0.08645263 0.012323996 -0.07242242 -0.07631819 -0.07221621 0.030329835 -0.053212143 -0.043163333
0.06928238 0.04693105 0.0506811 -0.083925314 -0.06338327 -0.04001476 0.0730174 0.00235378
-0.072711624 0.00055347243 -0.06864865 -0.026847307 -0.031786058 0.06980037 0.020801373 -0.022893857
0.014931332 -0.02551467 0.02804644 0.034963235 0.023736347 -0.041217115 0.0687298 -0.012760622
-0.04113064 0.04867415 0.06536986 0.08796053 0.019489948 -0.037612505 0.03819342 0.069255106
-0.09340148 -0.017663382 -0.0602778 0.009776409 0.029074606 -0.024945986 -0.0073943166 0.039784547
-0.022336885 -0.08170814 0.06324127 -0.044487137 -0.009710212 0.008337352 -0.005311862 -0.08314568
0.040552568 -0.040148772 -0.045843463 0.014432606 -0.052679442 -0.047553536 -0.029782448 -0.039904516
-0.043609876 -0.023837088 0.02296999 -0.078202136 -0.06017835 0.0012897146 0.012292001 0.0421177
-0.06208786 0.021541152 0.05023903 0.042399544 -0.08232681 -0.040388074 -0.07597558 -0.055933155
0.037288602 -0.059506692 -0.011030298 -0.051884517 0.013431484 -0.06466359 0.030042998 -0.098434106
-0.029912598 -0.1390073 -0.09745461 0.026623936 -0.014429544 -0.108186334 -0.05587032 -0.05655428
-0.12917358 0.06930452 0.0014248795 0.018614324 -0.042511392 -0.077980116 0.014574316 -0.022463871
-0.051519923 -0.105296046 0.045600757 -0.06548829 -0.1067908 -0.052991312 0.018413061 -0.011168155
-0.055982396 -0.075261496 -0.023170598 -0.12968633 -0.10786089 0.037859194 0.069606274 0.031006893
-0.07476122 0.04780601 -0.089767426 -0.008219084 0.0034632978 0.03293675 0.06364414 0.05529339
-0.045413654 0.03236194 -0.039251514 0.023645015 -0.03742861 -0.048274174 -0.07693135 -0.07199303
-0.04648104 -0.043066077 -0.06843197 -0.079500385 -0.003734647 -0.0023887616 0.080499634 -0.0068461057
-0.10014356 -0.09837144 0.033526924 -0.005084196 -0.09024163 0.021290727 0.012883123 -0.039904162
-0.05325034 0.07246751 -0.0068367315 0.013936552 -0.10954535 0.04411496 -0.10685427 0.087459765
-0.045549627 -0.003688646 -0.032416712 0.023423837 -0.025362017 -0.019592702 -0.09480811 -0.1474056
-0.08237873 0.015159409 -0.03698037 -0.011845581 -0.046484996 0.05360627 0.05289956 0.019814132
-0.07894817 -0.104550816 -0.05317982 -0.06247972 0.072672345 -0.095016636 0.033492472 0.08811558
0.044267394 0.030138547 -0.08504255 0.072387226 -0.082607746 -0.13948794 0.08108622 -0.091675274
-0.064261965 0.08090004 -0.061270863 -0.075854346 0.001304981 -0.016936975 0.012807905 -0.14147554
0.0026433975 -0.07848162 -0.043452494 -0.12578137 0.046865124 -0.032182124 -0.079304755 0.06434389
00000000: a9fa 1bbd fd85 33bd e000 eabc d4ed 0bbd
00000010: d7c6 a23d b94c 243d 76ce 953d ba52 d1bb
00000020: acb4 353c f78a c43c aee3 b8bd 7832 9f3a
00000030: 9dc9 4ebc 1f47 66bd 5a34 9abd 0aee 903d
00000040: 5672 853d 28cb 273d d7bc ac3d 0beb 12bd
00000050: 1221 7abc 5fdc d43c 0d46 6fbc 80ae c4bc
00000060: 1615 a3bd df0c 8c3c 291b 76bd 3ed3 8bbb
00000070: 93d5 a23d d1e1 debc 5d64 0dbd 96f6 3e3d
00000080: 3b80 20bd 3464 69bc 5406 a93d e7d8 2fbd
00000090: 35d3 90bd d89c 4abd 4ebf c8bc 2a56 47bd
000000a0: 6e58 57bd 583e 123d a43b 093c be33 0fbd
000000b0: 715b 9abd 2350 0dbd 64cb 18bd e4a0 ebbc
000000c0: 140e b1bd 96ea 493c 3552 94bd b64c 9cbd
000000d0: 18e6 93bd 4676 f83c faf4 59bd 09cc 30bd
000000e0: ece3 8d3d c63a 403d fc96 4f3d 09e1 abbd
000000f0: 16cf 81bd 84e6 23bd 268a 953d e041 1a3b
00000100: d5e9 94bd e816 113a aa97 8cbd e2ee dbbc
00000110: 1932 02bd 7ff3 8e3d a467 aa3c e68b bbbc
00000120: 8ca2 743c 2404 d1bc a6c1 e53c 9c35 0f3d
00000130: ba72 c23c 47d3 28bd 36c2 8c3d ee11 51bc
00000140: 9a78 28bd 8c5e 473d a2e0 853d a624 b43d
00000150: 62a9 9f3c 920f 1abd b470 1c3d 9fd5 8d3d
00000160: 4649 bfbd ccb2 90bc dbe5 76bd 3b2d 203c
00000170: de2d ee3c 865b ccbc 064c f2bb 1ff5 223d
00000180: d8fb b6bc 9956 a7bd a484 813d 2538 36bd
00000190: 9517 1fbc 6499 083c 210f aebb 4848 aabd
000001a0: 731a 263d 0a73 24bd 5bc6 3bbd bd76 6c3c
000001b0: 66c6 57bd 7fc7 42bd 52fa f3bc eb72 23bd
000001c0: 45a0 32bd ff45 c3bc 8f2b bc3c 7128 a0bd
000001d0: 937d 76bd a40b a93a 6464 493c 9c83 2c3d
000001e0: d74f 7ebd 1277 b03c 71c7 4d3d 25ab 2d3d
000001f0: f59a a8bd f76d 25bd 1699 9bbd 2a1a 65bd
00000200: efbb 183d 4abd 73bd 6cb8 34bc dc84 54bd
00000210: ba0f 5c3c 586e 84bd bc1c f63c d297 c9bd
00000220: 440b f5bc ee57 0ebe 4896 c7bd 711a da3c
00000230: e569 6cbc cc90 ddbd 47d8 64bd 76a5 67bd
00000240: 1446 04be 87ef 8d3d 06c3 ba3a 117d 983c
00000250: 6d20 2ebd 0ab4 9fbd 1dc9 6e3c 2706 b8bc
00000260: 8e06 53bd 74a5 d7bd dcc7 3a3d b91e 86bd
00000270: 23b5 dabd 6b0d 59bd fdd6 963c a3fa 36bc
00000280: cc4d 65bd b322 9abd 44d0 bdbc 7ecc 04be
00000290: 2ce6 dcbd 3e12 1b3d bc8d 8e3d 2b02 fe3c
000002a0: 691c 99bd 3cd0 433d fcd7 b7bd 56a9 06bc
000002b0: 7ff8 623b b0e8 063d dc57 823d 527b 623d
000002c0: ab03 3abd f48d 043d 32c6 20bd 31b3 c13c
000002d0: be4e 19bd 24bb 45bd 2f8e 9dbd 1571 93bd
000002e0: e762 3ebd 0e66 30bd 1026 8cbd 19d1 a2bd
000002f0: fbc0 74bb c58c 1cbb fedc a43d 4c55 e0bb
00000300: 1118 cdbd f776 c9bd 8753 093d 5499 a6bb
00000310: 9bd0 b8bd e469 ae3c bc13 533c 8c72 23bd
00000320: 071d 5abd d969 943d a906 e0bb 2356 643c
00000330: 5059 e0bd e3b1 343d 69d6 dabd 1b1e b33d
00000340: 3f92 3abd 36bd 71bb 63c7 04bd 59e3 bf3c
00000350: 01c4 cfbc e080 a0bc c12a c2bd 7ef1 16be
00000360: 2eb6 a8bd 2b5f 783c ba78 17bd f813 42bc
00000370: 0d67 3ebd 4092 5b3d 36ad 583d 3f51 a23c
00000380: 94af a1bd bd1e d6bd 15d3 59bd bcea 7fbd
00000390: 3dd5 943d 1598 c2bd 672f 093d f175 b43d
000003a0: ba51 353d 1de5 f63c ca2a aebd c13f 943d
000003b0: 402e a9bd edd5 0ebe 8810 a63d 3fc0 bbbd
000003c0: c79b 83bd ecae a53d 28f7 7abd 8659 9bbd
000003d0: e50b ab3a 69bf 8abc 3fd8 513c f7de 10be
000003e0: da3c 2d3b f9ba a0bd 3efb 31bd d5cc 00be
000003f0: a5f5 3f3d 67d1 03bd 886a a2bd bbc6 833d

2.bias f4 [128]
0.04086846 -0.029039634 15.653868 -0.068095595 0.01913182 7.3108134 0.021225218 -0.0046108803
-0.069560274 -0.14503106 0.053429846 -0.028947225 0.10690327 0.38223988 -0.059095725 14.1571045
10.597062 -0.033761155 21.846247 0.035585638 -0.023703182 -0.014178338 -5.609997 0.8941951
14.51369 0.03621987 3.3448215 0.034863546 -0.09391005 22.906376 0.13968913 13.136105
22.996151 0.015528065 24.035639 -0.107956894 0.061940603 -0.18421556 -0.03398506 -0.029919803
-0.08250766 -0.113160744 14.196709 6.479186 12.781036 4.1271005 -0.01797594 -0.08684664
24.973145 8.548668 -7.853446 13.143764 0.22428767 27.478907 -0.041975304 -0.060099002
25.64052 0.9452504 0.36862954 -0.07651854 -0.013456718 -7.7074566 0.103016704 15.488855
0.09406072 0.99982893 0.026101684 1.7314374 15.892252 27.51292 -0.058799885 2.0943453
0.025167678 16.847837 0.03692795 18.579435 0.060069904 -0.11111559 0.044414666 0.044702936
-0.05841725 1.62955 8.222027 7.672124 -7.046313 -0.004597334 -0.06320476 -0.09737829
-0.0965192 -0.36987713 -0.01705426 -0.016644504 18.319025 -0.08129849 2.8785949 -0.13083483
-0.21405344 -0.086255275 -0.06311068 -0.073861845 0.4151341 -0.13265948 21.719296 -0.05699995
-0.032627184 20.719793 -0.101938896 1.1354349 0.029746423 -0.025629696 0.21691146 -0.03401865
-0.19471298 -0.086348884 24.113976 16.083101 28.53329 24.239758 29.347488 0.52553177
0.035989456 -0.030963331 -0.08903957 0.019021848 1.2852325 0.025558863 22.748663 0.04346428
00000000: b065 273d 87e4 edbc 3e76 7a41 b475 8bbd
00000010: 56ba 9c3c 2ff2 e940 82e0 ad3c de16 97bb
00000020: 9e75 8ebd 0683 14be 41d9 5a3d bb22 edbc
00000030: 1af0 da3d f2b4 c33e 5c0e 72bd 8083 6241
00000040: 918d 2941 2349 0abd 1dc5 ae41 3fc2 113d
00000050: 2d2d c2bc 434c 68bc 1885 b3c0 f8e9 643f
00000060: 1338 6841 495b 143d 8e11 5640 14cd 0e3d
00000070: ea53 c0bd 4240 b741 ab0a 0f3e 7c2d 5241
00000080: 1ef8 b741 6d69 7e3c fd48 c041 8118 ddbd
00000090: 6eb5 7d3d 01a3 3cbe eb33 0bbd 601a f5bc
000000a0: c7f9 a8bd d2c0 e7bd b825 6341 7e55 cf40
000000b0: 207f 4c41 3511 8440 4742 93bc a7dc b1bd
000000c0: 00c9 c741 58c7 0841 6e4f fbc0 db4c 5241
000000d0: abab 653e cdd4 db41 4cee 2bbd 5f2a 76bd
000000e0: c91f cd41 eefb 713f 03bd bc3e c1b5 9cbd
000000f0: 9179 5cbc 7ca3 f6c0 6cfa d23d 5ad2 7741
00000100: e8a2 c03d caf4 7f3f 33d3 d53c be9f dd3f
00000110: aa46 7e41 761a dc41 26d8 70bd c109 0640
00000120: 722c ce3c 5fc8 8641 c341 173d afa2 9441
00000130: dc0b 763d 9290 e3bd 27ec 353d 6d1a 373d
00000140: ed46 6fbd 1895 d03f 6c8d 0341 0a82 f540
00000150: 657b e1c0 3ca5 96bb 7f71 81bd 456e c7bd
00000160: dcab c5bd 8960 bdbe 60b5 8bbc 0e5a 88bc
00000170: 5d8d 9241 d37f a6bd e63a 3840 91f9 05be
00000180: d330 5bbe 9ba6 b0bd 2c40 81bd e144 97bd
00000190: 758c d43e e3d7 07be 1ec1 ad41 c878 69bd
000001a0: 15a4 05bd 23c2 a541 57c5 d0bd ee55 913f
000001b0: c5ae f33c 5ef5 d1bc 0a1e 5e3e 2457 0bbd
000001c0: d762 47be afd7 b0bd 6ce9 c041 31aa 8041
000001d0: 2e44 e441 06eb c141 a8c7 ea41 4089 063f
000001e0: ae69 133d d0a6 fdbc 615a b6bd b5d3 9b3c
000001f0: 8082 a43f d260 d13c 43fd b541 9a07 323d

4.weight f4 [128, 128]
-0.046986435 0.007251734 -0.065091886 0.07588266 -0.004126071 -0.07638291 0.057296257 0.010423643
-0.025477296 0.079075344 -0.046552636 -0.043853246 -0.03034336 0.010124463 -0.06868593 -0.012652394
-0.11729228 -0.047640953 -0.051702507 -0.06422267 0.020250475 0.038830586 -0.05337796 -0.026553463
-0.029893486 -0.07164244 -0.115660325 -0.05724997 -0.06407767 0.012465847 0.07133902 0.06306824
-0.054413773 0.049177185 0.04575629 -0.018699704 -0.028821385 -0.08350223 -0.0063688946 -0.034243166
0.022304228 -0.08115212 -0.00846432 0.015545633 -0.021987926 -0.013584941 0.08389704 0.038450304
-0.09754294 -0.040018674 0.009010007 0.0067409826 -0.074448064 -0.09218115 -0.036553044 -0.01076185
0.0052841925 0.021788983 -0.041211534 -0.049354095 0.049500704 -0.10072402 -0.015590224 -0.07927572
-0.06724316 0.033028305 -0.00432806 0.07416811 0.087573804 -0.073272 -0.04720763 0.020096775
-0.01112446 -0.08095665 -0.05262601 -0.0474063 0.009190004 0.037553325 0.054224458 0.074745536
-0.046685368 0.06690031 -0.08244654 -0.07593185 -0.06983904 0.04053552 0.014651614 -0.07686165
0.023786353 -0.0034230826 0.0642107 -0.04994686 -0.073309876 -0.005576418 -0.03543332 -0.015030588
-0.023667088 0.08620834 -0.011584514 -0.085515335 -0.052000843 -0.002793946 0.049863525 0.021380274
-0.08720787 0.012900023 0.06310419 -0.06011346 0.04111265 0.073465884 0.07428954 0.014651319
-0.084800325 -0.07556798 0.033678666 -0.028461292 0.043980785 0.056765713 -0.111038364 0.03992001
-0.07344584 -0.06407693 0.062219758 0.079588294 0.042783435 0.041050736 -0.021444771 0.057158753
-0.08287978 0.03482838 -0.039030936 -0.036791377 -0.08321236 -0.055117182 -0.019265093 0.0037068718
-0.018293196 -0.04351008 -0.031607997 -0.08402194 0.021142103 -0.033036686 -0.033796534 0.010631131
-0.12015645 -0.006666285 -0.17045203 -0.032987356 0.052967105 0.0047286763 -0.031772412 0.0373987
-0.041595425 0.06492331 -0.03370494 0.05258969 -0.07629834 0.037891883 -0.026213774 0.0027480272
-0.1272401 0.039095446 -0.011231703 -0.0665203 0.0661419 0.025931485 -0.004204297 -0.028096458
-0.0053268136 -0.07453752 -0.1099916 -0.04580134 -0.05074005 0.013123115 0.051933177 -0.024577018
-0.14904799 -0.024677858 -0.06584557 -0.10590048 0.07850696 -0.0053377952 -0.043785512 0.068960264
-0.1007527 -0.108803116 -0.04843745 0.058214054 -0.01364593 -0.098309726 -0.0857655 -0.010442917
-0.0025603157 -0.09781714 -0.080883846 0.02996014 -0.096373506 -0.03144835 0.08062575 -0.04897621
0.04994078 0.015814025 -0.025922181 -0.074118406 -0.06420312 -0.08037586 0.003412227 -0.031629235
-0.022919383 0.019207653 -0.08168158 0.0077253226 -0.022057515 0.07616477 0.060881898 -0.031669084
0.0018898015 -0.07436162 0.02547504 0.05795869 -0.018687088 -0.032594033 -0.006542335 -0.06538743
-0.13082495 -0.015247233 -0.008141728 -0.018514879 0.012936039 -0.061700996 0.003555428 0.02193969
-0.014481415 -0.0024109073 -0.07102474 -0.11340409 0.010378061 0.055396035 -0.011263896 0.080357745
0.050143015 -0.08822881 -0.08749242 -0.054627273 0.009997214 0.0048575765 -0.08364412 0.010073869
-0.06000027 0.010996863 -0.06453957 -0.03145489 0.034314398 0.0456985 -0.13073272 0.050632093
00000000: d974 40bd f49f ed3b e54e 85bd 5e68 9b3d
00000010: fe33 87bb a56e 9cbd 7baf 6a3d edc7 2a3c
00000020: c3b5 d0bc 41f2 a13d faad 3ebd 769f 33bd
00000030: a392 f8bc 13e1 253c 35ab 8cbd fd4b 4fbc
00000040: ef36 f0bd 2923 43bd 02c6 53bd 2d87 83bd
00000050: 53e4 a53c d20c 1f3d d9a2 5abd a686 d9bc
00000060: 2fe3 f4bc 46b9 92bd 52df ecbd f27e 6abd
00000070: 273b 83bd 8d3d 4c3c 311a 923d ec29 813d
00000080: fae0 5ebd 046e 493d f36a 3b3d 1f30 99bc
00000090: d31a ecbc 3803 abbd 29b2 d0bb 9042 0cbd
000000a0: 5bb7 b63c 1533 a6bd eead 0abc 1cb3 7e3c
000000b0: 0620 b4bc 5f93 5ebc 36d2 ab3d 117e 1d3d
000000c0: 98c4 c7bd 9fea 23bd b59e 133c 76e3 dc3b
000000d0: 3a78 98bd 79c9 bcbd a5b8 15bd 7852 30bc
000000e0: 0527 ad3b cf7e b23c 6dcd 28bd 8527 4abd
000000f0: 40c1 4a3d 6548 cebd 246e 7fbc 4f5b a2bd
00000100: c8b6 89bd b048 073d 66d2 8dbb 73e5 973d
00000110: e559 b33d a10f 96bd ca5c 41bd fea1 a43c
00000120: 5e43 36bc 9acc a5bd 5f8e 57bd 1c2d 42bd
00000130: ac91 163c 84d1 193d 771a 5e3d 3014 993d
00000140: 2839 3fbd 0803 893d bbd9 a8bd 2882 9bbd
00000150: c507 8fbd 9308 263d 530d 703c a469 9dbd
00000160: 99db c23c cc55 60bb e680 833d 1495 4cbd
00000170: 7d23 96bd 62ba b6bb 8722 11bd db42 76bc
00000180: 7be1 c1bc 008e b03d f9cc 3dbc aa22 afbd
00000190: d6fe 54bd a31a 37bb b23d 4c3d af25 af3c
000001a0: 0a9a b2bd 9e5a 533c c53c 813d 8839 76bd
000001b0: bd65 283d 4875 963d 1d25 983d 160c 703c
000001c0: cbab adbd 63c3 9abd a4f2 093d a827 e9bc
000001d0: 3225 343d 2a83 683d 1568 e3bd 2a83 233d
000001e0: c66a 96bd c43a 83bd 25da 7e3d 30ff a23d
000001f0: af3d 2f3d d124 283d f2ac afbc 4c1f 6a3d
00000200: e0bc a9bd 34a8 0e3d e7de 1fbd 8eb2 16bd
00000210: 3e6b aabd 8ec2 61bd d4d1 9dbc fdee 723b
00000220: 9ddb 95bc a037 32bd 6377 01bd b213 acbd
00000230: 3432 ad3c 7a51 07bd 3c6e 0abd 322e 2e3c
00000240: 9614 f6bd da70 dabb fa8a 2ebe c01d 07bd
00000250: 09f4 583d 03f3 9a3b ca23 02bd 612f 193d
00000260: f75f 2abd 83f6 843d 310e 0abd 4968 573d
00000270: 4e42 9cbd 8534 1b3d 45be d6bc 3f18 343b
00000280: 3b4b 02be 8c22 203d 2d05 38bc cc3b 88bd
00000290: 6875 873d 446e d43c 33c4 89bb 8b2a e6bc
000002a0: 8d8c aebb 21a7 98bd 4743 e1bd 309a 3bbd
000002b0: ccd4 4fbd 5502 573c e2b7 543d be55 c9bc
000002c0: 09a0 18be 3829 cabc 0bda 86bd 5ae2 d8bd
000002d0: 42c8 a03d ace8 aebb 7058 33bd 0a3b 8d3d
000002e0: 6e57 cebd 2bd4 debd 5966 46bd dc71 6e3d
000002f0: 2e93 5fbc 9c56 c9bd d3a5 afbd c518 2bbc
00000300: f8ca 27bb 5a54 c8bd 6ea6 a5bd f86e f53c
00000310: 795f c5bd fccf 00bd 1d1f a53d 479b 48bd
00000320: b48e 4c3d 6a8c 813c c15a d4bc 64cb 97bd
00000330: ed7c 83bd 199c a4bd ab9f 5f3b a88d 01bd
00000340: 6ec1 bbbc 5e59 9d3c ac48 a7bd b424 fd3b
00000350: f6b1 b4bc 46fc 9b3d 4c5f 793d 71b7 01bd
00000360: 37b3 f73a e84a 98bd 08b1 d03c 1766 6d3d
00000370: aa15 99bc 5281 05bd 1561 d6bb d8e9 85bd
00000380: faf6 05be 88cf 79bc e264 05bc 84ac 97bc
00000390: aef1 533c 2fba 7cbd 2f02 693b ddba b33c
000003a0: 7543 6dbc 5000 1ebb 6b75 91bd 6740 e8bd
000003b0: be08 2a3c f4e6 623d 348c 38bc 9a92 a43d
000003c0: c362 4d3d 4eb1 b4bd 3a2f b3bd d9c0 5fbd
000003d0: 5bcb 233c 4e2c 9f3b 9c4d abbd de0c 253c
000003e0: d8c2 75bd 302c 343c 522d 84bd d8d6 00bd
000003f0: 418d 0c3d 5a2e 3b3d ccde 05be 9963 4f3d

4.bias f4 [128]
-0.01270081 -0.13414112 -0.057216745 -7.635172 -0.027302496 2.131075 -13.139647 -0.030501796
-0.143714 -0.13328797 -0.12668942 17.63561 26.138916 -0.049143083 0.33232 0.12042746
-0.010496137 20.69908 -0.09923126 0.72244376 0.03403391 0.44732195 0.010169353 29.782658
8.329109 0.35106492 17.528824 -0.14324331 24.469582 -0.10331325 -0.17136376 -0.1295563
26.107428 18.538364 29.888424 -19.813578 -17.112944 19.55444 0.03409347 1.6234282
-0.087446205 -0.1183169 1.0331658 -0.11350815 -0.09708833 0.02355898 1.976633 -0.007399455
16.440605 -0.1330723 0.12393092 28.067087 23.15184 13.185711 15.587067 34.235332
7.711227 -0.19615538 25.974775 25.3793 22.670202 -0.15853848 -19.214128 11.875053
-0.09676628 1.2607669 26.880236 0.031179408 12.884205 -0.113853574 1.8630731 0.0036888006
24.44049 0.9467735 -0.083121516 -0.0910614 -6.44134 -2.7384334 -0.12039521 1.5668236
-0.015842704 28.27438 -2.6235511 0.0014377407 -0.09407074 0.03098145 0.026468003 -0.043962825
0.02600779 1.4437486 0.018831948 27.601482 -0.06903922 24.457504 15.105591 -0.036594342
32.49987 -0.081949 26.821983 29.156858 -0.011783716 0.08501419 0.511966 32.47062
0.37319067 1.2236143 25.896841 -0.04850309 4.272207 0.034812346 -0.06878687 1.487922
0.016351258 25.155626 -0.07659497 18.292486 14.40882 -0.018629184 -0.054219045 25.501637
-0.020224 -0.12483211 0.45989975 0.030818988 -0.00030961444 -0.054929316 -0.11405845 14.674082
00000000: 0f17 50bc 4a5c 09be 1b5c 6abd 5453 f4c0
00000010: 7ca9 dfbc 8863 0840 fe3b 52c1 e7de f9bc
00000020: c329 13be a47c 08be dfba 01be bb15 8d41
00000030: 801c d141 424a 49bd d925 aa3e aca2 f63d
00000040: fdf7 2bbc b797 a541 c239 cbbd 13f2 383f
00000050: 2467 0b3d 6207 e53e 5c9d 263c e242 ee41
00000060: 0844 0541 c8be b33e 083b 8c41 60ae 12be
00000070: b4c1 c341 e695 d3bd fb79 2fbe 68aa 04be
00000080: 03dc d041 924e 9441 7e1b ef41 3582 9ec1
00000090: 4fe7 88c1 7e6f 9c41 98a5 0b3d 7fcc cf3f
000000a0: ff16 b3bd 2250 f2bd c73e 843f f676 e8bd
000000b0: 3fd6 c6bd c3fe c03c 4f02 fd3f 2177 f2bb
000000c0: 5c86 8341 1b44 08be 7fcf fd3d 6589 e041
000000d0: f836 b941 acf8 5241 a064 7941 fbf0 0842
000000e0: 5fc2 f640 f5dc 48be 57cc cf41 ce08 cb41
000000f0: 935c b541 e957 22be 89b6 99c1 3800 3e41
00000100: 662d c6bd cf60 a13f b90a d741 f56b ff3c
00000110: b425 4e41 102c e9bd 2e79 ee3f cebf 713b
00000120: 2086 c341 c05f 723f 9d3b aabd 667e babd
00000130: 751f cec0 7e42 2fc0 c491 f6bd ad8d c83f
00000140: 8fc8 81bc ee31 e241 43e8 27c0 9372 bc3a
00000150: 29a8 c0bd cfcc fd3c 6dd3 d83c 5d12 34bd
00000160: 4a0e d53c c1cc b83f 7545 9a3c d6cf dc41
00000170: 6f64 8dbd f8a8 c341 80b0 7141 f3e3 15bd
00000180: deff 0142 e1d4 a7bd 6c93 d641 3f41 e941
00000190: 7d10 41bc eb1b ae3d 3410 033f eae1 0142
000001a0: d912 bf3e 659f 9c3f bb2c cf41 2dab 46bd
000001b0: ebb5 8840 6497 0e3d 21e0 8cbd 3a74 be3f
000001c0: 13f3 853c b93e c941 d3dd 9cbd 0357 9241
000001d0: 878a 6641 3b9c 98bc ca14 5ebd 5a03 cc41
000001e0: cdac a5bc faa7 ffbd fb77 eb3e 1a78 fc3c
000001f0: bf53 a2b9 90fd 60bd 7a97 e9bd 0ac9 6a41

6.weight f4 [128, 128]
0.05248213 0.08218826 -0.02470733 -0.073866665 0.012720571 0.12775281 -0.22853746 -0.01639954
0.096366785 -0.02909713 -0.04482831 -0.43195748 0.09678081 -0.015285651 0.021264309 -0.040273227
-0.0036905326 0.24796724 -0.12200235 -0.026199618 0.0032059879 -0.010171646 -0.018999489 0.0019337352
-0.12828884 -0.05821955 0.030052293 0.06685074 0.033648327 -0.034209758 -0.01945338 -0.029151112
-0.07014258 0.026493557 0.023346942 -0.26041397 -0.11633725 0.16003312 0.09438226 -0.024262978
0.0024848976 0.011133914 0.06242719 -0.094126225 -0.06907848 -0.014492834 -0.21182425 -0.083812565
-0.08934809 -0.008203926 0.10871822 0.06894944 0.107024856 -0.57806844 -0.024403669 0.16700192
0.06797548 0.03601675 -0.028429195 0.096824974 0.10195399 0.045461953 0.054686468 -0.07644179
-0.019946573 -0.060280226 0.08076051 0.076568805 -0.792359 -0.024087261 -0.09211149 0.019344874
-0.052372094 -0.061231013 -0.033723585 -0.045406368 -0.21189342 -0.18973856 -0.07977716 0.045571275
-0.111198224 -0.014176007 -0.17673285 -0.029815663 0.018239796 0.06201113 -0.0759674 0.0009966933
0.13753754 0.07797 -0.019939132 -0.0629936 -0.01261688 0.10191573 -0.0010474266 -0.025000628
0.15553376 0.043389067 -0.068703175 0.102854624 0.058915876 0.08639613 -0.052480865 0.15367788
0.09712288 -0.052906934 0.06640524 -0.12609947 0.08127492 -0.025473379 -0.052648492 0.022055795
0.016327599 0.070855334 0.07142946 -0.04626287 0.10619405 0.061957534 0.09101742 0.010473504
-0.04209158 -0.07724153 -0.12646006 0.03222799 -0.07285835 0.049421497 0.0014379536 -0.07615196
-0.07659881 0.056750793 -0.058959097 -0.27383065 0.011199555 -0.10834975 -0.04234413 -0.022150991
-0.032010656 -0.08577905 -0.07215923 0.018477254 -0.10208195 0.042981755 0.053490333 0.007863806
0.038049206 -0.06165308 -0.066664405 0.062045213 0.04433363 0.011604713 -0.04829164 -0.084770955
0.05434295 0.08719637 -0.13997503 0.026590722 -0.09000799 -0.0043969946 -0.0055283913 -0.075718895
-0.013632758 -0.052379496 0.06824991 -0.041824274 -0.2669157 0.01723234 0.0806683 0.0679946
0.036033902 -0.083047174 0.037420508 -0.023506487 -0.06773875 -0.033625767 -0.10134158 -0.04418593
0.031009123 0.07814083 -0.07975725 -0.008900432 -0.02138267 -0.022415614 -0.050186325 -0.09388583
-0.099878654 0.07292504 0.028881505 -0.010172739 -0.030490605 -0.043611687 -0.048360977 -0.11677847
-0.065401 0.055356637 0.018983254 0.061422423 -0.047585443 0.03999405 0.043160785 -0.104726285
-0.06473019 -0.09710754 -0.006115613 0.07448657 -0.12624653 -0.07307201 -0.019007972 0.03060036
0.08617709 -0.008504626 0.050351683 0.07692418 0.05292306 -0.049773496 -0.0591913 0.057762075
0.053288877 -0.06689557 -0.01627068 -0.08706487 0.016299505 0.039067924 0.06386073 -0.0015145259
-0.021771234 0.008304492 -0.082835756 -0.117304154 0.091646984 -0.10599425 0.005785714 -0.0589162
0.022611994 -0.013090835 -0.0005117801 -0.056166217 -0.08437186 0.0653114 0.007762385 0.08785196
-0.057488143 0.010774065 0.011112691 0.027271338 -0.013651201 -0.0010957232 0.0075521674 -0.03886775
0.0027610331 -0.05733043 0.047787372 0.07233629 -0.030863576 -0.01435215 0.022104554 -0.051908348
00000000: 80f7 563d 5252 a83d 0767 cabc 6847 97bd
00000010: f169 503c a2d1 023e b905 6abe 5458 86bc
00000020: f35b c53d 1b5d eebc e49d 37bd 8829 ddbe
00000030: 0435 c63d ab70 7abc 7d32 ae3c 8af5 24bd
00000040: dddc 71bb 20eb 7d3e 5edc f9bd 95a0 d6bc
00000050: 8d1b 523b faa6 26bc d1a4 9bbc 6375 fd3a
00000060: 265e 03be 9f77 6ebd 3a30 f63c 0ae9 883d
00000070: d4d2 093d 881f 0cbd b25c 9fbc 50ce eebc
00000080: eaa6 8fbd 0409 d93c 1642 bf3c fb54 85be
00000090: 3942 eebd b9df 233e 7d4b c13d 27c3 c6bc
000000a0: aad9 223b 056b 363c a7b3 7f3d 40c5 c0bd
000000b0: 0579 8dbd 5a73 6dbc 75e8 58be eca5 abbd
000000c0: 22fc b6bd c269 06bc a8a7 de3d 5d35 8d3d
000000d0: d92f db3d 4bfc 13bf 34ea c7bc 8d02 2b3e
000000e0: ba36 8b3d 4d86 133d 58e4 e8bc 2c4c c63d
000000f0: 41cd d03d 5036 3a3d ebfe 5f3d 838d 9cbd
00000100: ff66 a3bc 66e8 76bd c465 a53d 1bd0 9c3d
00000110: 0ad8 4abf a652 c5bc f3a4 bcbd 2479 9e3c
00000120: 1f84 56bd 5fcd 7abd be21 0abd 07fc 39bd
00000130: 97fa 58be d34a 42be 3562 a3bd f2a8 3a3d
00000140: e5bb e3bd 7c42 68bc 75f9 34be fa3f f4bc
00000150: a06b 953c 62ff 7d3d cc94 9bbd 7aa3 823a
00000160: a4d6 0c3e bcae 9f3d 6457 a3bc ca02 81bd
00000170: 08b7 4ebc 32b9 d03d ce49 89ba 1ece ccbc
00000180: 3e44 1f3e bcb8 313d 40b4 8cbd 72a5 d23d
00000190: c651 713d 74f0 b03d 2df6 56bd bc5d 1d3e
000001a0: 5ce8 c63d f1b4 58bd 78ff 873d 3820 01be
000001b0: 7773 a63d 8cad d0bc f2a5 57bd 5bae b43c
000001c0: 75c1 853c 9a1c 913d 9c49 923d 237e 3dbd
000001d0: 447c d93d 2fc7 7d3d 5767 ba3d 0f99 2b3c
000001e0: 3868 2cbd cf30 9ebd bf7e 01be 7f01 043d
000001f0: c236 95bd 326e 4a3d b779 bc3a 8ff5 9bbd
00000200: d6df 9cbd 8573 683d 187f 71bd 8833 8cbe
00000210: 577e 373c 79e6 ddbd 0a71 2dbd ff75 b5bc
00000220: 9b1d 03bd edac afbd 38c8 93bd 9c5d 973c
00000230: 5710 d1bd a30d 303d ae18 5b3d 31d7 003c
00000240: 7cd9 1b3d f187 7cbd 5987 88bd 1f23 7e3d
00000250: 2e97 353d b221 3e3c 74cd 45bd 659c adbd
00000260: b796 5e3d 0394 b23d 9d55 0fbe c9d4 d93c
00000270: 1c56 b8bd aa14 90bb 8227 b5bb 8212 9bbd
00000280: ee5b 5fbc e28b 56bd 9cc6 8b3d ee4f 2bbd
00000290: 2da9 88be d62a 8d3c 6c35 a53d c140 8b3d
000002a0: 4998 133d a314 aabd 3f46 193d ad90 c0bc
000002b0: 9dba 8abd 2cbb 09bd 2d8c cfbd 4efc 34bd
000002c0: d806 fe3c 4d08 a03d c557 a3bd 1ed3 11bc
000002d0: b62a afbc f3a0 b7bc 2d90 4dbd 3747 c0bd
000002e0: 2e8d ccbd b959 953d e898 ec3c 8fab 26bc
000002f0: 6fc7 f9bc 2ba2 32bd 2916 46bd 8d29 efbd
00000300: f6f0 85bd a4bd 623d c582 9b3c 1496 7b3d
00000310: f4e8 42bd cdd0 233d 5dc9 303d bc7a d6bd
00000320: 4391 84bd 51e0 c6bd 7b65 c8bb 6a8c 983d
00000330: c546 01be c7a6 95bd 9bb6 9bbc 9bad fa3c
00000340: 9d7d b03d fd56 0bbc 913d 4e3d 6d8a 9d3d
00000350: dac5 583d 4bdf 4bbd 9472 72bd ed97 6c3d
00000360: 7045 5a3d 8b00 89bd 174a 85bc 114f b2bd
00000370: 8a86 853c b005 203d 6ac9 823d 0e83 c6ba
00000380: 9659 b2bc 900f 083c cba5 a9bd 293d f0bd
00000390: 6ab1 bb3d 8313 d9bd 1696 bd3b 1d52 71bd
000003a0: ca3c b93c f17a 56bc fb28 06ba 8c0e 66bd
000003b0: 27cb acbd fcc1 853d 9b5b fe3b baeb b33d
000003c0: b078 6bbd b485 303c 0112 363c 2468 df3c
000003d0: 49a9 5fbc 5f9e 8fba 2c78 f73b ca33 1fbd
000003e0: 73f2 343b 50d3 6abd b1bc 433d 0c25 943d
000003f0: 9cd5 fcbc 4825 6bbc 9c14 b53c d99d 54bd

6.bias f4 [128]
27.167442 0.9305649 25.838228 -0.13117471 0.010883865 -0.08236196 -0.06390928 -0.002163057
-0.018750431 23.538198 27.954004 -0.012798325 0.00015842455 29.58011 25.998228 -0.0942092
25.376589 24.293606 0.47269738 5.808428 0.009968193 24.549917 10.6688 0.27527192
0.021907918 -0.102836005 0.016322514 20.768692 -0.020610878 27.546003 26.950201 -0.06252221
25.615778 0.11887411 29.722101 -0.048845198 3.3003726 -0.01196683 27.830385 6.1423316
29.994743 26.330032 26.00064 -0.13225101 10.292895 1.3812073 0.03743813 22.672955
0.0543711 0.037159715 0.03380691 27.221647 0.03417552 -1.3647598 -2.9748192 -0.007646643
7.109118 27.432114 -0.10853792 24.891819 0.06533835 -0.009321013 -0.060516022 0.033490695
0.034632985 0.022170473 26.228176 1.8200777 26.958157 30.447346 23.948954 -0.033154994
28.606987 0.0079128 24.753422 0.026938708 0.08386609 -0.100522324 0.95058584 24.421381
3.901662 0.036784988 28.592093 -0.10126251 29.185877 0.059129283 0.66006535 4.820224
-0.05928355 26.10433 0.010009266 29.68363 -5.7817116 3.266697 0.41028574 26.191439
-0.042302843 33.029102 27.466705 -4.98088 26.509623 -0.04085581 -0.09088711 -0.007706172
-0.0022144823 26.55205 1.2808796 3.9381192 25.306732 -18.759186 32.705605 -0.063720286
-0.03915275 25.151722 0.24728599 1.2596377 -0.04529866 -0.07979318 25.482084 0.008785559
-0.09124634 30.227482 1.4266241 -0.05639246 -15.105555 31.923075 -0.030809 25.176249
00000000: ec56 d941 8039 6e3f b1b4 ce41 aa52 06be
00000010: 3d52 323c 63ad a8bd dee2 82bd 13c2 0dbb
00000020: 819a 99bc 3b4e bc41 cda1 df41 11b0 51bc
00000030: c41e 2639 11a4 ec41 5ffc cf41 c1f0 c0bd
00000040: 4103 cb41 4e59 c241 6405 f23e a4de b940
00000050: a251 233c 3b66 c441 68b3 2a41 71f0 8c3e
00000060: 3c78 b33c af9b d2bd cbb6 853c 4826 a641
00000070: 25d8 a8bc 375e dc41 039a d741 a50b 80bd
00000080: 1ded cc41 4574 f33d ddc6 ed41 e711 48bd
00000090: 4e39 5340 8610 44bc a1a4 de41 fb8d c440
000000a0: 3cf5 ef41 e8a3 d241 5001 d041 cf6c 07be
000000b0: b3af 2441 67cb b03f b958 193d 3662 b541
000000c0: 3bb4 5e3d c934 183d 1d79 0a3d efc5 d941
000000d0: a1fb 0b3d 73b0 aebf 7063 3ec0 b190 fabb
000000e0: e57d e340 f874 db41 2149 debd 7222 c741
000000f0: 1dd0 853d 2ab7 18bc a6df 77bd 8a2d 093d
00000100: 51db 0d3d da9e b53c 4ed3 d141 4ef8 e83f
00000110: 4eaa d741 2a94 f341 7597 bf41 88cd 07bd
00000120: 1cdb e441 b0a4 013c 0207 c641 91ae dc3c
00000130: fcc1 ab3d a6de cdbd 9859 733f fd5e c341
00000140: d5b4 7940 dbab 163d 9bbc e441 b862 cfbd
00000150: ad7c e941 8c31 723d 0bfa 283f 463f 9a40
00000160: 4fd3 72bd abd5 d041 e8fd 233c 1378 ed41
00000170: c803 b9c0 9011 5140 f910 d23e 1188 d141
00000180: bf45 2dbd cd1d 0442 d0bb db41 5e63 9fc0
00000190: b513 d441 6c58 27bd 0523 babd 0e84 fcbb
000001a0: d920 11bb 996a d441 ddf3 a33f 250a 7c40
000001b0: 3074 ca41 d012 96c1 8ad2 0242 c87f 82bd
000001c0: a25e 20bd ba36 c941 8a38 7d3e cf3b a13f
000001d0: 168b 39bd 9b6a a3bd 4fdb cb41 4ef1 0f3c
000001e0: 5cdf babd e2d1 f141 9e9b b63f c8fb 66bd
000001f0: 5ab0 71c1 7562 ff41 2863 fcbc f568 c941

8.weight f4 [128, 128]
0.022272756 -0.080527574 -0.011359635 0.032003365 -0.032398723 0.021846745 -0.025355102 -0.081394926
-0.06433242 -0.010457169 -0.09627967 0.07902396 0.039016265 0.08020602 -0.03323789 0.06001685
-0.11376763 -0.009964951 0.03960336 0.006003852 -0.040822297 -0.0417141 -0.033788875 0.06995558
0.021799823 -0.026014918 -0.021781225 0.0008872441 0.038056865 0.058393482 0.029735414 0.0809446
-0.038283754 0.028257463 0.058361705 0.079514 0.009900024 0.08025943 -0.05704931 -0.084736
0.05008463 0.048451867 0.048246846 -0.066656694 0.074548095 -0.07698877 0.07954478 -0.03323819
0.090206265 0.042117987 0.058241654 0.0014093884 -0.08617133 -0.07877069 -0.10801918 -0.039470963
-0.06288531 0.022049865 -0.07983714 -0.09102257 -0.0087693995 -0.020150788 -0.016851742 -0.07627679
-0.08394713 -0.07773063 -0.045414343 -0.016035428 -0.09765258 -0.08759457 -0.013563871 0.09285245
0.058316942 -0.012010208 -0.06861608 0.016643684 -0.076261625 -0.061714366 0.015865525 0.017557668
-0.050039414 -0.0012739307 -0.00498928 -0.018371506 0.021406228 0.046005644 -0.0575472 -0.03736022
-0.07623378 -0.084546246 -0.081108645 -0.07543383 -0.05841078 -0.00219191 -0.008818411 0.008834389
0.063696586 -0.009397998 -0.0091879 -0.0077047115 -0.04577942 0.0038494207 0.024331449 0.077548996
0.076519415 -0.11454044 0.0004731447 0.03565119 0.0123516675 -0.0845227 0.057133738 -0.06420959
-0.060158018 -0.0963757 0.0814094 0.071138635 -0.026399901 0.029917339 0.023429422 -0.087113775
-0.04526197 -0.04267561 -0.00069397275 -0.019007456 0.023856655 -0.05687451 -0.039816357 0.0054081087
-0.06767179 -0.015226809 -0.52693766 0.074360274 0.026418325 0.009651418 -0.010368892 0.08195392
0.011673772 -0.06960576 -0.09039632 0.055690624 -0.029681575 0.066182755 -0.10085999 0.065161884
-0.03507291 -0.005684144 -0.012296798 -0.19352984 0.011598296 -0.12302195 -0.03355705 -0.007143867
-0.0069346554 0.08394636 -0.03554311 -0.04350433 0.04379982 -0.11961735 0.0054520266 -0.012059587
-0.13666858 -0.0669303 0.0038775064 -0.061204087 0.001155283 0.04477777 -0.15891333 -0.08684079
0.01949087 0.019778699 0.026191492 -0.004543405 -0.07266659 -0.2226234 -0.03135944 -0.027311582
0.06601907 0.06268388 0.038951673 -0.074763805 0.022603143 0.02567901 -0.1040716 0.062233064
-0.11296621 -0.0680643 -0.0055988827 0.07418554 -0.07436368 0.07825609 0.050702285 0.083642006
0.020053878 0.08680398 -0.064489804 0.034789406 -0.09681243 0.051125936 -0.049162135 -0.012000794
-0.17097719 -0.04565699 -0.069467165 0.046576943 0.005369751 -0.085078984 0.017221363 -0.08919934
0.04826351 0.057957057 -0.041539818 0.035707377 -0.043772236 -0.05112321 -0.039525747 -0.027873995
0.02533019 -0.12425971 0.033574186 0.079716496 -0.09834225 0.0920951 0.018614402 -0.006204576
0.027314454 -0.025640348 -0.042320065 -0.10351207 -0.035236917 0.0015829494 0.08782343 0.023731867
-0.07282378 -0.09290559 -0.020073524 -0.1816339 -0.078583665 -0.06635553 -0.022861661 0.08106597
0.042813305 -0.13808632 0.008413095 0.022865277 -0.00510647 0.031622797 -0.033844374 -0.041659825
-0.10462349 0.08338172 0.064824656 0.09349089 -0.31945735 -0.044671193 0.028373709 0.08218353
00000000: 5b75 b63c a4eb a4bd c31d 3abc f615 033d
00000010: 86b4 04bd f2f7 b23c 81b5 cfbc 62b2 a6bd
00000020: b7c0 83bd 8c54 2bbc 472e c5bd 50d7 a13d
00000030: 85cf 1f3d 0e43 a43d 7424 08bd 3ad4 753d
00000040: 01ff e8bd 0944 23bc 2237 223d f6bb c43b
00000050: 4835 27bd 67dc 2abd 3466 0abd df44 8f3d
00000060: 8b95 b23c 3d1d d5bc 8a6e b2bc f295 683a
00000070: 84e1 1b3d 012e 6f3d af97 f33c 48c6 a53d
00000080: 6dcf 1cbd 327c e73c af0c 6f3d 3cd8 a23d
00000090: b633 223c 0e5f a43d 8aac 69bd 118a adbd
000000a0: 8a25 4d3d 7775 463d 7c9e 453d 4e83 88bd
000000b0: acac 983d 4aac 9dbd 60e8 a23d c524 08bd
000000c0: 10be b83d e983 2c3d cd8e 6e3d 3abb b83a
000000d0: 987a b0bd 8752 a1bd 2939 ddbd 4eac 21bd
000000e0: 03ca 80bd eba1 b43c a881 a3bd 0b6a babd
000000f0: 87ad 0fbc 4413 a5bc aa0c 8abc 0137 9cbd
00000100: 79ec abbd 3d31 9fbd 6404 3abd bb5c 83bc
00000110: 13fe c7bd c864 b3bd 003b 5ebc 6d29 be3d
00000120: bfdd 6e3d 77c6 44bc 9686 8cbd 5658 883c
00000130: 0e2f 9cbd 34c8 7cbd 6bf8 813c 19d5 8f3c
00000140: 21f6 4cbd 05fa a6ba 1d7d a3bb d77f 96bc
00000150: 1d5c af3c 6a70 3c3d 9db6 6bbd 0807 19bd
00000160: 7520 9cbd 9526 adbd 4a1c a6bd 0d7d 9abd
00000170: 2440 6fbd 26a6 0fbb 197b 10bc 1dbe 103c
00000180: 5b73 823d 10fa 19bc d988 16bc ce77 fcbb
00000190: 3383 3bbd 9046 7c3b bf52 c73c 02d2 9e3d
000001a0: 36b6 9c3d 2e94 eabd 6810 f839 fb06 123d
000001b0: a65e 4a3c 3d1a adbd 1105 6a3d 5180 83bd
000001c0: 4168 76bd 9f60 c5bd f9b9 a63d 22b1 913d
000001d0: 9b44 d8bc 3515 f53c 0fef bf3c b568 b2bd
000001e0: 9e64 39bd 9fcc 2ebd b9eb 35ba 86b5 9bbc
000001f0: 086f c33c 3ff5 68bd 7a16 23bd 8136 b13b
00000200: 8297 8abd de79 79bc 63e5 06bf 334a 983d
00000210: 3e6b d83c fb20 1e3c 49e2 29bc 75d7 a73d
00000220: 5943 3f3c 778d 8ebd b521 b9bd da1b 643d
00000230: c626 f3bc d38a 873d af8f cebd 9873 853d
00000240: 9da8 0fbd 0e42 babb 8278 49bc b02c 46be
00000250: c806 3e3c eff2 fbbd 1e73 09bd 1a17 eabb
00000260: 1b3c e3bb 12ec ab3d a795 11bd 9931 32bd
00000270: 7167 333d f1f9 f4bd eaa6 b23b 9395 45bc
00000280: d9f2 0bbe c112 89bd c31d 7e3b 23b1 7abd
00000290: dd6c 973a e568 373d 2dba 22be 96d9 b1bd
000002a0: 51ab 9f3c f006 a23c 8a8f d63c d8e0 94bb
000002b0: 39d2 94bd 63f7 63be c272 00bd 8abc dfbc
000002c0: 0235 873d 6860 803d ca8b 1f3d c41d 99bd
000002d0: 3a2a b93c ca5c d23c 7e23 d5bd 19e8 7e3d
000002e0: d45a e7bd 4c65 8bbd d576 b7bb 97ee 973d
000002f0: fc4b 98bd bb44 a03d 33ad 4f3d 804c ab3d
00000300: 0848 a43c 49c6 b13d 3b13 84bd 567f 0e3d
00000310: 9845 c6bd 6e69 513d 3c5e 49bd fa9e 44bc
00000320: a514 2fbe d302 3bbd cd44 8ebd 77c7 3e3d
00000330: bcf4 af3b e43d aebd d113 8d3c 25ae b6bd
00000340: f5af 453d 6164 6d3d a825 2abd e641 123d
00000350: 844a 33bd 9266 51bd c0e5 21bd 0158 e4bc
00000360: 4281 cf3c e07b febd 1685 093d 6742 a33d
00000370: a967 c9bd 5b9c bc3d 3b7d 983c c24f cbbb
00000380: 90c2 df3c b50b d2bc ce57 2dbd 23fe d3bd
00000390: 9654 10bd f87a cf3a c5dc b33d 5569 c23c
000003a0: a224 95bd 4945 bebd 3b71 a4bc 3dfe 39be
000003b0: 79f0 a0bd 68e5 87bd 6148 bbbc ea05 a63d
000003c0: 015d 2f3d 8066 0dbe 14d7 093c f64f bb3c
000003d0: 2d54 a7bb e886 013d 66a0 0abd 7ea3 2abd
000003e0: d744 d6bd 09c4 aa3d cac2 843d 2778 bf3d
000003f0: ea8f a3be 24f9 36bd fb6f e83c d74f a83d

8.bias f4 [128]
0.011409775 0.31370783 -0.085928075 11.707289 -0.07383659 0.012372297 0.069856614 25.640898
0.023179073 22.605604 -0.028725442 13.366759 -0.006778206 -0.124777645 25.92994 -0.11741891
-1.4823421 4.24034 -0.021404024 25.035883 -0.011909268 2.6735826e-05 1.0133756 -0.029524237
0.08797107 -0.13928947 -14.761708 25.21912 30.7023 7.024805 1.4224516 2.3535762
8.365935 -0.06716977 -9.00865 -0.07927641 0.09638193 26.93745 23.319998 -0.16657054
-0.028245427 21.61361 2.8278077 26.874031 24.743511 0.021779433 1.3346368 25.775612
26.581253 0.6520509 -0.12506545 26.849699 -0.03720366 2.388764 -0.10784485 29.17005
11.653818 0.20072637 1.6322384 -0.04743612 0.010881229 24.955658 26.875343 -0.011686433
18.255968 28.51999 -0.022911513 26.1448 -0.010136114 13.981378 25.589418 -0.11867028
-9.96478 26.684792 0.003104898 -0.011524699 -0.036161494 -0.081507616 0.010898962 -0.09087657
8.578634 0.105717994 14.815807 -0.06360083 -0.07728256 1.5325383 25.596508 22.521246
27.34501 -0.07729931 26.276464 0.14716704 -16.541044 3.804515 -0.015987277 -0.0246387
-0.11705915 27.19798 -0.024931211 26.274744 0.0143591855 -0.07061191 17.117682 -0.04741422
0.028274614 0.031108167 25.425152 -0.039369296 -0.03287901 0.13266687 -0.10978318 25.415634
27.420834 -0.0649698 27.630901 -0.065217316 3.49363 1.167332 -0.08436738 -16.479242
-0.44027779 -0.02168759 25.860456 14.339119 0.70197904 28.630432 -0.033126682 0.061153326
00000000: 11f0 3a3c 509e a03e 0ffb afbd 0e51 3b41
00000010: a337 97bd 2db5 4a3c fc10 8f3d 8f20 cd41
00000020: 0ae2 bd3c 47d8 b441 9e51 ebbc 3fde 5541
00000030: b71b debb 6c8b ffbd 8470 cf41 5379 f0bd
00000040: 63bd bdbf deb0 8740 7e57 afbc 7d49 c841
00000050: 171f 43bc c046 e037 4bb6 813f d0dc f1bc
00000060: 2d2a b43d e6a1 0ebe f52f 6cc1 c2c0 c941
00000070: 4f9e f541 34cb e040 e512 b63f fea0 1640
00000080: dfda 0541 4e90 89bd 6e23 10c1 ac5b a2bd
00000090: e463 c53d e67f d741 5b8f ba41 7891 2abe
000000a0: f462 e7bc ace8 ac41 cdfa 3440 04fe d641
000000b0: b6f2 c541 c86a b23c 61d5 aa3f 7434 ce41
000000c0: 68a6 d441 cfec 263f 2811 00be 2fcc d641
000000d0: dd62 18bd 82e1 1840 c3dd dcbd 435c e941
000000e0: 0a76 3a41 378b 4d3e 30ed d03f 614c 42bd
000000f0: 2f47 323c 30a5 c741 b400 d741 7478 3fbc
00000100: 390c 9241 f128 e441 edb0 bbbc 8d28 d141
00000110: f211 26bc b9b3 5f41 21b7 cc41 6709 f3bd
00000120: bd6f 1fc1 747a d541 8b7b 4b3b 17d2 3cbc
00000130: 131e 14bd 77ed a6bd 8f91 323c 7f1d babd
00000140: 1642 0941 ad82 d83d 8c0d 6d41 2741 82bd
00000150: 5246 9ebd 372a c43f a6c5 cc41 832b b441
00000160: 95c2 da41 1a4f 9ebd 3336 d241 f5b2 163e
00000170: 0f54 84c1 2c7d 7340 c0f7 82bc 19d7 c9bc
00000180: b5bc efbd 7795 d941 8a3c ccbc ad32 d241
00000190: ca42 6b3c fa9c 90bd 03f1 8841 6a35 42bd
000001a0: 2aa0 e73c 8ed6 fe3c b666 cb41 b341 21bd
000001b0: 24ac 06bd d3d9 073e 01d6 e0bd 3853 cb41
000001c0: de5d db41 e30e 85bd 160c dd41 a890 85bd
000001d0: a297 5f40 236b 953f cec8 acbd 7dd5 83c1
000001e0: 176c e1be 2caa b1bc 37e2 ce41 086d 6541
000001f0: e6b4 333f 200b e541 d8af 07bd e97b 7a3d
